model/my.ckpt (torch_old, 350937 bytes, 14 tensors)

lstm.weight_ih_l0 f4 [256, 12]
0.050232142 0.07071208 -0.009564076 0.046862885 -0.038303223 -0.15290444 0.05009087 -0.15721907
-0.053706698 0.040356126 -0.17705327 -0.12075242 0.01621855 0.115657896 -0.14397801 0.0040747724
0.0027817385 -0.027658131 0.042956058 -0.20518424 -0.091978066 0.089769304 -0.01933651 0.08016271
-0.04706507 -0.03193035 -0.15833983 0.003321106 -0.044015106 0.0643408 0.12077877 -0.18914168
-0.16195056 0.06937969 0.075092405 0.064876385 -0.07538696 0.04952809 -0.015655313 0.07607673
0.042352628 0.060780697 -0.008008802 -0.10028614 -0.232545 0.13003229 -0.020893924 0.102887295
-0.036561906 -0.024019174 -0.026736043 -0.067597605 0.09925451 0.1196913 -0.12097611 -0.23186308
-0.044448867 0.06717949 0.2048847 -0.023867622 -0.11365712 0.055360943 -0.002455923 -0.1335119
-0.11726457 0.034305327 -0.09609082 -0.038916115 -0.06806433 -0.050222397 0.045297902 -0.12790783
0.0070345635 -0.015675068 -0.110488914 0.1337997 0.13034278 -0.08631157 0.054388717 0.05577386
0.07952079 -0.023333495 0.1335916 -0.13282183 -0.045808572 -0.017987413 0.011486935 -0.060261972
-0.051186036 -0.048599385 -0.10511624 -0.09843871 -0.0017325614 0.027634338 -0.15970407 -0.041948985
-0.030738907 -0.018753521 -0.13692708 0.092459396 0.09546767 0.06457728 -0.014348101 -0.08703328
-0.010767369 0.06469863 0.11188076 0.020903094 -0.13601589 -0.05785922 0.13829537 -0.061186094
0.01718028 0.14043663 -0.03727905 0.107526034 -0.12775505 -0.031168433 -0.10165581 0.022864439
-0.12914847 -0.008476505 -0.03551264 0.067751355 -0.061909184 -0.0013570243 0.062324308 0.15828985
0.015945805 -0.0033198802 -0.03423873 0.031538367 0.04283683 -0.010706376 -0.1482852 -0.060815584
0.02797237 -0.09931608 -0.013868913 -0.07760057 0.04873171 0.13403057 0.0874488 -0.007900173
-0.08240692 0.04007622 0.0010282602 0.0065261032 -0.06221362 0.031050315 -0.06322924 -0.05449429
0.20287845 0.08174878 -0.08518504 0.07330395 -0.122558124 -0.09575402 -0.060537107 -0.05004696
-0.0333577 -0.09014891 -0.07401437 0.14058034 -0.09001601 -0.12694651 -0.078057095 -0.054347556
-0.10487945 -0.07171221 0.08187167 -0.07294445 0.0003852575 0.06387543 -0.109416254 -0.021697685
0.13166216 0.12216187 0.0016698776 0.10735642 0.049141716 0.04732795 -0.10434129 0.10121581
-0.10240371 0.065420784 -0.09896594 -0.070801035 0.042821284 -0.11355653 0.050795503 -0.18839823
-0.002487705 -0.06470282 -0.04255273 0.082463816 -0.03790753 0.02655556 -0.06386473 -0.027863037
-0.022849515 0.1700108 -0.14343043 -0.019279024 -0.08498749 -0.10039333 0.028238092 -0.032210942
-0.013140521 0.050788853 0.045519426 0.063727714 -0.061195955 -0.08117628 -0.079999074 0.064016186
-0.08212946 -0.07749138 -0.056226358 0.05488419 -0.072737224 -0.10011663 -0.052955553 0.024351625
-0.040085535 0.07081101 -0.045353957 0.01513673 -0.107678585 -0.04093015 0.044383932 -0.108937085
-0.08014396 0.08142568 0.043929975 0.03173453 -0.0073454636 0.04767615 0.008960235 -0.08165804
0.044730797 0.045428175 -0.021061897 -0.0843143 -0.15338503 0.015148476 0.09286046 -0.0459453
0.06527723 0.014749811 0.086880766 -0.015027803 0.10880273 -0.07577355 -0.10118863 -0.08607493
00000000: 38c0 4d3d 7fd1 903d a4b2 1cbc 4cf3 3f3d
00000010: d7e3 1cbd fb92 1cbe 162c 4d3d 09fe 20be
00000020: 8efb 5bbd 774c 253d 744d 35be 0b4d f7bd
00000030: c4dc 843c 0cde ec3d f96e 13be ab85 853b
00000040: d44d 363b 4e93 e2bc b1f2 2f3d d11b 52be
00000050: ff5e bcbd f8d8 b73d 9a67 9ebc 592c a43d
00000060: 4ec7 40bd 66c9 02bd d623 22be eaa6 593b
00000070: 2f49 34bd 1cc5 833d dc5a f73d 5bae 41be
00000080: 5ed6 25be f016 8e3d 0cca 993d e9dd 843d
00000090: 7a64 9abd f7dd 4a3d 923f 80bc 1ece 9b3d
000000a0: f379 2d3d 2ef5 783d 5a37 03bc d262 cdbd
000000b0: 4720 6ebe 2f27 053e bc29 abbc 93b6 d23d
000000c0: f0c1 15bd dcc3 c4bc 8c05 dbbc 9d70 8abd
000000d0: f345 cb3d b620 f53d 53c2 f7bd 846d 6dbe
000000e0: 0410 36bd 6795 893d 4bcd 513e 0886 c3bc
000000f0: 10c5 e8bd 28c2 623d 8df3 20bb 58b7 08be
00000100: 6828 f0bd be83 0c3d 44cb c4bd 8166 1fbd
00000110: 5065 8bbd 00b6 4dbd 4b8a 393d 45fa 02be
00000120: 3282 e63b 0069 80bc 0348 e2bd ca02 093e
00000130: 9478 053e 1fc4 b0bd b4c6 5e3d 2273 643d
00000140: ccdb a23d e325 bfbc 3dcc 083e 7202 08be
00000150: c5a1 3bbd 575a 93bc b333 3c3c 42d5 76bd
00000160: 73a8 51bd 2610 47bd 2f47 d7bd 3c9a c9bd
00000170: 1d17 e3ba 6861 e23c 7789 23be b3d2 2bbd
00000180: 29d0 fbbc fca0 99bc 9d36 0cbe 5a5b bd3d
00000190: 8e84 c33d 1841 843d 4c14 6bbc 813e b2bd
000001a0: 9e69 30bc b780 843d bd21 e53d f73c ab3c
000001b0: c047 0bbe cafd 6cbd 4d9d 0d3e 459e 7abd
000001c0: a9bd 8c3c 9fce 0f3e ebb1 18bd 9c36 dc3d
000001d0: 38d2 02be f154 ffbc ec30 d0bd 344e bb3c
000001e0: 7f3f 04be 0ae1 0abc b475 11bd 39c1 8a3d
000001f0: 7c94 7dbd 2ede b1ba c647 7f3d bc16 223e
00000200: c7a0 823c 5992 59bb e93d 0cbd 602e 013d
00000210: ac75 2f3d cc69 2fbc 13d8 17be c319 79bd
00000220: 5026 e53c 3b66 cbbd 703a 63bc 0ced 9ebd
00000230: e79a 473d 4f3f 093e 5b18 b33d ba6f 01bc
00000240: f6c4 a8bd f626 243d b0c6 863a ecd8 d53b
00000250: b5d3 7ebd 3b5d fe3c 557e 81bd 6835 5fbd
00000260: 5ebf 4f3e e86b a73d 7f75 aebd 6220 963d
00000270: c1ff fabd af1a c4bd c2f5 77bd 0bfe 4cbd
00000280: 15a2 08bd fe9f b8bd d994 97bd 4bf4 0f3e
00000290: 505a b8bd 44fe 01be 66dc 9fbd 8b9b 5ebd
000002a0: 09cb d6bd dadd 92bd 56ac a73d e663 95bd
000002b0: 63fc c939 1fd1 823d a115 e0bd 58bf b1bc
000002c0: 72d2 063e 0130 fa3d cbdf da3a afdd db3d
000002d0: d348 493d f4da 413d e3b0 d5bd 3c4a cf3d
000002e0: 09b9 d1bd 55fb 853d a8ae cabd 2200 91bd
000002f0: 5f65 2f3d 5390 e8bd f20e 503d 77eb 40be
00000300: c408 23bb e982 84bd c54b 2ebd cae2 a83d
00000310: ed44 1bbd 0c8b d93c 83cb 82bd 0641 e4bc
00000320: e82e bbbc 5017 2e3e 6ddf 12be 0bef 9dbc
00000330: ec0d aebd 059b cdbd 9253 e73c 9fef 03bd
00000340: 574b 57bc f907 503d 9472 3a3d ad83 823d
00000350: 9ca8 7abd c03f a6bd 8ed6 a3bd eb1a 833d
00000360: 7e33 a8bd cdb3 9ebd 9c4d 66bd 3fce 603d
00000370: 41f7 94bd f309 cdbd ece7 58bd 0f7d c73c
00000380: bb30 24bd 5d05 913d 12c5 39bd 0c00 783c
00000390: 9786 dcbd 5fa6 27bd edcb 353d 681a dfbd
000003a0: 8422 a4bd 82c2 a63d ebef 333d 11fc 013d
000003b0: 37b2 f0bb 1148 433d f3cd 123c 553c a7bd
000003c0: a437 373d e512 3a3d 008a acbc faac acbd
000003d0: f710 1dbe 5031 783c a02d be3d 2431 3cbd
000003e0: 12b0 853d 31a9 713c 8bee b13d 2d37 76bc
000003f0: f7d3 de3d 2a2f 9bbd fc3b cfbd 0e48 b0bd

lstm.weight_hh_l0 f4 [256, 64]
-0.06053104 -0.17510515 -0.0750081 -0.11754068 0.12513123 -0.03164316 -0.012156763 -0.16871564
0.051094428 -0.051115535 -0.025471516 -0.0027912238 0.06656612 -0.08673898 -0.060546514 0.09807431
0.0749492 0.07649027 -0.0012677812 0.0065962425 0.12980132 0.057168387 0.0026356538 -0.08332675
-0.1512872 -0.13045412 0.15769652 0.07983161 -0.09892363 -0.15905342 -0.08313834 -0.124089316
-0.025009068 0.01844876 -0.17167166 -0.09492231 0.021943098 -0.069482476 -0.048718624 0.003039414
-0.037279263 0.094022915 -0.05246987 -0.09189242 -0.114646606 -0.077429526 0.011477848 -0.14997986
0.064458236 -0.048788488 0.10517168 -0.06615726 -0.0007668787 -0.09192294 -0.018065985 -0.07581941
0.05849854 0.017887603 0.10597893 -0.05515106 0.11314666 -0.094903246 0.088473275 -0.057914004
-0.23954687 -0.031178687 0.0715177 -0.07471902 -0.1564692 0.11841103 -0.11549348 -0.11961015
0.14526767 -0.040047392 0.0010595439 0.22653265 -0.13305356 0.19784744 -0.18138272 0.05994469
0.055667605 0.034273103 -0.025411302 0.021281512 -0.007319535 0.044603877 -0.09851358 -0.042847876
0.03385477 0.09258188 -0.035051517 0.08512002 0.13277195 0.12059783 0.18396612 -0.116892025
-0.068581775 -0.0077862777 0.016806506 0.08665583 -0.07077619 0.049908936 0.03949335 -0.025600703
-0.06835344 -0.011524331 -0.010558488 -0.088335134 0.081921026 0.2465821 0.041215196 -0.012365176
0.07304251 -0.0038963032 -0.16816652 -0.23241776 -0.04182824 -0.05197154 -0.041409645 -0.019132253
-0.01221126 0.0015381455 -0.08198447 0.0738446 0.029299889 0.098094605 0.13141555 0.16914475
-0.17094053 0.1155064 -0.083242044 -0.13147369 -0.06044572 -0.020054037 -0.12228843 -0.025162695
0.0682998 0.015987543 0.1182533 0.1055487 -0.09483781 0.10760915 -0.058569454 -0.1403116
0.04414003 -0.025980849 -0.005012052 -0.043692674 -0.10892625 -0.14742135 0.08839746 -0.083997056
-0.1394402 0.15350825 0.07279578 0.047056813 0.058202397 0.011284371 -0.046730783 -0.099442
-0.012205055 -0.065378636 -0.060004827 0.030627908 -0.044840585 -0.15048316 -0.101764984 -0.06353493
0.048206467 0.14164922 0.034724798 0.041638624 -0.023513583 -0.06727512 0.024876868 0.0010178026
-0.017758472 -0.04320825 0.090925984 0.03355239 -0.12477537 0.023609202 0.012815042 0.10922381
-0.0018557372 -0.08626817 -0.08978552 -0.06455752 -0.022073762 0.038979374 -0.051508766 0.14134832
-0.0022129088 0.030955264 -0.019590752 -0.12063347 -0.07714709 -0.005502558 -0.11592937 0.019678522
0.009926042 -0.065849796 -0.029024357 -0.06825291 0.075290434 -0.1074329 -0.024188623 0.05971062
-0.036671165 0.13948645 -0.041461024 0.109934375 0.032468814 0.076403454 0.158412 -0.119113006
0.116493024 -0.15968518 0.011509972 -0.029121684 0.13718452 -0.12829505 0.14106281 0.1504461
-0.12901711 0.1354836 -0.028537046 -0.091485396 -0.08459409 0.09002774 0.055889744 0.028575262
-0.049901202 -0.057757176 0.038727682 -0.06131822 0.082306266 0.04885194 0.03907435 0.07746741
-0.07410785 0.01801903 -0.00013931964 0.08386863 0.00023419056 -0.10798318 -0.049081665 -0.009509277
-0.058200706 -0.12081659 0.1374419 0.043838143 0.124478884 0.15071966 -0.014038376 0.13003741
00000000: 65ef 77bd c44e 33be d99d 99bd 2bb9 f0bd
00000010: 6722 003e 429c 01bd 292d 47bc cbc3 2cbe
00000020: 6448 513d 865e 51bd a4a9 d0bc f7ec 36bb
00000030: d153 883d 35a4 b1bd 9fff 77bd 2fdb c83d
00000040: f77e 993d eea6 9c3d ae2b a6ba 4b25 d83b
00000050: a3ea 043e 6629 6a3d efba 2c3b 37a7 aabd
00000060: 08eb 1abe c495 05be 327b 213e c17e a33d
00000070: 7998 cabd e6de 22be 6f44 aabd 8a22 febd
00000080: d1df ccbc db21 973c b2ca 2fbe a166 c2bd
00000090: 03c2 b33c d44c 8ebd 2e8d 47bd e830 473b
000000a0: 24b2 18bd 168f c03d a5ea 56bd 1832 bcbd
000000b0: d7cb eabd 5f93 9ebd 950d 3c3c 5294 19be
000000c0: ae02 843d 70d6 47bd 4064 d73d 757d 87bd
000000d0: 5c08 49ba 1842 bcbd 1eff 93bc 3547 9bbd
000000e0: 2a9c 6f3d 0689 923c 7b0b d93d 14e6 61bd
000000f0: 70b9 e73d a25c c2bd 7a31 b53d 3c37 6dbd
00000100: c64b 75be 726a ffbc df77 923d 4906 99bd
00000110: 7639 20be 7b81 f23d d887 ecbd 2bf6 f4bd
00000120: 0cc1 143e bc08 24bd 65e0 8a3a 2df8 673e
00000130: 313f 08be 8598 4a3e 64bc 39be 9088 753d
00000140: b703 643d f461 0c3d 5d2b d0bc 9156 ae3c
00000150: b6d8 efbb 8eb2 363d 7dc1 c9bd 4181 2fbd
00000160: 4dab 0a3d 929b bd3d 2e92 0fbd 6853 ae3d
00000170: 5ff5 073e fffb f63d 9d61 3c3e 1665 efbd
00000180: 9a74 8cbd 0824 ffbb ccad 893c 9d78 b13d
00000190: 1bf3 90bd 506d 4c3d c7c3 213d 91b8 d1bc
000001a0: e3fc 8bbd 8cd0 3cbc 82fd 2cbc 0de9 b4bd
000001b0: 36c6 a73d 0580 7c3e 44d1 283d 4f97 4abc
000001c0: 5097 953d 1f59 7fbb d833 2cbe ecfe 6dbe
000001d0: 1754 2bbd 1ce0 54bd 299d 29bd 3ebb 9cbc
000001e0: bd11 48bc 999b c93a 79e7 a7bd d63b 973d
000001f0: 5206 f03c d3e5 c83d cc91 063e 4834 2d3e
00000200: 090b 2fbe 9f8e ec3d ce7a aabd 0aa1 06be
00000210: ee95 77bd 5d48 a4bc 5b72 fabd ff21 cebc
00000220: c4e0 8b3d 4ff8 823c c92e f23d eb29 d83d
00000230: 533a c2bd 3062 dc3d 86e6 6fbd d8ad 0fbe
00000240: 2dcc 343d cad5 d4bc 243c a4bb 17f7 32bd
00000250: ba14 dfbd 9ff5 16be ba09 b53d a606 acbd
00000260: 69c9 0ebe 4431 1d3e f415 953d a5be 403d
00000270: a365 6e3d 15e2 383c c768 3fbd 3fa8 cbbd
00000280: b6f7 47bc 3ce5 85bd 9fc7 75bd 61e7 fa3c
00000290: c3aa 37bd 4218 1abe 296a d0bd 9a1e 82bd
000002a0: 2574 453d 7e0c 113e 973b 0e3d 438d 2a3d
000002b0: 8f9f c0bc 8ac7 89bd 93ca cb3c ca67 853a
000002c0: 377a 91bc 22fb 30bd 6737 ba3d 3b6e 093d
000002d0: 3b8a ffbd 1668 c13c 2ff6 513c bcb0 df3d
000002e0: 353c f3ba 5ead b0bd 79e1 b7bd bc36 84bd
000002f0: 09d4 b4bc d6a8 1f3d dbfa 52bd 9dbd 103e
00000300: 7306 11bb e595 fd3c c97c a0bc ae0e f7bd
00000310: 4bff 9dbd cd4e b4bb 616c edbd da34 a13c
00000320: d6a0 223c 42dc 86bd 7dc4 edbc 2fc8 8bbd
00000330: df31 9a3d c805 dcbd 3827 c6bc 2093 743d
00000340: 8134 16bd 89d5 0e3e 09d3 29bd 4625 e13d
00000350: 05fe 043d 6a79 9c3d c136 223e 85f1 f3bd
00000360: e593 ee3d 8384 23be 5294 3c3c 9990 eebc
00000370: 197a 0c3e c75f 03be c572 103e 8b0e 1a3e
00000380: 101d 04be 36bc 0a3e 86c6 e9bc b25c bbbd
00000390: ab3f adbd 7760 b83d a5ec 643d ab16 ea3c
000003a0: 3465 4cbd ca92 6cbd eba0 1e3d d028 7bbd
000003b0: 3090 a83d f918 483d 6d0c 203d 3ca7 9e3d
000003c0: dbc5 97bd a59c 933c 5516 12b9 51c3 ab3d
000003d0: 0d91 7539 4926 ddbd db09 49bd cccc 1bbc
000003e0: dd63 6ebd b06e f7bd 92bd 0c3e a08f 333d
000003f0: c9ee fe3d 4156 1a3e 3701 66bc 8728 053e

lstm.bias_ih_l0 f4 [256]
0.12120579 -0.041866228 -0.14467335 0.036983944 0.0042129452 -0.09713119 0.14920706 0.043755237
-0.11045842 0.07462051 0.10208775 0.0011150022 -0.009193208 0.025471585 0.08957694 0.045210093
0.063276164 0.034459844 -0.09134368 0.1080903 0.0034604976 0.03513645 -0.014770367 -0.039140377
-0.061889317 0.10971619 -0.009282409 -0.027051272 0.09863349 0.17258672 0.0700842 0.024727935
-0.022308255 -0.06033108 0.14085846 -0.062854476 -0.06726032 0.037043296 0.117042564 0.043896433
0.016919233 -0.08060613 -0.07955043 -0.068862274 0.09651402 0.07050732 0.029722555 0.012865819
0.13754246 -0.08649823 -0.014950856 -0.00884184 0.0012104462 -0.07258617 0.05937899 -0.019758627
-0.0901522 -0.047369733 0.11242013 -0.0471756 0.11653639 -0.10766456 0.06285671 0.03040092
0.0026610265 -0.06188732 -0.0739914 0.011770711 -0.010196962 -0.03802473 -0.059456363 0.02680804
0.072142325 -0.08820744 0.06970172 -0.070262685 -0.074680455 0.13427772 0.05447873 0.103297755
-0.054099377 0.002690038 0.036925513 0.121404484 0.019238414 0.18060474 0.12557119 0.017546978
-0.056525264 -0.060166128 0.077622674 -0.0011669147 0.07867492 0.19811925 0.041021544 -0.119497105
-0.08521133 0.09867783 0.050426867 -0.056858584 -0.17496653 0.13916688 -0.031420745 0.02260567
0.018583393 0.03590305 -0.00587553 -0.0050734826 0.12074117 -0.0027184323 0.05078957 0.06450324
-0.079252884 -0.047731712 -0.036578562 0.0912576 -0.15110537 0.14146511 -0.011355418 -0.15869208
0.016177583 -0.17160635 0.0001000838 -0.08512332 -0.11390245 0.10522855 0.0028970172 -0.0047801286
0.062237553 0.012363737 -0.03579168 0.10799202 -0.0659901 -0.11973308 0.038219452 -0.118546985
0.100881 0.04644213 -0.063913606 0.023655456 0.0888113 -0.14182052 0.1423825 0.100264885
0.07087021 0.007208864 0.021868285 -0.04139348 0.16107115 0.026602434 0.008410978 -0.109205246
-0.013861293 -0.05302617 0.12363615 0.065642856 -0.13850045 0.041269723 -0.13815853 0.099673264
-0.048365094 0.054966345 -0.03324867 -0.13758776 -0.12519366 0.101695724 0.03164437 0.11619067
0.08439077 -0.021403255 0.03293829 0.027845453 0.035885498 -0.03349248 -0.007445894 -0.054004084
0.12041796 -0.030738482 -0.037720416 0.016261972 -0.0058681495 -0.08996499 0.007387259 -0.0982094
0.027613193 0.06818463 -0.08508096 -0.02599622 0.02611091 0.02237166 0.08326339 0.098109886
0.13069034 0.07631589 -0.12930131 -0.06569664 -0.10985294 -0.10934152 0.14684296 -0.070578486
0.114610285 0.0645483 -0.022298614 -0.08051169 -0.010723839 0.051774584 0.032282736 -0.033162773
-0.02653405 -0.026004944 0.038606178 0.011735689 -0.059021465 -0.031044092 0.028897882 0.10405808
0.06263298 -0.059270065 -0.020865722 -0.054863766 0.007567421 0.039513044 0.07108524 0.08032845
-0.0013963468 0.08524144 0.14151224 0.09543262 -0.11792763 0.05799727 -0.0063630827 -0.057296693
0.114175856 -0.050590433 0.07317994 -0.0072748605 -0.07729468 0.12814511 0.15420844 -0.02395421
0.06218396 -0.11868342 -0.0177162 -0.014215206 0.035839617 -0.067090705 -0.036913786 -0.0030496926
-0.03176149 -0.09577045 -0.08271185 0.14320414 0.040917482 -0.013120882 0.12267371 0.12618363
00000000: be3a f83d ec7b 2bbd 4025 14be 7a7c 173d
00000010: bf0c 8a3b b8ec c6bd bcc9 183e b138 333d
00000020: 0638 e2bd a3d2 983d 6213 d13d 4425 923a
00000030: 1c9f 16bc c9a9 d03c 1d74 b73d 382e 393d
00000040: ef96 813d c425 0d3d 6512 bbbd 725e dd3d
00000050: 84c9 623b 3deb 0f3d 69ff 71bc a951 20bd
00000060: a77f 7dbd e2b2 e03d 3f15 18bc a19a ddbc
00000070: 5b00 ca3d 93ba 303e 4e88 8f3d 3d92 ca3c
00000080: cdbf b6bc b91d 77bd 333d 103e d9b9 80bd
00000090: c7bf 89bd b6ba 173d 03b4 ef3d bfcc 333d
000000a0: 349a 8a3c d414 a5bd 56eb a2bd aa07 8dbd
000000b0: 24a9 c53d 2466 903d b77c f33c 28cb 523c
000000c0: eed7 0c3e fc25 b1bd 6ff4 74bc 5ddd 10bc
000000d0: d6a7 9e3a 0fa8 94bd 6237 733d d8dc a1bc
000000e0: b7a1 b8bd c406 42bd 863c e63d 343b 41bd
000000f0: a1aa ee3d 3d7f dcbd 05bb 803d 5a0b f93c
00000100: 9e64 2e3b 8f7d 7dbd ce88 97bd f1d9 403c
00000110: 2911 27bc d2bf 1bbd 8488 73bd 899c db3c
00000120: 5bbf 933d 1aa6 b4bd c6bf 8e3d e2e5 8fbd
00000130: 11f2 98bd 1980 093e 1725 5f3d c68d d33d
00000140: 4f97 5dbd 594b 303b 353f 173d eaa2 f83d
00000150: e199 9d3c 73f0 383e bc95 003e aebe 8f3c
00000160: 0987 67bd c270 76bd a3f8 9e3d 29f3 98ba
00000170: 5120 a13d c6df 4a3e 3506 283d e6ba f4bd
00000180: 4783 aebd 9a17 ca3d 678c 4e3d 8ce4 68bd
00000190: 6d2a 33be c381 0e3e 0ab3 00bd 872f b93c
000001a0: 333c 983c 140f 133d 8587 c0bb 753f a6bb
000001b0: 2647 f73d ba27 32bb b908 503d 461a 843d
000001c0: 564f a2bd 5482 43bd 67d3 15bd 44e5 ba3d
000001d0: 5ebb 1abe 3bdc 103e 130c 3abc 2d80 22be
000001e0: da86 843c 93b9 2fbe 15e4 d138 2355 aebd
000001f0: b045 e9bd 1182 d73d e2db 3d3b a0a2 9cbb
00000200: ceec 7e3d 4691 4a3c 4c9a 12bd ec2a dd3d
00000210: d125 87bd 9e36 f5bd 008c 1c3d c3c8 f2bd
00000220: b39a ce3d 1a3a 3e3d 23e5 82bd 16c9 c13c
00000230: b3e2 b53d 6639 11be b8cc 113e ad57 cd3d
00000240: 6724 913d 5638 ec3b 1e25 b33c 368c 29bd
00000250: d6ef 243e 59ed d93c 33ce 093c 00a7 dfbd
00000260: 7a1a 63bc f831 59bd f334 fd3d c36f 863d
00000270: 10d3 0dbe 710a 293d 6e79 0dbe 7f21 cc3d
00000280: 7a1a 46bd 6424 613d c22f 08bd cee3 0cbe
00000290: c432 00be d945 d03d 879d 013d 60f5 ed3d
000002a0: 11d5 ac3d e155 afbc 4dea 063d 261c e43c
000002b0: acfc 123d 692f 09bd b0fc f3bb 6333 5dbd
000002c0: b19d f63d 45cf fbbc b980 1abd d437 853c
000002d0: 9b49 c0bb 913f b8bd d210 f23b 0322 c9bd
000002e0: 1035 e23c 62a4 8b3d ed3e aebd 06f6 d4bc
000002f0: 8ce6 d53c c644 b73c ff85 aa3d d6ed c83d
00000300: b0d3 053e 814b 9c3d 9067 04be f68b 86bd
00000310: 94fa e0bd 72ee dfbd 005e 163e 748b 90bd
00000320: ccb8 ea3d e631 843d 95ab b6bc 50e3 a4bd
00000330: 0ab3 2fbc 9611 543d e73a 043d b0d5 07bd
00000340: f05d d9bc 5208 d5bc 8321 1e3d 0c47 403c
00000350: 7ec0 71bd 2e50 febc 40bb ec3c 671c d53d
00000360: b845 803d 2bc5 72bd 97ee aabc d4b8 60bd
00000370: 21f8 f73b 6ed8 213d 2395 913d 3e83 a43d
00000380: a005 b7ba 1093 ae3d 96e8 103e 2d72 c33d
00000390: 0b84 f1bd 8c8e 6d3d 6881 d0bb f0af 6abd
000003a0: 08d5 e93d ea37 4fbd 5ddf 953d f461 eebb
000003b0: ac4c 9ebd 7938 033e d1e8 1d3e 9f3b c4bc
000003c0: 9cb4 7e3d 4b10 f3bd 9021 91bc e5e6 68bc
000003d0: 90cc 123d da66 89bd e932 17bd 5add 47bb
000003e0: 5618 02bd 4c23 c4bd d564 a9bd 1ba4 123e
000003f0: 1799 273d f8f8 56bc 5b3c fb3d 4836 013e

lstm.bias_hh_l0 f4 [256]
0.08780121 0.028735526 0.02723921 -0.0124799535 -0.079223916 -0.14076401 -0.010810357 0.046771865
-0.0040996247 0.037056707 0.0005788836 -0.042896826 0.00765177 -0.07455061 0.08251219 -0.04409368
0.036998913 -0.10339944 0.116341025 0.096495956 -0.0025773402 0.013691157 -0.10810717 -0.018713724
-0.07500201 -0.049618844 -0.09755528 -0.09682893 -0.0030734425 0.041501585 -0.0033115253 -0.11664271
-0.11947312 0.011759137 0.1388561 -0.069113694 -0.02263409 -0.15153146 -0.032708343 0.058800276
0.022991575 0.11725347 0.02818983 -0.014702083 0.01025156 0.01126701 -0.112833016 0.045954634
-0.016642962 0.07692558 0.09476619 0.031655885 0.05746348 -0.051727246 -0.08803116 0.010770735
-0.0022458455 0.00452796 0.026106412 0.083683476 0.10722766 -0.11034808 0.11982716 0.065234154
6.636591e-05 -0.10101068 0.05535243 -0.029264363 -0.036509156 0.13598016 0.010856335 -0.122876465
0.08849287 -0.1364307 0.11272773 0.100768365 0.05645045 -0.06787 0.1646895 0.11416115
-0.044209745 0.037636243 -0.04595497 -0.10414432 -0.1578575 0.045461394 0.08589065 -0.06936662
-0.100151695 0.109614305 -0.005822623 -0.11375148 0.005215669 -0.014222274 0.14467166 -0.06064493
0.025913818 -0.0058851507 0.10146235 0.091008715 -0.16082542 -0.09740485 -0.035557494 -0.01761492
-0.07237371 0.0090443855 0.08471381 0.051559012 0.11958962 -0.07802912 -0.010832178 -0.04536619
-0.029858006 0.018849587 0.12519069 0.11661349 0.06426343 0.11776048 -0.040036242 0.0054230103
0.1005258 0.003881784 0.028617006 0.13638179 0.06559326 0.11256311 0.105771445 0.11030826
-0.05108077 0.034906283 0.15873384 0.1107388 0.07577908 0.0051989397 -0.0010498118 -0.06381421
-0.050982 -0.07242987 0.01939863 0.09935009 -0.08936923 0.05912055 0.03143184 -0.07183994
0.043851525 0.14485465 -0.07126456 -0.07692666 -0.014034982 0.10598154 0.10932631 -0.10520719
-0.07657322 -0.108747974 -0.05269594 -0.07719035 -0.09423257 -0.025288705 -0.02417302 -0.04566265
-0.07772344 -0.064253725 -0.0010940264 0.034070298 -0.11848857 0.099830836 0.09984278 0.023773067
-0.012597052 0.009549736 -0.13191064 -0.046308544 -0.118205 -0.12473597 -0.058214605 0.026667725
0.079571426 0.098940276 0.09180759 0.10196386 0.078026846 -0.044256214 -0.06481407 0.056638993
0.10147216 0.06001214 -0.070264794 -0.14420754 -0.102837496 0.12283127 -0.03811314 0.09075945
0.025730154 0.032540776 -0.061189797 0.018519236 -0.0022407058 -0.09144695 0.03621108 -0.04743942
-0.10938747 -0.12847914 0.13620445 -0.06448695 0.114182554 0.017665813 0.19561517 0.005168596
0.07013438 0.15799478 0.0051947157 -0.10319619 0.043204427 0.15159132 -0.06382076 0.12692666
0.14641854 -0.004114214 0.11015967 -0.09771473 0.03058139 0.14682606 0.0196757 -0.080391735
0.0043709255 0.15639389 -0.028225144 0.092496894 0.08557429 -0.007227963 0.04801181 0.0061568753
-0.08054268 -0.03844683 0.06177628 0.050212972 0.063487716 0.09757861 0.044910107 -0.0027519423
0.019411372 -0.0949309 -0.027557148 0.14867902 0.14534697 0.13475265 -0.2143427 -0.086264014
-0.076949 0.0029754317 -0.042129476 0.16102614 0.10072305 -0.12651603 0.023091147 -0.029986147
00000000: 1fd1 b33d c466 eb3c c424 df3c b878 4cbc
00000010: 2640 a2bd 7124 10be ec1d 31bc db93 3f3d
00000020: 2556 86bb c6c8 173d 39c0 173a 95b4 2fbd
00000030: b3bb fa3b fdad 98bd 27fc a83d 939b 34bd
00000040: 2c8c 173d 16c3 d3bd 3444 ee3d ac9f c53d
00000050: 98e8 28bb e050 603c 4b67 ddbd 864d 99bc
00000060: a79a 99bd 213d 4bbd 10cb c7bd 3f4e c6bd
00000070: cf6b 49bb 91fd 293d 2d06 59bb 60e2 eebd
00000080: 53ae f4bd 65a9 403c 4b30 0e3e 7b8b 8dbd
00000090: 216b b9bc 102b 1bbe 2ff9 05bd 8fd8 703d
000000a0: d458 bc3c 9622 f03d 5cee e63c 01e1 70bc
000000b0: 29f6 273c 4499 383c ff14 e7bd ed3a 3c3d
000000c0: d256 88bc 298b 9d3d c714 c23d 9aa9 013d
000000d0: d35e 6b3d f3df 53bd ae49 b4bd bd77 303c
000000e0: 092f 13bb 485f 943b 1ddd d53c 3e62 ab3d
000000f0: 2d9a db3d 2dfe e1bd f167 f53d 7c99 853d
00000100: ed2d 8b38 b0de cebd 3bb9 623d d1bb efbc
00000110: a08a 15bd 623e 0b3e c5de 313c a8a6 fbbd
00000120: c03b b53d 7db4 0bbe ccdd e63d a55f ce3d
00000130: 9638 673d 6dff 8abd 5da4 283e 52cd e93d
00000140: 4715 35bd 7628 1a3d 473b 3cbd 9e49 d5bd
00000150: 65a5 21be ba35 3a3d 70e7 af3d 1610 8ebd
00000160: 551c cdbd 777d e03d b4cb bebb 89f6 e8bd
00000170: 34e8 aa3b 8a04 69bc cf24 143e d166 78bd
00000180: 3749 d43c 39d8 c0bb 7ecb cf3d c762 ba3d
00000190: 6baf 24be 327c c7bd bca4 11bd 2a4d 90bc
000001a0: ab38 94bd e72e 143c 6f7e ad3d 8b2f 533d
000001b0: 67eb f43d bbcd 9fbd 7379 31bc e6d1 39bd
000001c0: c798 f4bc 736a 9a3c fd31 003e 0ed3 ee3d
000001d0: 8c9c 833d 682c f13d 0bfd 23bd 82b3 b13b
000001e0: 78e0 cd3d 8765 7e3b 366e ea3c aba7 0b3e
000001f0: c255 863d 7d87 e63d b39e d83d 4ce9 e13d
00000200: 123a 51bd e4f9 0e3d 208b 223e 06cb e23d
00000210: 1032 9b3d de5b aa3b d799 89ba 06b1 82bd
00000220: 80d2 50bd 1d56 94bd e0e9 9e3c 0f78 cb3d
00000230: 3707 b7bd 6428 723d acbe 003d d220 93bd
00000240: a89d 333d c754 143e 27f3 91bd ba8b 9dbd
00000250: fbf2 65bc da0c d93d 79e6 df3d de76 d7bd
00000260: 6cd2 9cbd 42b7 debd b3d7 57bd f915 9ebd
00000270: 01fd c0bd 422a cfbc 7f06 c6bc c208 3bbd
00000280: 782d 9fbd 7597 83bd 6f65 8fba 4c8d 0b3d
00000290: 23aa f2bd 1c74 cc3d 5f7a cc3d bcbf c23c
000002a0: de63 4ebc 7f76 1c3c 9513 07be 07ae 3dbd
000002b0: 7715 f2bd 9275 ffbd 7072 6ebd 4676 da3c
000002c0: 58f6 a23d 33a1 ca3d 9e05 bc3d 6ed2 d03d
000002d0: 8acc 9f3d 0146 35bd 3dbd 84bd 4afe 673d
000002e0: a3d0 cf3d 4acf 753d fde6 8fbd 24ab 13be
000002f0: 779c d2bd f68e fb3d 861c 1cbd 17e0 b93d
00000300: 0bc8 d23c 7a49 053d 27a2 7abd a7b5 973c
00000310: ced8 12bb 8a48 bbbd 1252 143d d64f 42bd
00000320: 8a06 e0bd 0990 03be 2e79 0b3e bc11 84bd
00000330: 8bd8 e93d e5b7 903c 584f 483e 535d a93b
00000340: 9da2 8f3d 62c9 213e 6f38 aa3b 8658 d3bd
00000350: 20f7 303d c13a 1b3e 75b4 82bd 10f9 013e
00000360: beee 153e 87d0 86bb 659b e13d a91e c8bd
00000370: d385 fa3c 9259 163e ef2e a13c 6ca4 a4bd
00000380: fb39 8f3b b825 203e 6b38 e7bc 036f bd3d
00000390: 9341 af3d 8cd8 ecbb 08a8 443d 9dbf c93b
000003a0: 90f3 a4bd 6c7a 1dbd 2009 7d3d 1eac 4d3d
000003b0: d905 823d 4bd7 c73d a9f3 373d ee59 34bb
000003c0: 9904 9f3c 226b c2bd 87bf e1bc 503f 183e
000003d0: d6d5 143e 99fc 093e a77c 5bbe 30ab b0bd
000003e0: 7097 9dbd 76ff 423b f58f 2cbd 09e4 243e
000003f0: e347 ce3d 6b8d 01be a529 bd3c 82a5 f5bc

lstm.weight_ih_l1 f4 [256, 64]
-0.011754036 -0.025405465 0.046730783 -0.031528372 0.16612501 0.06214862 -0.026560243 0.011571668
-0.13066824 -0.03374588 0.032590415 -0.02584997 -0.05627256 -0.1927591 -0.016774707 0.18229817
0.19277716 -0.04980782 -0.028048659 0.011147903 -0.13740325 0.097147815 -0.072542176 0.14499429
0.042765915 -0.068627946 -0.034381285 0.16570847 0.09994413 0.12905914 0.17640327 -0.06661537
-0.09842208 -0.09281919 0.095696285 0.11918297 -0.10362154 0.056125507 -0.1602385 0.08472862
0.044145446 0.1504383 -0.016917972 0.039785076 -0.025240708 -0.23594059 0.041365054 -0.020027552
0.069307126 -0.074301295 0.039641622 -0.11198273 0.13285744 0.09917869 -0.14779386 -0.01548597
-0.03592268 0.038224977 0.03754133 -0.04737705 0.22923593 -0.1796704 0.12379297 0.017463334
0.16623285 -0.061994907 -0.051852245 0.04238674 -0.014616001 -0.007024434 -0.08000947 -0.073795915
-0.09565004 0.0015083587 0.042963073 0.10348043 0.15576917 -0.053338602 -0.0058085206 0.03406803
-0.1791192 -0.07476603 -0.013386036 0.104488954 -0.014231902 0.11939481 -0.00027717263 0.06419084
0.07201575 -0.15940289 0.024848124 0.12621276 0.009156233 -0.044391192 0.052690197 0.023406107
0.01883081 -0.022671778 -0.05529462 0.014455145 -0.13995937 0.07192346 -0.07474213 -0.18371587
0.0864505 -0.061396785 0.106375 0.09118254 -0.040743206 -0.033429395 -0.037676252 0.046120085
-0.12944911 -0.11100325 -0.07449175 -0.0613174 0.08005574 -0.07968926 -0.14296107 -0.042059325
-0.017925875 -0.010168257 -0.008963159 -0.1354181 -0.034655757 -0.13897416 -0.05434817 -0.20993091
0.06652222 -0.07265567 0.008607106 0.083751574 0.031024361 -0.09264651 0.22141339 0.10431271
0.12785576 0.04356805 -0.12132789 0.04897939 0.117712155 -0.09730924 -0.047919333 0.1139497
-0.03985947 0.12528023 -0.0033938042 -0.023043891 0.16433704 -0.026796531 -0.022898106 0.13000914
-0.11670555 -0.17026944 -0.104572125 -0.07411442 0.01897382 -0.11497637 0.012774117 -0.025812935
-0.07604916 0.094718136 -0.078507416 -0.10949366 0.01651539 0.13669036 -0.0668455 -0.14876913
0.021387827 -0.11034794 0.017851215 -0.10919278 0.044173665 -0.0016300072 -0.04875886 0.12283691
-0.16498657 -0.15552182 0.07660317 -0.09011864 0.01189826 -0.07924696 0.0087800585 -0.07783704
-0.15441655 0.02699218 -0.0012331136 0.11994255 0.08379056 0.011402401 -0.07121777 0.016795268
0.11926617 0.14524774 -0.016828224 -0.063337974 0.050302166 -0.15722261 0.033190444 0.012573768
-0.006717989 -0.121820934 -0.044152822 -0.04907492 0.014208407 0.070313916 -0.04266261 0.058945354
0.15574329 0.14323182 -0.07651303 0.15409976 0.1030031 0.05199458 0.068316855 -0.03571503
0.10576784 0.059662417 0.06515887 -0.035392515 0.18158153 -0.115289256 -0.07951778 -0.11475397
-0.11516906 -0.029239554 -0.13804805 0.10927408 0.11279533 -0.022777528 -0.053730275 0.02888626
0.10083037 0.016677957 -0.19841808 -0.026624471 0.103334144 0.030113993 0.15719573 0.12806053
0.015929628 -0.023363117 0.03877667 0.007030116 -0.108623914 0.014848918 -0.12584016 0.04608899
-0.012114016 0.021499896 0.21014811 0.035615783 -0.041147094 0.032903854 0.14827515 0.020748302
00000000: 0094 40bc 1f1f d0bc c768 3f3d e523 01bd
00000010: ad1c 2a3e 8d8f 7e3d de94 d9bc 1897 3d3c
00000020: e5cd 05be 1f39 0abd 877d 053d 51c3 d3bc
00000030: 0e7e 66bd a462 45be 1c6b 89bc 5fac 3a3e
00000040: 6067 453e 4903 4cbd 4dc6 e5bc b2a5 363c
00000050: 70b3 0cbe 6ff5 c63d fe90 94bd 6279 143e
00000060: 502b 2f3d cf8c 8cbd 64d3 0cbd 7baf 293e
00000070: 82af cc3d 1428 043e 0fa3 343e a46d 88bd
00000080: 8491 c9bd fd17 bebd 6afc c33d 3316 f43d
00000090: 8837 d4bd dce3 653d 9015 24be 3386 ad3d
000000a0: dbd1 343d 7f0c 1a3e 8f97 8abc adf5 223d
000000b0: 9ac5 cebc 699a 71be 676e 293d d210 a4bc
000000c0: e5f0 8d3d 472b 98bd 415f 223d 3457 e5bd
000000d0: c80b 083e 321e cb3d 4657 17be deb8 7dbc
000000e0: a923 13bd cb91 1c3d f0c4 193d 700e 42bd
000000f0: d3bc 6a3e 84fb 37be 2b87 fd3d 440f 8f3c
00000100: f238 2a3e 5fee 7dbd 0563 54bd b89d 2d3d
00000110: f477 6fbc 392d e6bb 01dc a3bd 5022 97bd
00000120: 2be4 c3bd 1fb4 c53a 0cfa 2f3d 8ced d33d
00000130: f481 1f3e 9479 5abd 6755 bebb eb8a 0b3d
00000140: 066b 37be ef1e 99bd 1b51 5bbc 4efe d53d
00000150: ec2c 69bc 4485 f43d 7b51 91b9 7d76 833d
00000160: fe7c 933d 833a 23be 4b8e cb3c eb3d 013e
00000170: 0604 163c 8ad3 35bd add1 573d 2abe bf3c
00000180: 1243 9a3c 2aba b9bc 9d7c 62bd 46d5 6c3c
00000190: 8251 0fbe 9b4c 933d 6712 99bd 0320 3cbe
000001a0: f60c b13d 327b 7bbd 23db d93d e9bd ba3d
000001b0: 59e2 26bd 43ed 08bd 6a52 1abd 6ae8 3c3d
000001c0: 4f8e 04be ac55 e3bd 218f 98bd f427 7bbd
000001d0: 44f4 a33d 1f34 a3bd 6364 12be 6646 2cbd
000001e0: 49d9 92bc c398 26bc 37da 12bc 0bab 0abe
000001f0: 32f3 0dbd 3e4f 0ebe 309c 5ebd 21f8 56be
00000200: cd3c 883d 7fcc 94bd d204 0d3c f285 ab3d
00000210: cd26 fe3c 74bd bdbd 31ba 623e e7a1 d53d
00000220: 9fec 023e 6974 323d c27a f8bd 9d9e 483d
00000230: 1213 f13d 114a c7bd 1047 44bd 765e e93d
00000240: af43 23bd 7649 003e 966a 5ebb 8bc6 bcbc
00000250: f847 283e 6684 dbbc cf94 bbbc 1e21 053e
00000260: 5203 efbd 1d5b 2ebe e929 d6bd 4dc9 97bd
00000270: fc6e 9b3c bb78 ebbd 884a 513c a675 d3bc
00000280: a9bf 9bbd 95fb c13d 7fc8 a0bd 363e e0bd
00000290: 484b 873c 8ff8 0b3e 4be6 88bd ef56 18be
000002a0: 8635 af3c 1afe e1bd b63c 923c 77a0 dfbd
000002b0: 72ef 343d f7a5 d5ba 5fb7 47bd eb91 fb3d
000002c0: 3df2 28be 1d41 1fbe 1fe2 9c3d 1f90 b8bd
000002d0: ebf0 423c 3b4c a2bd 3cda 0f3c 0769 9fbd
000002e0: 5f1f 1ebe b41e dd3c 6da0 a1ba 71a4 f53d
000002f0: 639a ab3d 23d1 3a3c 9fda 91bd 3b96 893c
00000300: d241 f43d d3bb 143e 58db 89bc 57b7 81bd
00000310: a509 4e3d f7fe 20be b4f2 073d 3502 4e3c
00000320: 9422 dcbb 417d f9bd 97d9 34bd c902 49bd
00000330: 61ca 683c be00 903d fdbe 2ebd af70 713d
00000340: 2b7b 1f3e 5dab 123e ddb2 9cbd 54cc 1d3e
00000350: 4af3 d23d 45f8 543d b5e9 8b3d ec49 12bd
00000360: cf9c d83d 9460 743d 0372 853d bef7 10bd
00000370: 82f0 393e c61c ecbd 38da a2bd 2104 ebbd
00000380: c2dd ebbd ca87 efbc 785c 0dbe 17cb df3d
00000390: 3d01 e73d f097 babc 4714 5cbd e1a2 ec3c
000003a0: 2780 ce3d 36a0 883c 1c2e 4bbe 901b dabc
000003b0: daa0 d33d 9fb1 f63c ebf7 203e 4d22 033e
000003c0: da7e 823c 0264 bfbc 49d4 1e3d e35c e63b
000003d0: 3776 debd e048 733c 3edc 00be cfc7 3c3d
000003e0: de79 46bc 8d20 b03c 1131 573e dbe1 113d
000003f0: db89 28bd 31c6 063d 71d5 173e 58f8 a93c

lstm.weight_hh_l1 f4 [256, 64]
-0.026783511 -0.031401984 0.043410815 0.07490036 -0.066569515 -0.055860374 -0.035682403 0.14399496
0.15374562 0.019951923 -0.06661688 0.14799188 0.15382384 0.016969975 0.01552314 -0.07444191
0.008077196 0.11117187 -0.11298984 -0.1058396 0.051975355 0.06141435 -0.010455337 -0.006848072
-0.044201292 0.034207914 -0.07366795 -0.02995081 -0.053573687 0.047125604 -0.04267036 -0.011939545
0.09292344 0.051680632 -0.12411453 -0.13226621 -0.13543731 0.06179854 0.064841315 0.068656296
0.1289187 0.014261726 0.09855418 0.09149161 0.029243581 -0.045407597 -0.08332871 0.07212788
-0.054066036 -0.014455315 0.009555891 0.06433227 -0.051265363 -0.117778175 0.058150645 0.01963703
-0.08216967 0.02477412 0.026653906 -0.07022266 0.06525865 0.0055729463 0.1480691 -0.08361189
0.050234266 -0.025498675 -0.17514673 -0.005795185 -0.04498919 -0.12974457 -0.03920376 0.11266388
0.08609638 -0.019803124 -0.028636526 -0.0763855 0.05002632 0.09715926 -0.10698551 0.093779735
-0.011310459 0.042129334 0.052115273 -0.011963306 -0.03488072 -0.08270173 0.1352823 -0.01620812
0.017495552 -0.09174893 0.13658367 0.175841 -0.13797668 -0.10256833 -0.07862617 0.014894593
-0.045780662 0.15647301 0.05300225 0.121877 0.003419955 -0.16619441 0.07091032 0.07478846
0.15441352 0.023653746 0.041237254 -0.051721424 -0.14049307 0.06068682 -0.048625637 0.07684312
-0.12030683 0.0032891918 0.03431706 0.19938715 0.054140992 0.18591052 -0.034993913 -0.012464459
0.037389975 0.012455234 -0.0029275625 0.019185033 -0.14722686 -0.18687001 0.042325333 -0.1557782
0.0037692303 0.0042446232 0.027759911 0.15685631 0.15496224 0.022901574 -0.14623329 0.013260348
0.023884859 0.031793665 -0.08373536 -0.03153036 -0.08349144 0.09864434 -0.06339802 -6.1672916e-05
0.010365157 0.06046231 0.04221828 0.14997083 0.032738093 -0.09024225 0.10341018 0.12719302
0.09851516 -0.14227527 -0.03883166 0.014187031 -0.03218843 0.0725573 0.048275523 0.11548834
0.110894576 -0.06457111 0.07734553 -0.010107389 0.11698941 -0.080508105 -0.075411655 -0.19535063
0.056103434 -0.026187425 0.05981693 0.0058618574 0.064217396 -0.06678507 0.05230259 0.0683036
-0.14932927 0.026044596 -0.02028469 0.09679784 -0.062037855 -0.15463273 -0.058706485 0.0050079366
0.14597036 0.073801294 -0.16545455 0.018805187 -0.11900461 -0.1739977 0.113069035 -0.11686088
-0.097787954 -0.09011173 -0.013732994 0.10626967 0.08089587 -0.06652613 -0.08774435 -0.060376145
0.06290477 -0.043798786 -0.14762066 0.15187891 0.13368092 0.16974752 0.011475453 0.009183858
-0.026292885 0.091824844 0.09034012 -0.015851775 -0.15058811 -0.08175333 0.039574303 0.08754381
0.1133445 -0.07597056 0.07351149 -0.053008962 -0.118349254 0.08349863 -0.07205125 0.043335892
0.19213454 0.12611066 -0.070703514 0.017742177 0.04047078 0.011795378 -0.07947177 -0.18235329
0.13157047 -0.09630452 0.08394764 -0.11919684 0.061801795 -0.041906875 -0.0065000174 -0.04841755
-0.09113513 -0.14275576 -0.045066535 0.12227185 0.07293471 0.043145504 0.035499033 0.029350167
0.043393523 0.106826976 0.006356923 -0.22099765 -0.020367088 0.04138848 0.11384292 0.033151273
00000000: 1869 dbbc 5e9f 00bd 8acf 313d 5c65 993d
00000010: 9955 88bd d9cd 64bd b627 12bd 6a73 133e
00000020: 7e6f 1d3e 3772 a33c 6e6e 88bd 2f8b 173e
00000030: ff83 1d3e 9e04 8b3c c554 7e3c 0075 98bd
00000040: 3756 043c 14ae e33d 3867 e7bd 6fc2 d8bd
00000050: 1ce4 543d 9d8d 7b3d dd4c 2bbc cb65 e0bb
00000060: 6a0c 35bd 991d 0c3d 39df 96bd 675b f5bc
00000070: 1570 5bbd c706 413d 1ec7 2ebd 159e 43bc
00000080: a54e be3d 12af 533d c22f febd cb70 07be
00000090: 14b0 0abe 7720 7d3d 86cb 843d ac9b 8c3d
000000a0: 4403 043e 04aa 693c c6d6 c93d f45f bb3d
000000b0: 3c90 ef3c 51fd 39bd 3ea8 aabd c8b7 933d
000000c0: 5974 5dbd fcd5 6cbc 5090 1c3c a3c0 833d
000000d0: a1fb 51bd af35 f1bd 5f2f 6e3d d6dd a03c
000000e0: 9248 a8bd 18f3 ca3c 4b59 da3c e6d0 8fbd
000000f0: 54a6 853d 439d b63b 6d9f 173e b63c abbd
00000100: 72c2 4d3d 99e2 d0bc aa59 33be 89e5 bdbb
00000110: 9646 38bd c3db 04be 1f94 20bd 52bc e63d
00000120: 4d53 b03d 293a a2bc 2697 eabc 0070 9cbd
00000130: 66e8 4c3d 6ffb c63d 381b dbbd 970f c03d
00000140: 814f 39bc cf8f 2c3d d376 553d be01 44bc
00000150: 16df 0ebd 865f a9bd 7187 0a3e e4c6 84bc
00000160: d552 8f3c dde6 bbbd 97dc 0b3e aa0f 343e
00000170: c249 0dbe 580f d2bd c206 a1bd 7308 743c
00000180: 8184 3bbd 763a 203e e318 593d a69a f93d
00000190: 5321 603b de2e 2abe 6e39 913d b12a 993d
000001a0: 941e 1e3e 80c5 c13c 65e8 283d d8d9 53bd
000001b0: 6add 0fbe be92 783d ad2b 47bd ed5f 9d3d
000001c0: 6d63 f6bd 7b8f 573b 0c90 0c3d 252c 4c3e
000001d0: f2c2 5d3d 545f 3e3e c755 0fbd bb37 4cbc
000001e0: 3b26 193d 0a11 4c3c 59dc 3fbb ee29 9d3c
000001f0: a3c2 16be da5a 3fbe 545d 2d3d 5284 1fbe
00000200: 3105 773b 7b16 8b3b c168 e33c f19e 203e
00000210: 6cae 1e3e 159c bb3c 2ebe 15be ee41 593c
00000220: 2eaa c33c 133a 023d 727d abbd fb25 01bd
00000230: 8ffd aabd 0b06 ca3d d2d6 81bd 6556 81b8
00000240: 9fd2 293c 54a7 773d 13ed 2c3d f491 193e
00000250: 6118 063d eed0 b8bd b7c8 d33d e33e 023e
00000260: 51c2 c93d 9cb0 11be f20d 1fbd b970 683c
00000270: 04d8 03bd ec98 943d 8ebc 453d 2785 ec3d
00000280: b21c e33d dc3d 84bd 5567 9e3d 7699 25bc
00000290: 2598 ef3d 6fe1 a4bd 6d71 9abd ff09 48be
000002a0: b7cc 653d 0387 d6bc 9902 753d d314 c03b
000002b0: 6984 833d 9cc6 88bd 3e3b 563d c2e2 8b3d
000002c0: c6e9 18be 7a5b d53c 142c a6bc f23d c63d
000002d0: 681b 7ebd 0b58 1ebe 3676 70bd 9e19 a43b
000002e0: 4179 153e 2225 973d eb6c 29be 560d 9a3c
000002f0: b0b8 f3bd 742c 32be bd90 e73d c254 efbd
00000300: 0d45 c8bd 808c b8bd 5a00 61bc eaa3 d93d
00000310: bcac a53d da3e 88bd 4fb3 b3bd fa4c 77bd
00000320: 37d4 803d 5b66 33bd df29 17be 2586 1b3e
00000330: a7e3 083e 4bd2 2d3e 8a03 3c3c e477 163c
00000340: 2d64 d7bc aa0e bc3d 3e04 b93d 95db 81bc
00000350: c533 1abe 4a6e a7bd aa18 223d 2b4a b33d
00000360: 2921 e83d 7496 9bbd 318d 963d ed1f 59bd
00000370: 1861 f2bd 5401 ab3d 9b8f 93bd fa80 313d
00000380: ebbe 443e 2723 013e 01cd 90bd 0b58 913c
00000390: b0c4 253d 6741 413c 18c2 a2bd d2ba 3abe
000003a0: 69ba 063e 4e3b c5bd beec ab3d 791d f4bd
000003b0: e123 7d3d 8ba6 2bbd 19fe d4bb 7b51 46bd
000003c0: 0ea5 babd 912e 12be b097 38bd aa69 fa3d
000003d0: cb5e 953d 57b9 303d 6f67 113d c36f f03c
000003e0: 68bd 313d 1ac8 da3d bc4d d03b 354d 62be
000003f0: e1d8 a6bc f886 293d 7a26 e93d a1c9 073d

lstm.bias_ih_l1 f4 [256]
-0.06540465 -0.03324619 -0.060281508 0.022581281 -0.058404718 -0.0416272 0.1664476 0.062495813
-0.0007092261 0.15394658 0.106560856 0.017018782 -0.052786548 -0.058150787 0.06628684 -0.07552083
0.013880467 0.12785341 0.042504176 0.08427839 -0.008248026 -0.043992586 -0.023261994 -0.054298494
0.13222514 0.068625584 0.079271205 0.13117811 0.087686814 0.046972733 0.009021332 0.06817797
0.032482933 -0.048390985 0.02939525 0.033633977 0.013289522 -0.021576298 0.1401306 0.058849245
0.056918394 0.12662429 0.033562124 -0.063123085 0.038229723 0.103740156 0.1392737 0.08341397
-0.0711664 0.037653387 0.124110386 0.011741822 0.16428149 0.07074218 -0.105438516 0.012133649
0.028286077 0.06975814 0.13705763 0.05182491 -0.07180764 0.13719775 0.102636814 0.057059195
0.11935949 0.13164581 0.05177987 0.013796838 -0.08345201 -0.08591649 0.11501075 0.15377791
-0.057738245 0.033935428 -0.042352095 -0.018453829 0.06532852 0.0786839 0.13312952 0.069359645
0.09720853 -0.02417772 0.04895551 -0.048043814 -0.02486294 0.065942824 -0.10957815 -0.07490109
0.035397403 0.015929274 0.14243253 -0.027590914 0.113485895 0.09088221 0.006585757 -0.097915664
0.005801075 0.028328585 0.06715588 0.14966148 0.033378106 0.07637329 -0.08497254 0.07517326
-0.10531944 0.073909566 -0.017400343 0.08961633 -0.07868115 0.15411948 0.07300023 0.0824969
0.14260276 0.11625874 0.025211424 0.193544 0.023168148 -0.12699854 -0.07624615 -0.0018378845
0.10346124 0.020581855 0.058172088 -0.0502492 0.0585253 -0.035577442 0.11414276 -0.0065687685
0.04376719 -0.05396117 0.01790664 0.105090305 0.09405132 0.13805425 0.10934568 0.0077367187
-0.003913723 -0.0029591606 -0.023004586 -0.014913557 -0.09341884 -0.08549963 -0.004105018 0.009941375
0.11293381 -0.012752088 0.09715818 0.02457012 0.017935764 0.07647643 0.048830446 -0.0075169373
0.08022257 0.030017717 -0.11306314 0.10838109 -0.005224856 -0.08170849 0.07299857 0.09848983
-0.1264185 0.026877653 -0.067741744 0.058830265 0.07207672 0.01196443 -0.03539863 0.065482356
0.08942417 0.08686262 0.0010931027 0.06402666 0.09011233 0.107815236 0.024475342 0.115852535
-0.08860167 -0.025001554 -0.026425604 0.119060144 -0.05027595 0.0019332671 0.0022170318 0.06216143
-0.07365785 0.0153525155 -0.043408453 0.077122435 0.09847296 -0.13752688 -0.099779785 -0.05331521
0.03584395 0.0683912 0.0030983486 0.031976108 0.031747814 0.022072978 -0.035295464 -0.021398239
-0.023714356 -0.021437615 0.16030598 -0.06341009 0.030764982 0.14937142 -0.068544365 -0.006793036
0.05159268 0.12014199 0.00590199 0.11632359 0.12072894 0.076468155 0.08258263 0.026624123
0.03997502 0.09795962 0.057829335 -0.004686256 0.0067675547 -0.051370304 -0.060878944 -0.008274323
0.05745955 0.1503828 -0.013188367 0.07701741 0.036665123 0.17790437 0.13833672 0.18404907
0.064280614 0.16027272 0.11162033 0.14473884 0.15987635 0.09758079 0.13315174 0.11183454
0.06855892 0.052081183 0.0826787 0.06077262 0.0068669147 0.11058661 0.045467086 0.008812215
-0.10134958 -0.0804689 -0.07287813 0.1393166 0.020665629 0.016263075 -0.02290139 0.1297699
00000000: e0f2 85bd 282d 08bd bee9 76bd 61fc b83c
00000010: c939 6fbd 4881 2abd 3d71 2a3e 9cfb 7f3d
00000020: 5ceb 39ba 2ca4 1d3e 943c da3d f96a 8b3c
00000030: b536 58bd 852f 6ebd 65c1 873d aaaa 9abd
00000040: e66a 633c 01ec 023e dc18 2e3d 269a ac3d
00000050: ba22 07bc 9231 34bd f08f bebc 1968 5ebd
00000060: 0766 073e 928b 8c3d f158 a23d 8e53 063e
00000070: 2595 b33d 7b66 403d 35ce 133c e4a0 8b3d
00000080: d30c 053d a035 46bd 4fce f03c c8c3 093d
00000090: 4cbc 593c c7c0 b0bc 657e 0f3e e80b 713d
000000a0: 4323 693d cca9 013e 7078 093d ad46 81bd
000000b0: c596 1c3d b875 d43d c49d 0e3e f2d4 aa3d
000000c0: b1bf 91bd 703a 1a3d 962d fe3d c560 403c
000000d0: 6839 283e 47e1 903d 26f0 d7bd 36cc 463c
000000e0: 34b8 e73c 5bdd 8e3d d658 0c3e 5b46 543d
000000f0: e20f 93bd 917d 0c3e 4033 d23d e7b6 693d
00000100: c072 f43d 29ce 063e 2117 543d 220c 623c
00000110: e3e8 aabd fcf4 afbd c28a eb3d f577 1d3e
00000120: f07e 6cbd e0ff 0a3d 6479 2dbd 7c2c 97bc
00000130: f6ca 853d 0625 a13d 1b53 083e 6e0c 8e3d
00000140: 4415 c73d 5b10 c6bc 9385 483d 97c9 44bd
00000150: 5dad cbbc 080d 873d 826a e0bd be65 99bd
00000160: defc 103d 1c7e 823c d5d9 113e 5706 e2bc
00000170: 4b6b e83d 7420 ba3d 55cd d73b 0288 c8bd
00000180: f216 be3b 5911 e83c 0689 893d dc40 193e
00000190: 7bb7 083d 9969 9c3d 1506 aebd 70f4 993d
000001a0: b8b1 d7bd e65d 973d 2a8b 8ebc c488 b73d
000001b0: 9523 a1bd 7fd1 1d3e 2581 953d 22f4 a83d
000001c0: 7506 123e 1019 ee3d 3088 ce3c 6630 463e
000001d0: 21cb bd3c e80b 02be f126 9cbd 2ce5 f0ba
000001e0: 7de3 d33d 479b a83c db45 6e3d 1bd2 4dbd
000001f0: 3ab8 6f3d a7b9 11bd aec3 e93d d33e d7bb
00000200: 3a45 333d 6306 5dbd f2b0 923c 9639 d73d
00000210: fa9d c03d 185e 0d3e a1f0 df3d 4d84 fd3b
00000220: b03e 80bb 7aee 41bb 1d74 bcbc fe57 74bc
00000230: 6052 bfbd 6e1a afbd 6383 86bb 26e1 223c
00000240: d749 e73d 22ee 50bc defa c63d 4747 c93c
00000250: 06ee 923c ad9f 9c3d 6f02 483d a450 f6bb
00000260: bb4b a43d b7e7 f53c a68d e7bd e8f6 dd3d
00000270: 4535 abbb c856 a7bd 4680 953d 09b5 c93d
00000280: da73 01be 862e dc3c 2fbc 8abd 01f8 703d
00000290: f69c 933d 7506 443c 27fe 10bd 9d1b 863d
000002a0: 0524 b73d 08e5 b13d 7146 8f3a 6920 833d
000002b0: d08c b83d 3cce dc3d 8380 c83c 1844 ed3d
000002c0: cb74 b5bd 0fd0 ccbc 827a d8bc ced5 f33d
000002d0: 28ee 4dbd ae65 fd3a 9f4b 113b fc9c 7e3d
000002e0: edd9 96bd 1e89 7b3c 10cd 31bd 5ef2 9d3d
000002f0: 31ac c93d d9d3 0cbe 5859 ccbd 0d61 5abd
00000300: 1bd1 123d af10 8c3d aa0d 4b3b 61f9 023d
00000310: ff09 023d 64d2 b43c fa91 10bd 5c4b afbc
00000320: 9c44 c2bc f09d afbc 4027 243e 26dd 81bd
00000330: d806 fc3c d2f4 183e fd60 8cbd 1e98 debb
00000340: d952 533d 010d f63d 7b65 c13b 103b ee3d
00000350: bc40 f73d 569b 9c3d 1521 a93d d51a da3c
00000360: d9bc 233d 0e9f c83d 74de 6c3d 2a8f 99bb
00000370: 5dc2 dd3b ab69 52bd 335c 79bd 0791 07bc
00000380: b55a 6b3d f3fd 193e 0514 58bc 4ebb 9d3d
00000390: 2b2e 163d 902c 363e 24a8 0d3e 5c77 3c3e
000003a0: 8ea5 833d 881e 243e 3399 e43d 6b36 143e
000003b0: a0b6 233e 70d8 c73d ee58 083e 8209 e53d
000003c0: 9e68 8c3d 1453 553d 7353 a93d b6ec 783d
000003d0: db03 e13b 3c7b e23d b23b 3a3d 1c61 103c
000003e0: 5e90 cfbd e1cc a4bd 2141 95bd 03a9 0e3e
000003f0: f74a a93c 243a 853c b29b bbbc 67e2 043e
