model/my_0.ckpt (torch_old, 350937 bytes, 14 tensors)

lstm.weight_ih_l0 f4 [256, 12]
0	0x3cf043a5	0.02932913
1	0x3daefb3d	0.08544014
2	0xbc0108a1	-0.007875592
3	0x3d520cd2	0.051281758
4	0xbd2d7311	-0.042346064
5	0xbe0ce89f	-0.13760613
6	0x3d648ee1	0.055800322
7	0xbe1acbf6	-0.15116867
8	0xbd656a75	-0.05600973
9	0x3d258938	0.040414065
10	0xbe2b0555	-0.16701253
11	0xbde060bb	-0.1095595
12	0x3b8af3a8	0.004240472
13	0x3e1023c3	0.14076142
14	0xbe02294d	-0.12711067
15	0x3c8bb93e	0.017056104
16	0xbc854e01	-0.016272547
17	0xbd0085b2	-0.0313775
18	0xbb524fd6	-0.0032091043
19	0xbe2f20e9	-0.17102398
20	0xbd991aae	-0.07475792
21	0x3d898320	0.06714463
22	0xbb9a7583	-0.0047137155
23	0x3da3fa60	0.080067396
24	0xbcf23cf5	-0.029570082
25	0xbd29a350	-0.041415513
26	0xbe30c253	-0.17261629
27	0xbb31346f	-0.002703931
28	0xbd149358	-0.03627333
29	0x3d61a6d0	0.055090725
30	0x3df458de	0.119310126
31	0xbe327a1a	-0.1742939
32	0xbe1524a9	-0.14564766
33	0x3d68377f	0.05669355
34	0x3db2cb26	0.08730154
35	0x3d2e63c7	0.042575624
36	0xbd9c02d1	-0.07617725
37	0x3d19a455	0.037510235
38	0x3b8df31f	0.004331961
39	0x3d8816cb	0.066449724
40	0x3d873acb	0.06603011
41	0x3da432c3	0.080174945
42	0x3b0b6f18	0.0021275934
43	0xbde814c8	-0.11332089
44	0xbe5d5161	-0.21613075
45	0x3e085d0e	0.13316748
46	0xbd14a49c	-0.036289796
47	0x3e077391	0.13227679
48	0xbd535ae8	-0.051600367
49	0xbc428a15	-0.011873742
50	0xbd120c80	-0.035656452
51	0xbd4f4ebf	-0.050612208
52	0x3dbf69ed	0.093463756
53	0x3df20817	0.11817949
54	0xbe06da1f	-0.13169144
55	0xbe45ee13	-0.193291
56	0x3b314b07	0.0027052776
57	0x3d40db40	0.047084093
58	0x3e31d6b4	0.17367059
59	0x3a8f5498	0.0010935245
60	0xbdffe001	-0.12493897
61	0x3d8bb84a	0.0682226
62	0xbca0017e	-0.019531962
63	0xbdebeef4	-0.11520186
64	0xbd8494d0	-0.06473696
65	0x3d05fd75	0.03271242
66	0xbdb8a629	-0.090160675
67	0xbc9c03ad	-0.019044721
68	0xbd439b13	-0.047755312
69	0xbd320c35	-0.043468673
70	0x3d1ed85c	0.038780555
71	0xbdeca70a	-0.11555298
72	0x3c497cbe	0.012297807
73	0xbc803357	-0.01564948
74	0xbda7d276	-0.08194439
75	0x3e1147d6	0.1418756
76	0x3e0b5ea7	0.13610326
77	0xbd91d732	-0.071211234
78	0x3d84824f	0.06470167
79	0x3db6def9	0.089292474
80	0x3d505c7d	0.050869454
81	0xbd1d4ecd	-0.03840523
82	0x3de7e9e1	0.11323906
83	0xbe04ea43	-0.12979989
84	0xbd4cd1c9	-0.050004754
85	0xbcaef92c	-0.021359049
86	0x39c89648	0.0003825894
87	0xbd25cf52	-0.04048092
88	0xbd49b285	-0.049242515
89	0xbda0fa00	-0.07860184
90	0xbdf0b118	-0.11752528
91	0xbdaa5eba	-0.08318849
92	0x39d143c5	0.0003991408
93	0x3ce6c9e3	0.028172439
94	0xbe17b81e	-0.14816329
95	0xbcb551b7	-0.022133691
96	0xbcb513ff	-0.022104261
97	0xbc84b071	-0.016197415
98	0xbe016645	-0.12636669
99	0x3da99942	0.08281185
100	0x3dcb28a0	0.09919858
101	0x3d885521	0.06656862
102	0xbb76abe5	-0.0037639078
103	0xbd97184e	-0.073776826
104	0xbd2bf011	-0.041976992
105	0x3d8df8ee	0.06932245
106	0x3de5a02a	0.112121895
107	0x3cd200da	0.025635172
108	0xbe001b55	-0.12510426
109	0xbd816ac1	-0.0631919
110	0x3defd623	0.11710765
111	0xbd838c53	-0.06423249
112	0x3cf73769	0.030177789
113	0x3e03c15a	0.12866727
114	0xbce82eef	-0.028342692
115	0x3df219d9	0.11821336
116	0xbe0203e5	-0.12696798
117	0xbc00d6be	-0.0078636985
118	0xbd91967d	-0.071087815
119	0x3d2d79e1	0.04235256
120	0xbdcecab6	-0.10097258
121	0x3bd5afde	0.006521209
122	0xbd4443e9	-0.047916327
123	0x3d9d6861	0.07685924
124	0xbdc22512	-0.09479727
125	0x3c5c3371	0.013439999
126	0x3d705143	0.058671247
127	0x3e039dc4	0.12853152
128	0x3c8bcfa8	0.017066792
129	0x3cb89370	0.022531241
130	0xbd497e93	-0.049192976
131	0x3d1b9165	0.037980456
132	0x3d2a5022	0.041580327
133	0xbc94a982	-0.018147234
134	0xbe15c5a0	-0.14626169
135	0xbda9df13	-0.08294501
136	0x3c1a3328	0.009411611
137	0xbd94f90d	-0.07274065
138	0xba28618b	-0.00064232264
139	0xbdc351f0	-0.09537113
140	0x3d4ff92e	0.050774746
141	0x3dd9775d	0.1061847
142	0x3ceb891c	0.028751902
143	0xbcfb42f8	-0.030671582
144	0xbdc65265	-0.09683684
145	0x3cc8ae98	0.024497315
146	0x3c305977	0.010763518
147	0x3bc95f3c	0.006145386
148	0xbd34db92	-0.04415471
149	0x3d730b91	0.059337202
150	0xbd58966a	-0.05287782
151	0xbd8ce44c	-0.06879482
152	0x3e42eae9	0.19034924
153	0x3d632365	0.055453677
154	0xbdc9103b	-0.09817549
155	0x3d7264c0	0.059178114
156	0xbe0c35e0	-0.13692427
157	0xbd9b9d43	-0.07598355
158	0xbdaa129b	-0.0830433
159	0xbd2f3a0c	-0.042779967
160	0xbd75495c	-0.059884414
161	0xbd85b960	-0.06529498
162	0xbd9c43ab	-0.07630094
163	0x3e082751	0.13296248
164	0xbdcf9c51	-0.10137237
165	0xbdf80972	-0.121111766
166	0xbdb6b421	-0.089210756
167	0xbd249424	-0.04018034
168	0xbd8a4a78	-0.06752485
169	0xbdaecc42	-0.08535053
170	0x3da8c35d	0.082403876
171	0xbdaf9a8e	-0.08574401
172	0x3ca6384a	0.020290513
173	0x3d35be68	0.04437104
174	0xbddcb249	-0.10776193
175	0xbd39b9a6	-0.045343064
176	0x3de6fbb1	0.11278475
177	0x3dcb2cb8	0.09920639
178	0x3c49c559	0.012315118
179	0x3df6ead1	0.120565064
180	0x3d675ad6	0.056483112
181	0x3d4e4326	0.050357006
182	0xbdad9db7	-0.08477347
183	0x3dc84724	0.09779194
184	0xbdd7d34d	-0.10538349
185	0x3d8dd7a1	0.069258936
186	0xbd89bab2	-0.067250624
187	0xbd6270cf	-0.055283364
188	0x3d72f61f	0.05931675
189	0xbdb659c8	-0.08903843
190	0x3d6e9ee7	0.05825701
191	0xbdf53070	-0.11972129
192	0x3cab5d40	0.020918489
193	0xbd71bda3	-0.059018742
194	0xbd49ddda	-0.04928384
195	0x3d354ad5	0.04426082
196	0xbd458c06	-0.04822924
197	0x3d22cde2	0.039747126
198	0xbd14955e	-0.03627526
199	0xbd245e91	-0.040129248
200	0xbd95574e	-0.07292043
201	0x3e106cb2	0.14103964
202	0xbdcdf878	-0.10057157
203	0xbc36db1d	-0.011160639
204	0xbda81993	-0.08208003
205	0xbdc50665	-0.0962036
206	0x3cd0d589	0.025492446
207	0xbc7eaaa2	-0.015543612
208	0xbc5de91e	-0.013544349
209	0x3d767571	0.060170595
210	0x3d16a8f0	0.036782205
211	0x3d9a615f	0.07538103
212	0xbd5272ad	-0.051378895
213	0xbd6b3756	-0.05742582
214	0xbd585fde	-0.0528258
215	0x3da0d790	0.07853615
216	0xbda97765	-0.08274726
217	0xbda78431	-0.081795104
218	0xbd317661	-0.043325786
219	0x3d8bc1ab	0.068240486
220	0xbd3eb3c0	-0.04655814
221	0xbdb5f2b6	-0.08884184
222	0xbd57e286	-0.052706264
223	0x3d402b5d	0.046916354
224	0xbc828316	-0.015931647
225	0x3d9cc279	0.0765428
226	0xbc4a85df	-0.012361019
227	0x3c968714	0.018374957
228	0xbdd295b4	-0.1028246
229	0xbd3943da	-0.045230724
230	0x3d15e889	0.036598716
231	0xbde90820	-0.11378503
232	0xbd9c9bad	-0.0764688
233	0x3da014ab	0.07816442
234	0x3d05ab32	0.032633968
235	0x3d456c7f	0.048199173
236	0xbc512ed6	-0.012767514
237	0x3d1680f3	0.03674407
238	0x3c3acb6e	0.0114010405
239	0xbdb1c95a	-0.08680983
240	0x3d026425	0.031833787
241	0x3d5ec896	0.054390512
242	0xbd07d672	-0.033163495
243	0xbd8d4bee	-0.06899248
244	0xbe285bcc	-0.16441268
245	0x3c29dc8b	0.010367523
246	0x3d81e863	0.063431524
247	0xbd4c4c70	-0.049877584
248	0x3d9ef4f5	0.077615656
249	0x3c8cca96	0.017186444
250	0x3d898916	0.067156
251	0x3c8fcab1	0.017552705
252	0x3dc553b3	0.09635105
253	0xbd90d31a	-0.070715144
254	0xbdda0622	-0.10645701
255	0xbdaeafb4	-0.085296065

lstm.weight_hh_l0 f4 [256, 64]
0	0xbd64e993	-0.055886816
1	0xbe16b714	-0.14718276
2	0xbda384ce	-0.07984315
3	0xbdca4659	-0.09876699
4	0x3e09fd8d	0.13475628
5	0xbd25f1c2	-0.04051376
6	0xbc891e53	-0.016738093
7	0xbe140e4f	-0.14458583
8	0x3d635bbc	0.055507407
9	0xbd242e90	-0.040083468
10	0xbd2adadc	-0.041712627
11	0xbcb21214	-0.021737136
12	0x3da40fb1	0.080108054
13	0xbdab7ec7	-0.0837379
14	0xbd99ce20	-0.07510018
15	0x3de37cee	0.11107813
16	0x3d394a3e	0.04523682
17	0x3da975fe	0.08274458
18	0x3c7a27f4	0.015268315
19	0x3c6d78cb	0.014494131
20	0x3dfbec63	0.123009466
21	0x3d734395	0.059390623
22	0x3c2c47f3	0.010515201
23	0xbd4df698	-0.050284
24	0xbe1cbf81	-0.15307428
25	0xbdcc3d65	-0.099726476
26	0x3e20779f	0.15670632
27	0x3dc216e1	0.0947702
28	0xbdb87708	-0.090070784
29	0xbe12ff71	-0.14355256
30	0xbda92dcf	-0.082606904
31	0xbe0a5c62	-0.13511804
32	0xbd3a3a86	-0.04546597
33	0x3b41c379	0.0029565974
34	0xbe0b4ed7	-0.13604294
35	0xbdf22b28	-0.11824638
36	0xbb44dc05	-0.0030038368
37	0xbd307b46	-0.043086313
38	0xbd0740e9	-0.033020888
39	0xbc51d3de	-0.012806861
40	0xbd4989d4	-0.04920371
41	0x3dc54485	0.0963221
42	0xbce3d765	-0.027812669
43	0xbdd8837a	-0.10571952
44	0xbe086f36	-0.13323674
45	0xbd9d3b08	-0.07677275
46	0x3c628531	0.013825701
47	0xbe04ef5c	-0.12981933
48	0x3d4c9181	0.04994345
49	0xbd3569fd	-0.04429053
50	0x3dd66d66	0.10470085
51	0xbceebd81	-0.029143097
52	0x3cb9ed70	0.022696227
53	0xbde299b5	-0.110644735
54	0xbd06519b	-0.03279267
55	0xbd96c20b	-0.073612295
56	0x3d0bbcb7	0.03411552
57	0x3c840df3	0.016119933
58	0x3dbb3f8b	0.09142979
59	0xbd4b32a2	-0.049608834
60	0x3e01c975	0.12674506
61	0xbd70eeef	-0.058821615
62	0x3daf291e	0.08552764
63	0xbd987ee8	-0.074460804
64	0xbe619e51	-0.22033049
65	0xbc2bf9a4	-0.010496531
66	0x3d86f95b	0.065905295
67	0xbd6f8997	-0.058480825
68	0xbe0b405d	-0.13598771
69	0x3dbf95f1	0.09354771
70	0xbdf30382	-0.118659034
71	0xbd9f54e2	-0.07779862
72	0x3e03d2c5	0.12873371
73	0xbd5f4ecb	-0.054518502
74	0xbccd10b6	-0.025032382
75	0x3e44ba7c	0.19211763
76	0xbde29348	-0.11063248
77	0x3e3ff9fc	0.18747705
78	0xbe27ff24	-0.16405922
79	0x3dc0cdef	0.09414279
80	0x3d98b1a2	0.07455756
81	0x3d11a86e	0.035561018
82	0xbb0dfca5	-0.002166548
83	0x3d397214	0.04527481
84	0x3c889b12	0.016675506
85	0x3ccaf9e9	0.02477737
86	0xbdb2178f	-0.086959
87	0xbcdc92ea	-0.026925523
88	0x3d516376	0.051120244
89	0x3d95c520	0.07312989
90	0xbce8ea04	-0.0284319
91	0x3dddd87f	0.10832309
92	0x3dd50dff	0.1040306
93	0x3daff8ed	0.08592401
94	0x3e11d64f	0.14241908
95	0xbddc2ea9	-0.10751087
96	0xbd9b1ef9	-0.07574267
97	0x3d2fc087	0.042908218
98	0x3d5f0107	0.05444434
99	0x3d9adab1	0.07561243
100	0xbda99e58	-0.08282155
101	0x3d68ad1d	0.05680572
102	0x3d6af06f	0.0573582
103	0xbd936d99	-0.071986385
104	0xbdcf51ee	-0.10123049
105	0xbcbddc30	-0.023176283
106	0xbd001a86	-0.031275295
107	0xbd8bcf5c	-0.0682666
108	0x3d8ae2bd	0.06781528
109	0x3e657b20	0.2241025
110	0x3cb539ec	0.022122346
111	0x3d3ea5fd	0.046545018
112	0x3d538006	0.051635765
113	0xbc5cb86c	-0.013471704
114	0xbe263a5c	-0.162332
115	0xbe4153e3	-0.18879656
116	0xbd46e37a	-0.048556782
117	0xbd984663	-0.074353
118	0xbd7fe3de	-0.06247317
119	0xbd1e6d20	-0.03867829
120	0x3c61da06	0.013784891
121	0xbcbd9bef	-0.023145644
122	0xbda96989	-0.08272082
123	0x3d435121	0.047684792
124	0x3cd5d61e	0.026103076
125	0x3db22074	0.08697596
126	0x3de665de	0.112498984
127	0x3e21bf73	0.15795688
128	0xbe24b3b0	-0.1608417
129	0x3dcf3026	0.101166055
130	0xbd899639	-0.06718106
131	0xbe028699	-0.12746657
132	0xbd8584ef	-0.06519496
133	0xbbcb66dd	-0.0062073306
134	0xbdc55c3c	-0.09636733
135	0xbd303930	-0.04302329
136	0x3d875fe8	0.066100895
137	0x3cfeb191	0.03109053
138	0x3e156948	0.14590943
139	0x3dac4d09	0.08413131
140	0xbdf2fc14	-0.11864486
141	0x3dfab369	0.12241251
142	0xbd61a26e	-0.055086546
143	0xbe08d71a	-0.13363305
144	0x3d406cf1	0.046978895
145	0xbc00bc38	-0.007857375
146	0xbc6864bf	-0.014184176
147	0xbd7de88d	-0.061989356
148	0xbe058821	-0.1304021
149	0xbe093217	-0.13398014
150	0x3dae83cb	0.08521231
151	0xbdd0d2f3	-0.10196485
152	0xbe08c3c9	-0.13355936
153	0x3e225cf7	0.15855776
154	0x3d800bab	0.062522255
155	0x3d12acab	0.0358092
156	0x3d80ca01	0.06288529
157	0x3c9123bf	0.01771724
158	0xbd87b2d7	-0.06625908
159	0xbdd55cd8	-0.10418099
160	0x3c29f032	0.010372208
161	0xbd61a4fb	-0.05508898
162	0xbd844fd1	-0.06460536
163	0x3cc4bef1	0.02401683
164	0xbd3bf24a	-0.04588536
165	0xbe1f1ae3	-0.155376
166	0xbdbc55ae	-0.091960296
167	0xbd83814b	-0.06421145
168	0x3d187542	0.0372212
169	0x3dfbd748	0.12296921
170	0xba6e36ba	-0.00090871344
171	0x3d0faf60	0.03507936
172	0x3bf5c333	0.007500076
173	0xbd901be8	-0.07036573
174	0x3cccbbab	0.02499183
175	0x3d1c016f	0.038087305
176	0xba95c6c4	-0.0011427035
177	0xbd2476aa	-0.04015223
178	0x3db207c5	0.08692888
179	0x3cd24047	0.025665415
180	0xbdf891d0	-0.121371865
181	0x3d48b4c2	0.04900051
182	0x3cbf693f	0.023365615
183	0x3dc0cb20	0.09413743
184	0xba2742bb	-0.0006380488
185	0xbd91191a	-0.07084866
186	0xbda0d1f1	-0.07852543
187	0xbd890684	-0.06690696
188	0xbc9068ed	-0.017628158
189	0x3d1fef8e	0.039046817
190	0xbd73e235	-0.0595419
191	0x3e056765	0.13027723
192	0xbc83e309	-0.01609947
193	0x3ce1e3b3	0.027574396
194	0xbd05e033	-0.032684516
195	0xbde77d70	-0.11303222
196	0xbd8548bb	-0.06508013
197	0x3c3eb237	0.011639169
198	0xbde81805	-0.11332706
199	0x3b4c7585	0.0031197977
200	0x3cef43f4	0.029207207
201	0xbd7c9370	-0.061664045
202	0xbcfe947e	-0.031076666
203	0xbd81691c	-0.06318876
204	0x3db0a291	0.08624757
205	0xbda6849f	-0.08130764
206	0xbd09de2d	-0.03365915
207	0x3d45d7c6	0.04830148
208	0xbd2d5691	-0.042318884
209	0x3e06d375	0.13166602
210	0xbd63db1f	-0.055628892
211	0x3df36df4	0.11886206
212	0x3d2798a5	0.040917058
213	0x3d74a3b2	0.059726425
214	0x3e2507b7	0.16116224
215	0xbdf93848	-0.12168938
216	0x3dfe696d	0.12422452
217	0xbe13719d	-0.14398809
218	0x3b3d2ddb	0.0028866443
219	0xbd35327a	-0.04423759
220	0x3e1e99aa	0.15488306
221	0xbdd503bb	-0.10401102
222	0x3e281b1b	0.1641659
223	0x3e15ef4a	0.14642063
224	0xbde03cd1	-0.109491
225	0x3e093dff	0.13402556
226	0x3b8f8fd2	0.0043811584
227	0xbda3b980	-0.07994366
228	0xbd97d93c	-0.07414481
229	0x3dcece47	0.10097938
230	0x3d373adf	0.04473388
231	0x3d361058	0.04444918
232	0xbd48d830	-0.049034297
233	0xbd5816e6	-0.052756213
234	0x3d05a915	0.032631952
235	0xbdc6f534	-0.097147375
236	0x3d94754a	0.072489336
237	0x3d30e15c	0.04318367
238	0x3d43036c	0.047610685
239	0x3dba422e	0.09094654
240	0xbd8fc542	-0.07020046
241	0x3cb49ee6	0.022048425
242	0xbb3c4831	-0.0028729553
243	0x3db7db9a	0.089774325
244	0xbcb7c221	-0.022431435
245	0xbde28c1e	-0.110618815
246	0xbd104d2f	-0.035229858
247	0xbc9957bd	-0.018718595
248	0xbd74b081	-0.05973864
249	0xbdda7802	-0.10667421
250	0x3de61234	0.11233941
251	0x3d4cbd73	0.04998536
252	0x3e034d53	0.12822466
253	0x3e2c2e7f	0.16814612
254	0x3b4aca66	0.0030943393
255	0x3e045b63	0.12925486

lstm.bias_ih_l0 f4 [256]
0	0x3e06f48e	0.13179228
1	0xbcab99ad	-0.020947302
2	0xbe1e657e	-0.15468404
3	0x3ced28ae	0.028950062
4	0x3ca32ad7	0.019917889
5	0xbd96a80f	-0.073562734
6	0x3e15a4ff	0.14613722
7	0x3d31d0b2	0.043411918
8	0xbdd09689	-0.10184962
9	0x3d9d469c	0.07679483
10	0x3df061e8	0.11737424
11	0xba6d7fa6	-0.00090598536
12	0xbcc95f0e	-0.024581458
13	0x3d2958b3	0.041344356
14	0x3dab6391	0.083686
15	0x3d5325c6	0.051549695
16	0x3d809446	0.06278281
17	0x3d84b408	0.06479651
18	0xbdae17cb	-0.08500632
19	0x3dcd389b	0.10020562
20	0x3c8944b2	0.01675639
21	0x3d364106	0.044495605
22	0xb84f2e0f	-4.939554e-05
23	0xbd0cd1b8	-0.03437969
24	0xbd9874ed	-0.07444177
25	0x3dc3446c	0.09534535
26	0xbbbb9bef	-0.005725376
27	0xbc918b5b	-0.017766645
28	0x3dcdb87d	0.10044954
29	0x3e220a80	0.15824318
30	0x3d80d2c6	0.06290202
31	0x3c32c41a	0.010911012
32	0xbc98a231	-0.018632026
33	0xbd5ff4e0	-0.05467689
34	0x3e08f373	0.13374119
35	0xbd74059d	-0.059575666
36	0xbd3dee67	-0.046369936
37	0x3d78e1d5	0.060762245
38	0x3deac9a7	0.114642434
39	0x3d4a44bd	0.04938196
40	0x3c11d355	0.008900483
41	0xbd977978	-0.07396215
42	0xbda7c834	-0.081924826
43	0xbdbf9354	-0.093542725
44	0x3d903a76	0.070424005
45	0x3d7c7bc2	0.061641462
46	0x3d3a7578	0.045522183
47	0x3b66a5f9	0.0035194142
48	0x3de6d7c0	0.1127162
49	0xbdbfd65d	-0.093670584
50	0xbc16e432	-0.009209679
51	0xbbbbbb88	-0.0057291426
52	0x3c67696e	0.0141242575
53	0xbd5fae7e	-0.054609768
54	0x3d7dc684	0.061956897
55	0xbd396706	-0.045264266
56	0xbd9af9dc	-0.07567188
57	0xbd1e00a6	-0.038574837
58	0x3deb2dfb	0.114833795
59	0xbd594648	-0.05304554
60	0x3e0affa5	0.13574083
61	0xbde899c6	-0.11357455
62	0x3d730881	0.05933428
63	0x3d11c170	0.035584867
64	0x3b65e9f5	0.0035082076
65	0xbd2855ff	-0.041097637
66	0xbd9588bf	-0.07301473
67	0x3d016dcb	0.031598847
68	0xbc19b3eb	-0.009381275
69	0xbd085223	-0.033281457
70	0xbd4a702f	-0.049423393
71	0x3d9361ee	0.07196413
72	0x3d9c28b6	0.076249525
73	0xbdc29759	-0.095015235
74	0x3d960f8c	0.07327184
75	0xbd9f4f1f	-0.07778763
76	0xbd9687f0	-0.07350147
77	0x3e0ca588	0.1373502
78	0x3d31abb8	0.043376654
79	0x3dd057ae	0.101729736
80	0xbd93bf8a	-0.072142676
81	0xbafb288b	-0.0019161863
82	0x3d0564f9	0.032567
83	0x3e19c66e	0.15017101
84	0x3c9a01b5	0.018799642
85	0x3e34cc28	0.17656004
86	0x3e0f2f73	0.13982944
87	0x3cb734d3	0.022364056
88	0xbd3ffa52	-0.046869583
89	0xbda2def5	-0.07952682
90	0x3da91f81	0.08257962
91	0xbb7a4302	-0.0038186912
92	0x3dac0f57	0.08401363
93	0x3e35f4f4	0.17769223
94	0x3d37c39b	0.04486428
95	0xbdedec33	-0.11617317
96	0xbda92c01	-0.08260346
97	0x3de276c1	0.11057807
98	0x3ccaeb29	0.024770336
99	0xbd75905d	-0.05995213
100	0xbe0d6041	-0.13806249
101	0x3e0babd3	0.13639764
102	0xbcbcf37f	-0.023065327
103	0x3d0cf5bb	0.034414034
104	0x3c8878a1	0.016659083
105	0x3c0d146f	0.008610829
106	0xbc76f459	-0.015072905
107	0xbc2dceb6	-0.010608366
108	0x3dff1dfe	0.124568924
109	0xbb8c950a	-0.004290228
110	0x3d4837ee	0.048881464
111	0x3d8e9085	0.06961159
112	0xbda32325	-0.07965688
113	0xbd32bbd5	-0.04363616
114	0xbd1c65d6	-0.038183056
115	0x3da9765d	0.08274529
116	0xbe0c99a1	-0.1373048
117	0x3e0ff69a	0.14058915
118	0xbc97a10c	-0.01850941
119	0xbe1f0a39	-0.15531243
120	0x3c0eb5c2	0.008710327
121	0xbe2fc07a	-0.17163268
122	0x3b8825a8	0.0041548796
123	0xbdcfcdda	-0.10146685
124	0xbdeabac7	-0.11461406
125	0x3dde1a98	0.10844916
126	0xbc28bcf1	-0.010298953
127	0xbce862ec	-0.028367482
128	0x3d8db5f0	0.069194674
129	0x3b91c295	0.004448245
130	0xbd05242a	-0.03250519
131	0x3e012d96	0.12615046
132	0xbd8fd1b9	-0.07022423
133	0xbdeafeff	-0.11474418
134	0x3d3f039c	0.0466343
135	0xbded3447	-0.11582237
136	0x3dc69950	0.09697211
137	0x3d74916a	0.05970899
138	0xbd953348	-0.07285172
139	0x3c92978e	0.017894533
140	0x3dcab5c3	0.098979495
141	0xbe006f5f	-0.12542485
142	0x3e04b81f	0.12960862
143	0x3dcf434f	0.1012026
144	0x3d897301	0.067113884
145	0x3bf4cfac	0.0074710455
146	0x3b8e925c	0.0043509435
147	0xbd475649	-0.048666272
148	0x3dedaab8	0.11604828
149	0x3ccc405b	0.02493303
150	0xbd1d387c	-0.038383946
151	0xbdcb1c66	-0.09917526
152	0xbcb258c3	-0.02177084
153	0xbd46fb40	-0.048579454
154	0x3deaa898	0.11457938
155	0x3d267922	0.040642865
156	0xbe0951fe	-0.13410184
157	0x3cf45882	0.02982736
158	0xbdf69b1c	-0.120413035
159	0x3def0745	0.116713084
160	0xbd585885	-0.052818794
161	0x3d6b3cf8	0.05743119
162	0xbd02cce5	-0.031933684
163	0xbe022b35	-0.12711795
164	0xbe00b44c	-0.12568778
165	0x3dd24458	0.10266942
166	0x3ce7afbc	0.028282039
167	0x3df4f864	0.11961439
168	0x3dbd0580	0.09229565
169	0xbd180f19	-0.037123773
170	0x3cb8c990	0.02255705
171	0x3c34c55b	0.011033381
172	0x3d0c5ca5	0.03426804
173	0xbcb0b93c	-0.021572702
174	0xbc1f3e34	-0.00971942
175	0xbd8ab113	-0.067720555
176	0x3dadec1e	0.084923014
177	0xbd3dd514	-0.046345785
178	0xbd157389	-0.036487136
179	0x3bf69723	0.007525341
180	0xbc7ebf0a	-0.015548477
181	0xbdbf5110	-0.09341633
182	0x3c348130	0.011017129
183	0xbdf5dc74	-0.12004939
184	0x3c19f06a	0.009395698
185	0x3d902068	0.07037431
186	0xbdb4e385	-0.088324584
187	0xbcaad7f4	-0.020854928
188	0x3cbfd1f0	0.023415536
189	0x3c971bae	0.018445816
190	0x3d98a4b5	0.074532904
191	0x3de9a30e	0.11408053
192	0x3e0061df	0.12537335
193	0x3db7b525	0.089700975
194	0xbe0e64e9	-0.13905682
195	0xbd72a2d7	-0.059237327
196	0xbde959e2	-0.11394097
197	0xbdd48040	-0.10376024
198	0x3e155c67	0.1458603
199	0xbd848db9	-0.06472344
200	0x3e0fc16a	0.14038625
201	0x3d86355b	0.065531455
202	0xbce9f973	-0.02856133
203	0xbd9841db	-0.07434436
204	0xbc451e1b	-0.0120311035
205	0x3d29accd	0.04142456
206	0x3c95df88	0.018295065
207	0xbd00a386	-0.031405948
208	0xbcedc2e9	-0.029023604
209	0xbd0ac52c	-0.033879444
210	0x3d6c348f	0.05766731
211	0x3cc30941	0.023808124
212	0xbd820d52	-0.06350197
213	0xbce05553	-0.027384436
214	0x3ce78d83	0.02826572
215	0x3db80fd1	0.08987392
216	0x3d12f1b7	0.03587505
217	0xbdc0ff7c	-0.0942373
218	0xbcfd4e7d	-0.030921215
219	0xbd8d7535	-0.06907121
220	0x3c082c92	0.008311408
221	0x3c885904	0.016644008
222	0x3db3e2ef	0.087835185
223	0x3dc0135b	0.09378692
224	0x3c548a01	0.012972356
225	0x3d8d5d30	0.0690254
226	0x3e1a312a	0.15057817
227	0x3dcc1ad8	0.099660575
228	0xbdc130a8	-0.094331086
229	0x3da90719	0.08253307
230	0xbbac7aa2	-0.0052636424
231	0xbd86a455	-0.065743126
232	0x3e07de5b	0.13268416
233	0xbd4e157f	-0.05031347
234	0x3db58c43	0.088646434
235	0xbc6a58f7	-0.014303437
236	0xbdc93112	-0.098238125
237	0x3e08f171	0.13373353
238	0x3e277fea	0.16357389
239	0xbcbf986d	-0.023388112
240	0x3d4db855	0.05022462
241	0xbdf44974	-0.119280726
242	0x3852f608	5.0297036e-05
243	0xbd225ba0	-0.03963816
244	0x3c5a6cfe	0.01333165
245	0xbdacb36d	-0.0843266
246	0xbcd6884e	-0.026188042
247	0xbc2a07eb	-0.010377864
248	0xbc962c79	-0.018331753
249	0xbdc5b15e	-0.09652971
250	0xbdb27592	-0.08713831
251	0x3dff096b	0.12452968
252	0x3d300b68	0.042979628
253	0xbc823416	-0.015893977
254	0x3e084729	0.13308395
255	0x3dd7ce47	0.10537391

lstm.bias_hh_l0 f4 [256]
0	0x3dc97f80	0.09838772
1	0x3d4b6273	0.049654435
2	0x3c8d22b5	0.017228464
3	0xbca80c84	-0.02051378
4	0xbd821649	-0.06351907
5	0xbdf00422	-0.11719538
6	0xbc63698b	-0.013880144
7	0x3d3e2bdc	0.046428546
8	0x3b93c244	0.0045092423
9	0x3d20b0a9	0.039230976
10	0x3c81f81f	0.015865384
11	0xbd37fbc5	-0.04491784
12	0xbbfd8246	-0.007736477
13	0xbd705826	-0.058677815
14	0x3d9ceb9a	0.07662125
15	0xbd1aa403	-0.03775407
16	0x3d1586e1	0.036505584
17	0xbd95a1f0	-0.07306278
18	0x3dfb3ecf	0.12267839
19	0x3db579d8	0.088611305
20	0x3c2f9cd9	0.010718548
21	0x3cbcd3ff	0.023050306
22	0xbdbf4149	-0.09338624
23	0xbc649b10	-0.013952985
24	0xbdb34fc1	-0.08755446
25	0xbd830d08	-0.0639897
26	0xbdc0822e	-0.0939983
27	0xbdb34a69	-0.08754427
28	0xbaa4d06c	-0.0012574322
29	0x3cde7aa3	0.027158087
30	0xbc2bedd9	-0.010493719
31	0xbe059733	-0.13045959
32	0xbded26e7	-0.11579686
33	0x3c8ea661	0.01741332
34	0x3e06e68b	0.13173883
35	0xbd86d471	-0.06583489
36	0xbae48e32	-0.0017437397
37	0xbe02e14d	-0.12781258
38	0xbd0fcde2	-0.035108455
39	0x3d83a84a	0.06428583
40	0x3c75508b	0.014972816
41	0x3dfdbdf3	0.123897456
42	0x3cd37b0f	0.025815515
43	0xbd214f81	-0.03938246
44	0xbc81bfbf	-0.015838502
45	0x3b1d5cfc	0.0024011722
46	0xbdc6b97b	-0.09703346
47	0x3d15f289	0.036608253
48	0xbd29db8a	-0.041469134
49	0x3d8edac8	0.06975323
50	0x3dcdd6c7	0.10050731
51	0x3d0e6986	0.034768604
52	0x3d9021f5	0.07037727
53	0xbd0a3e52	-0.03375084
54	0xbdaf0218	-0.08545321
55	0xbc716a7e	-0.014734862
56	0x3c4872c5	0.012234394
57	0x3c5a4823	0.013322863
58	0x3ce9a2f4	0.028520085
59	0x3d9f5cae	0.07781349
60	0x3e017769	0.12643208
61	0xbdee18b6	-0.11625807
62	0x3dee3125	0.11630467
63	0x3d90375f	0.07041811
64	0x3a6f7ae8	0.0009135441
65	0xbda44aec	-0.08022103
66	0x3d66b93d	0.056329
67	0xbc1a9a65	-0.009436225
68	0xbd123351	-0.03569347
69	0x3e1019c4	0.14072329
70	0x3cab2013	0.020889318
71	0xbd9f2bd9	-0.07772035
72	0x3dbda51b	0.09260007
73	0xbe12ad1e	-0.14323851
74	0x3dee2d95	0.11629788
75	0x3dbef66b	0.09324344
76	0x3d6c0cd7	0.057629433
77	0xbd84b4a2	-0.064797655
78	0x3e1d4604	0.1535874
79	0x3de69738	0.112593114
80	0xbd7efd0f	-0.062253054
81	0x3d074a73	0.033029985
82	0xbd4e1585	-0.05031349
83	0xbd9a5faa	-0.07537778
84	0xbe221864	-0.15829617
85	0x3d29a4a2	0.04141677
86	0x3dcd1ae3	0.10014894
87	0xbd84328d	-0.06454954
88	0xbdb955f3	-0.09049597
89	0x3db8d6e2	0.09025361
90	0xba62f43a	-0.00086576084
91	0xbdee64d7	-0.116403274
92	0x3c2cec45	0.010554378
93	0xbd0dec9a	-0.03464947
94	0x3e181420	0.14851427
95	0xbd6ac967	-0.05732098
96	0x3ce9a667	0.02852173
97	0x3bc51aa3	0.0060151382
98	0x3d9b4011	0.07580579
99	0x3db40cce	0.08791505
100	0xbdfdca7e	-0.12392138
101	0xbdcd283b	-0.10017439
102	0xbcded6e1	-0.027202072
103	0xbbbe44b3	-0.0058065294
104	0xbd98298e	-0.07429801
105	0xbc957c81	-0.018247845
106	0x3d9aa867	0.075516514
107	0x3d3c83d1	0.046024147
108	0x3dfcc23e	0.12341736
109	0xbda305cd	-0.07960091
110	0xbc50bcd1	-0.01274033
111	0xbd24e558	-0.04025778
112	0xbcf7e818	-0.030262038
113	0x3cbbf786	0.022945177
114	0x3dfd1ac5	0.123586215
115	0x3ddd6428	0.10810119
116	0x3d9fe015	0.07806412
117	0x3def611f	0.11688446
118	0xbd414a87	-0.047190215
119	0x3c1038ce	0.008802606
120	0x3dbe9573	0.09305849
121	0x3b7cac97	0.003855502
122	0x3d05d2de	0.0326718
123	0x3df5d686	0.12003808
124	0x3d84e0a3	0.064881586
125	0x3ded2003	0.115783714
126	0x3dbd983a	0.092575505
127	0x3db19abc	0.08672091
128	0xbd34baeb	-0.04412357
129	0x3cdd1bc5	0.02699078
130	0x3e25e8aa	0.16202036
131	0x3e03fda2	0.12889722
132	0x3d928627	0.07154494
133	0x3c26ead1	0.0101878205
134	0x3bf15685	0.0073650503
135	0xbd7a391e	-0.061089627
136	0xbd60d545	-0.05489089
137	0xbd7254e5	-0.059162993
138	0x3c2b629c	0.010460522
139	0x3dbfaba9	0.093589135
140	0xbda23427	-0.079201035
141	0x3d9aa850	0.07551634
142	0x3c98d8ce	0.018658068
143	0xbd913530	-0.07090223
144	0x3d243ad1	0.040095154
145	0x3e14997e	0.14511678
146	0xbdb5d34c	-0.08878192
147	0xbdac70bb	-0.08419939
148	0xbd71e6ab	-0.059057873
149	0x3dd5a19c	0.10431215
150	0x3d801070	0.06253135
151	0xbdc2ec45	-0.09517721
152	0xbdad0551	-0.0844828
153	0xbdd59be1	-0.10430122
154	0xbd7cf06b	-0.061752718
155	0xbdd14929	-0.10219032
156	0xbdb7fae6	-0.08983402
157	0xbd167359	-0.036731098
158	0xbbd29d9b	-0.0064274794
159	0xbcea7a4d	-0.02862277
160	0xbda84c78	-0.0821771
161	0xbd7d165a	-0.061788894
162	0x3967bcc0	0.00022100192
163	0x3d366f93	0.04454
164	0xbdf3ad47	-0.118982844
165	0x3dce729d	0.100804545
166	0x3dc59781	0.09648038
167	0x3cdecbc5	0.027196774
168	0xbb99c0d0	-0.0046921745
169	0xbbca3468	-0.006170798
170	0xbe11b4fe	-0.142292
171	0xbd81455f	-0.063120596
172	0xbdf5657b	-0.119822465
173	0xbde70c35	-0.11281625
174	0xbd77c268	-0.060488135
175	0x3c543143	0.012951198
176	0x3d348999	0.044076536
177	0x3daaaa76	0.08333294
178	0x3dbe8c2c	0.093040794
179	0x3dbeedeb	0.09322723
180	0x3d8bf943	0.06834652
181	0xbd4368ee	-0.04770749
182	0xbd7a9c50	-0.061184227
183	0x3d0e897e	0.03479909
184	0x3daa8172	0.08325471
185	0x3d7ec745	0.062201757
186	0xbd968b93	-0.073508404
187	0xbe0e6767	-0.13906632
188	0xbdd8219c	-0.105532855
189	0x3df384a4	0.118905336
190	0xbd3fdeff	-0.046843525
191	0x3dda954f	0.106730096
192	0x3ca739b7	0.020413263
193	0x3d3c1cad	0.045925785
194	0xbd914bc5	-0.0709453
195	0x3ccc9ffd	0.024978632
196	0xbbcf6190	-0.006328769
197	0xbdafda56	-0.08586566
198	0x3d104b8e	0.035228305
199	0xbd2a5460	-0.041584373
200	0xbdab3c7e	-0.08361147
201	0xbe028e5a	-0.12749615
202	0x3e050f72	0.12994173
203	0xbd6ee094	-0.058319643
204	0x3de72b23	0.112875246
205	0x3befb971	0.0073158075
206	0x3e39fc98	0.18162763
207	0x3be2eea9	0.006925423
208	0x3d8a895e	0.06764482
209	0x3e19b919	0.15012015
210	0x3cc6b429	0.024255829
211	0xbdba9f18	-0.09112376
212	0x3d1e9d04	0.03872396
213	0x3e1efa17	0.15525089
214	0xbd83ffe3	-0.06445291
215	0x3de6e58b	0.112742506
216	0x3df510a0	0.119660616
217	0xbd2013f2	-0.03908152
218	0x3dcd0368	0.10010415
219	0xbde5377c	-0.111922234
220	0x3d004f0c	0.031325385
221	0x3dfddd16	0.123956844
222	0x3d15330b	0.03642563
223	0xbd89144f	-0.06693327
224	0x3c9983dd	0.018739635
225	0x3e0f8aca	0.14017788
226	0xbc9cf3c6	-0.019159209
227	0x3dc617ae	0.09672485
228	0x3ddf94f8	0.109170854
229	0x3c8dc91f	0.017307816
230	0x3d4928e3	0.04911126
231	0xbb160bf3	-0.0022895306
232	0xbd7e17c5	-0.062034387
233	0xbd1c5801	-0.038169865
234	0x3d9e3178	0.07724279
235	0x3d30e21f	0.043184396
236	0x3d2e42e9	0.04254428
237	0x3dd34951	0.10316718
238	0x3d5e5012	0.05427558
239	0xbb0f4074	-0.0021858485
240	0x3bf4300d	0.007452017
241	0xbdc3a449	-0.09552819
242	0xbc2068f6	-0.00979065
243	0x3dfc6dab	0.12325605
244	0x3dfb9307	0.122839026
245	0x3df0aca2	0.11751677
246	0xbe508106	-0.20361719
247	0xbdbfad3c	-0.09359214
248	0xbd821659	-0.06351919
249	0x3b113c6f	0.0022161265
250	0xbd3eb170	-0.046555936
251	0x3e11c4a4	0.14235169
252	0x3dd28100	0.10278511
253	0xbe046466	-0.12928924
254	0x3d0938ac	0.033501312
255	0xbd500f3e	-0.050795786

lstm.weight_ih_l1 f4 [256, 64]
0	0xbc4bfda5	-0.01245061
1	0xbcda3194	-0.026634969
2	0x3d0d1d73	0.034451913
3	0xbd07edf3	-0.03318591
4	0x3e0e8c4b	0.13920705
5	0x3d6373bb	0.05553029
6	0x3cdd2e16	0.026999515
7	0x392c1d8e	0.00016414208
8	0xbe07241e	-0.13197371
9	0xbd5b095c	-0.053475723
10	0x3ccaa0dd	0.024734909
11	0xbcd620e4	-0.02613873
12	0xbd536b74	-0.051616147
13	0xbe12f4d2	-0.14351204
14	0x3c94f639	0.018183814
15	0x3e2c37d1	0.16818167
16	0x3e2c691b	0.1683697
17	0xbca270e2	-0.019829217
18	0xbd01f2d3	-0.031725716
19	0x3c3b7679	0.01144182
20	0xbdfe8572	-0.124277964
21	0x3dcbdc6a	0.0995415
22	0xbd9aeaae	-0.07564293
23	0x3e173d5f	0.14769505
24	0x3d429014	0.047500685
25	0xbd4d0211	-0.0500508
26	0xbd0c2984	-0.03421928
27	0x3e25be15	0.16185792
28	0x3dfbd500	0.12296486
29	0x3e037765	0.12838514
30	0x3e35e163	0.1776176
31	0xbd79c2fb	-0.060976963
32	0xbdf0409a	-0.11731072
33	0xbda840ac	-0.0821546
34	0x3dbc28ca	0.091874674
35	0x3dcac12e	0.09900127
36	0xbdcd6b60	-0.10030246
37	0x3d99a728	0.07502586
38	0xbe01a3d4	-0.12660152
39	0x3dac294c	0.08406314
40	0x3d1fa8d1	0.038979355
41	0x3e15e7aa	0.14639154
42	0xbc19e313	-0.009392518
43	0x3d7731b0	0.06035012
44	0xbc401527	-0.011723793
45	0xbe69d54f	-0.22835277
46	0x3d506bdb	0.05088411
47	0x3b19df47	0.002347903
48	0x3d8fbe13	0.07018676
49	0xbdc13483	-0.09433844
50	0x3d35c21a	0.044374563
51	0xbdd99f70	-0.106261134
52	0x3dfb2fc8	0.12264973
53	0x3daa848d	0.08326063
54	0xbe021920	-0.12704897
55	0xbd2aff2a	-0.04174725
56	0xbd2f0979	-0.042733643
57	0x3c30fe2d	0.010802788
58	0x3d7ed0e9	0.06221095
59	0x3b1527bf	0.0022759286
60	0x3e5eaea8	0.21746314
61	0xbe0b0dbe	-0.13579461
62	0x3e06dec7	0.1317092
63	0xbca8fa89	-0.020627277
64	0x3e1ea911	0.15494181
65	0xbd9f0b9a	-0.07765885
66	0xbd235a58	-0.03988108
67	0x3d6b9378	0.057513684
68	0xbd1b5e8e	-0.03793197
69	0x3bb298be	0.005450337
70	0xbd88728e	-0.066624746
71	0xbd9177a1	-0.071028955
72	0xbdab1bdd	-0.08354924
73	0x3c8c076b	0.01709338
74	0x3d710130	0.058839023
75	0x3deca207	0.11554342
76	0x3e1083be	0.14112756
77	0xbd4d0381	-0.05005217
78	0xba0308da	-0.00049985724
79	0x3cd2d7ff	0.02573776
80	0xbe285c42	-0.16441444
81	0xbd917a85	-0.07103447
82	0xbd0da6d5	-0.03458293
83	0x3da20b88	0.07912356
84	0xbca2e6c3	-0.019885426
85	0x3dfc375a	0.12315245
86	0xbbbe6d87	-0.0058113965
87	0x3d8146fa	0.06312366
88	0x3d926f1b	0.07150098
89	0xbdefa7ec	-0.117019504
90	0x3b60d2c3	0.0034305311
91	0x3dd4c47a	0.103890374
92	0x3c1def3a	0.009639556
93	0xbd424490	-0.047428668
94	0x3d2f315e	0.04277169
95	0x3ced845c	0.028993778
96	0x3c9a4f89	0.018836753
97	0xbcf08a50	-0.029362828
98	0xbd888739	-0.06666417
99	0x3c844150	0.016144425
100	0xbe08376a	-0.13302389
101	0x3da14743	0.0787492
102	0xbd9abd55	-0.075556435
103	0xbe2e56e8	-0.1702534
104	0x3db7a13d	0.08966301
105	0xbd78ef37	-0.060775008
106	0x3dfe6234	0.124210745
107	0x3d7e5d9e	0.062101
108	0xbce5c8b8	-0.028049812
109	0xbd121fca	-0.035674848
110	0xbd495f16	-0.049162947
111	0x3d1eed80	0.038800716
112	0xbddc1514	-0.10746208
113	0xbdf63b88	-0.120230734
114	0xbd89bc95	-0.06725422
115	0xbd825bf3	-0.06365194
116	0x3d86a0d6	0.06573646
117	0xbd85c78d	-0.06532202
118	0xbe037b40	-0.12839985
119	0xbd65d8a4	-0.056114808
120	0xbcad6012	-0.021163974
121	0x3bfd15ed	0.007723561
122	0x39a52905	0.00031501814
123	0xbdf7cc53	-0.120995186
124	0xbd460153	-0.048341107
125	0xbdfe076a	-0.12403758
126	0xbd0aed33	-0.033917617
127	0xbe63ff1c	-0.22265285
128	0x3d7695fd	0.060201634
129	0xbda2fb01	-0.079580314
130	0x3c59682c	0.013269465
131	0x3d91b8cd	0.07115326
132	0x3b9f69dd	0.004864915
133	0xbdb7ad84	-0.08968642
134	0x3e659e75	0.22423728
135	0x3dbbee17	0.091762714
136	0x3e025b9a	0.12730256
137	0x3cd5284c	0.026020192
138	0xbdeb973f	-0.11503457
139	0x3d697589	0.056996856
140	0x3ddca4c9	0.10773618
141	0xbda56669	-0.08076174
142	0xbd23a333	-0.03995056
143	0x3ddb6b9f	0.107138865
144	0xbd35db8f	-0.04439884
145	0x3dd9a205	0.10626606
146	0xbc5f9529	-0.013646402
147	0xbd2f4b44	-0.04279639
148	0x3e14e213	0.14539365
149	0xbb9e339d	-0.00482793
150	0xbd3678f7	-0.044548955
151	0x3de6fd04	0.11278728
152	0xbde64431	-0.11243475
153	0xbe1d1a75	-0.15342124
154	0xbdd3a933	-0.103350066
155	0xbda1f4c4	-0.079080135
156	0x3cd24c4b	0.025671145
157	0xbddd4549	-0.10804231
158	0x3cd9d702	0.026591782
159	0xbcdd47d2	-0.027011786
160	0xbd8fe1dc	-0.07025501
161	0x3dc49ad3	0.09599843
162	0xbdcaef72	-0.09908952
163	0xbe05e2fa	-0.13074866
164	0x3cd1b772	0.025600169
165	0x3e003fd7	0.12524353
166	0xbd46f551	-0.048573796
167	0xbe15bd4e	-0.14622995
168	0x3d186868	0.037208945
169	0xbddaf48f	-0.10691177
170	0x3d31fb96	0.04345282
171	0xbdb17d7e	-0.08666514
172	0x3d4f1bc0	0.050563574
173	0x3c1edb62	0.00969586
174	0xbd2ccae6	-0.042185687
175	0x3de54c67	0.11196213
176	0xbe2323b6	-0.15931591
177	0xbe24d0ca	-0.16095272
178	0x3db8bbe8	0.09020215
179	0xbdcfda2e	-0.10149036
180	0x3cc43907	0.023952974
181	0xbd8ee791	-0.069777615
182	0x3cc2641d	0.023729378
183	0xbdd507b0	-0.10401857
184	0xbe19d780	-0.15023613
185	0x3d042f4b	0.032271665
186	0xbcf2b65e	-0.029627975
187	0x3e1272b6	0.14301571
188	0x3d82c98e	0.063861
189	0x3c1a1b25	0.009405886
190	0xbd467c78	-0.048458546
191	0x3c4eed6b	0.012629847
192	0x3e085cca	0.13316646
193	0x3e0c3dc9	0.13695444
194	0xbca1bf09	-0.019744413
195	0xbdb68918	-0.08912867
196	0x3d765c80	0.06014681
197	0xbe113bea	-0.14183012
198	0x3d7342f7	0.059390035
199	0x3d058197	0.03259429
200	0xbc30242e	-0.010750813
201	0xbdebebbc	-0.11519572
202	0xbd3b8aac	-0.045786545
203	0xbd8f8d50	-0.07009375
204	0x3b2baa64	0.002619409
205	0x3d5ff639	0.054678176
206	0xbd050871	-0.032478753
207	0x3d728b33	0.059214782
208	0x3e15a930	0.14615321
209	0x3e152b36	0.14567265
210	0xbd954866	-0.072891995
211	0x3e176acf	0.14786838
212	0x3de21508	0.11039168
213	0x3d8eadaa	0.069667175
214	0x3d0de602	0.03464318
215	0xbd0a84c3	-0.033818018
216	0x3dd12e02	0.102138534
217	0x3d50aa8b	0.050943892
218	0x3d606053	0.054779362
219	0xbcd6f348	-0.026239052
220	0x3e2aa4d7	0.16664444
221	0xbe075ec8	-0.1321975
222	0xbdad1637	-0.08451503
223	0xbde9b7e9	-0.11412031
224	0xbddf84e8	-0.10914022
225	0xbcb99571	-0.022654267
226	0xbe144804	-0.14480597
227	0x3ddeb883	0.108750366
228	0x3dc0d53f	0.094156735
229	0xbd2eed3a	-0.042706706
230	0xbd55b7d3	-0.05217726
231	0x3c949985	0.01813961
232	0x3dc3ee34	0.09566918
233	0x3ce2c106	0.027679931
234	0xbe3ad81c	-0.18246502
235	0x3c66de8d	0.014091146
236	0x3ddecb37	0.10878604
237	0x3cd6f495	0.026239673
238	0x3e27c901	0.1638527
239	0x3e14d727	0.14535199
240	0x3c3249dd	0.010881868
241	0xbca00346	-0.01953281
242	0x3cb5ae1e	0.022177752
243	0xbc2fdcac	-0.010733765
244	0xbddf1415	-0.10892502
245	0x3c840dc4	0.016119845
246	0xbe04bf59	-0.12963618
247	0x3cf52e0f	0.029929189
248	0xbb235a63	-0.00249257
249	0x3ca13d49	0.019682543
250	0x3e568ddf	0.20952557
251	0x3c49e401	0.012322427
252	0xbcf785f0	-0.030215234
253	0x3aeb677a	0.0017959916
254	0x3e1bb4ec	0.15205735
255	0xbb80f4ab	-0.0039354167

lstm.weight_hh_l1 f4 [256, 64]
0	0xbd190f07	-0.037367847
1	0xbd195582	-0.037435062
2	0x3d6dcb25	0.05805506
3	0x3da44319	0.0802061
4	0xbd6ffd04	-0.058590904
5	0xbd4116dd	-0.047140945
6	0xbd0c6e4d	-0.03428488
7	0x3e3060d1	0.17224433
8	0x3e27ffc4	0.1640616
9	0x3cee06a6	0.029055905
10	0xbd937f66	-0.07202034
11	0x3e05e60e	0.1307604
12	0x3e1cf1a3	0.15326552
13	0xbbb3f4a6	-0.005491811
14	0x3d127e09	0.035764728
15	0xbda0e6e8	-0.07856542
16	0x3cb59e7e	0.022170302
17	0x3dd39479	0.10331053
18	0xbdd6575a	-0.1046588
19	0xbdca1812	-0.09867872
20	0x3d76f10a	0.060288467
21	0x3d674b8e	0.05646854
22	0xbc8da5e4	-0.017291017
23	0xbaa534b3	-0.0012604207
24	0xbd0766bb	-0.033056956
25	0x3d0ec487	0.03485539
26	0xbdda70d0	-0.106660485
27	0xbcac7270	-0.021050662
28	0xbd246f91	-0.04014546
29	0x3d48e78c	0.049048945
30	0xbc8def56	-0.017326038
31	0xbc75c1cb	-0.014999817
32	0x3d9cd4be	0.07657765
33	0x3cfabfba	0.030609
34	0xbe01d2ff	-0.12678145
35	0xbe097773	-0.13424473
36	0xbe16d6ae	-0.14730331
37	0x3dc19396	0.09451978
38	0x3db67d6f	0.08910643
39	0x3d42f959	0.047601078
40	0x3e0d2c69	0.13786472
41	0x3c3071ab	0.010769288
42	0x3dce3485	0.10068611
43	0x3da69766	0.08134346
44	0x3b92de03	0.0044820323
45	0xbd67a035	-0.05654927
46	0xbd9e0af4	-0.07716933
47	0x3d4c3b32	0.04986114
48	0xbd7c74fc	-0.061635002
49	0xbcd587fb	-0.026065817
50	0x3d06befa	0.032896973
51	0x3da2a284	0.07941154
52	0xbd59855c	-0.053105697
53	0xbded8ebb	-0.11599489
54	0x3d7dea3b	0.061990958
55	0x3cd11ee2	0.025527421
56	0xbd6beec8	-0.057600766
57	0x3cc64dfe	0.024207111
58	0x3c99b355	0.01876227
59	0xbd904129	-0.07043678
60	0x3d14a322	0.036288388
61	0xbbd6f0f9	-0.006559488
62	0x3e16b498	0.14717329
63	0xbda15ce6	-0.07879047
64	0x3d6e084c	0.05811338
65	0xbc8a99b1	-0.016918989
66	0xbe34dfcc	-0.17663497
67	0xba738955	-0.00092901784
68	0xbd882445	-0.06647543
69	0xbdff292a	-0.12459023
70	0xbc95b47b	-0.018274536
71	0x3de7ad20	0.11312318
72	0x3d8e06f1	0.06934918
73	0xbcbf889e	-0.023380574
74	0xbd10ce70	-0.035353124
75	0xbda5bca8	-0.08092624
76	0x3d39dc53	0.045376133
77	0x3dbda553	0.09260049
78	0xbdc4262c	-0.09577593
79	0x3d8b4611	0.068004735
80	0xbcb2e751	-0.021838816
81	0x3d36f05a	0.04466281
82	0x3d0b418b	0.033998054
83	0xbc75e6a6	-0.015008604
84	0xbd4d419f	-0.05011141
85	0xbd9e7555	-0.07737223
86	0x3e07907b	0.13238709
87	0xbcd22fc6	-0.025657546
88	0x3c0b8c38	0.0085173175
89	0xbdb950ba	-0.090486005
90	0x3e0d656e	0.13808224
91	0x3e3fee3a	0.1874322
92	0xbe17a381	-0.14808466
93	0xbdc6bd65	-0.09704093
94	0xbdb148eb	-0.08656486
95	0x3bb004cc	0.0053716656
96	0xbd532337	-0.051547255
97	0x3e10b2ff	0.14130782
98	0x3d6eb5c7	0.058278825
99	0x3df4c2b3	0.119511984
100	0x3c323358	0.010876499
101	0xbe2f11d9	-0.17096652
102	0x3d9a2f72	0.07528581
103	0x3d86a049	0.06573541
104	0x3e0d3f78	0.13793743
105	0x3d06a4ef	0.032872137
106	0x3d25d956	0.04049047
107	0xbd46c3d9	-0.04852662
108	0xbe12616c	-0.14294976
109	0x3da4bdad	0.0804399
110	0xbcb83906	-0.022488128
111	0x3d78b00f	0.060714778
112	0xbdff5ee9	-0.124692746
113	0x3d140f35	0.036147315
114	0x3d189c5d	0.037258495
115	0x3e57200e	0.21008322
116	0x3d8b5dd5	0.068050064
117	0x3e3c80d9	0.18408526
118	0xbc997443	-0.018732196
119	0xbd025bb6	-0.031825744
120	0x3d30b961	0.04314554
121	0xbbd2c90b	-0.0064326576
122	0x3c1c84f4	0.009553183
123	0x3c8ae277	0.01695369
124	0xbe2bf96a	-0.16794363
125	0xbe34f77b	-0.17672531
126	0x3cec0f18	0.028815791
127	0xbe150b2a	-0.1455504
128	0x3c2c5b98	0.0105198845
129	0x3cab63fc	0.0209217
130	0x3d23a492	0.03995187
131	0x3e2630fe	0.16229627
132	0x3e1872c9	0.14887537
133	0x3c758c33	0.014987039
134	0xbe120a04	-0.14261633
135	0x3c20d777	0.009816996
136	0x3c38a3ae	0.011269493
137	0x3d051eda	0.032500125
138	0xbdaef7a9	-0.08543331
139	0xbc67f1a3	-0.014156732
140	0xbde475ad	-0.111552574
141	0x3db5b411	0.088722356
142	0xbd409c5a	-0.04702411
143	0xbc9f0a27	-0.01941402
144	0x3c3f484d	0.011674953
145	0x3d820180	0.06347942
146	0x3c993585	0.018702278
147	0x3e11fef2	0.1425741
148	0x3c80a0e2	0.015701715
149	0xbddd39b9	-0.10802025
150	0x3deb0468	0.1147545
151	0x3e0c85ba	0.13722888
152	0x3dc73996	0.097277805
153	0xbe1b67ef	-0.15176366
154	0xbcc196ab	-0.023631414
155	0x3d2a747d	0.041614998
156	0xbcd56684	-0.02604986
157	0x3da2b155	0.0794398
158	0x3d1684d7	0.03674778
159	0x3dded39f	0.10880207
160	0x3dfb38e7	0.12266713
161	0xbd8bce5c	-0.06826469
162	0x3dc0d83f	0.09416246
163	0x3b6641ad	0.003513436
164	0x3de5521f	0.11197304
165	0xbd9e20be	-0.07721089
166	0xbda1f6fc	-0.07908437
167	0xbe4a90bb	-0.19781773
168	0x3d6a1b26	0.057154797
169	0xbc008b67	-0.007845736
170	0x3d988320	0.07446885
171	0x3c81f908	0.015865818
172	0x3d9722a3	0.07379653
173	0xbd0ec4fe	-0.034855835
174	0x3d86b76d	0.065779544
175	0x3d8c5258	0.06851643
176	0xbe20b937	-0.15695654
177	0x3d1448b7	0.03620216
178	0xbcf674cb	-0.030084988
179	0x3daaae2a	0.083340004
180	0xbd5f4e5e	-0.054518096
181	0xbe36c941	-0.1785021
182	0xbd879f50	-0.06622183
183	0x3b019674	0.0019773515
184	0x3e137fd5	0.14404233
185	0x3d8b2cae	0.06795631
186	0xbe18c3df	-0.14918469
187	0x3c84b943	0.01620162
188	0xbdd82bc3	-0.10555222
189	0xbe29d3dc	-0.16584724
190	0x3de3def9	0.11126513
191	0xbdd7ffae	-0.10546814
192	0xbdba7a4a	-0.09105356
193	0xbd933452	-0.07187714
194	0xbcd6e841	-0.026233794
195	0x3dc4a119	0.096010394
196	0x3dabebcc	0.08394584
197	0xbd9df4e3	-0.07712724
198	0xbdc322c2	-0.09528114
199	0xbdc6460c	-0.09681329
200	0x3d3fb442	0.046802767
201	0xbd73412c	-0.059388325
202	0xbe0196b5	-0.12655146
203	0x3e26bb05	0.1628228
204	0x3e0d4886	0.13797197
205	0x3e22ec00	0.1591034
206	0x3bba9eb6	0.0056951893
207	0x3c1d934b	0.009617637
208	0x39daf70e	0.0004176427
209	0x3dd9abde	0.10628484
210	0x3d9cc630	0.07654989
211	0xbd2eb63b	-0.042654257
212	0xbe27a383	-0.16370969
213	0xbdc3d870	-0.095627666
214	0x3d814657	0.063122444
215	0x3dde9ca3	0.1086972
216	0x3db04c06	0.0860825
217	0xbd454f8e	-0.048171572
218	0x3db7ce4a	0.089748934
219	0xbd605bfd	-0.054775227
220	0xbdcd1cae	-0.10015236
221	0x3dd16803	0.10224917
222	0xbd946975	-0.07246677
223	0x3d171ecd	0.03689461
224	0x3e4477de	0.1918635
225	0x3dddf041	0.108368404
226	0xbd87ae09	-0.066249914
227	0x3caa1210	0.020760566
228	0x3d84474b	0.064589106
229	0x3d253917	0.04033765
230	0xbdd0644d	-0.10175381
231	0xbe22ae8c	-0.15886897
232	0x3dfe5891	0.124192365
233	0xbdba161e	-0.0908625
234	0x3d9c19ef	0.07622134
235	0xbde21220	-0.11038613
236	0x3d956084	0.072937995
237	0xbca69e34	-0.020339109
238	0x3c1f8063	0.0097352
239	0xbd203856	-0.039116226
240	0xbdcbad75	-0.09945194
241	0xbdfe928e	-0.12430297
242	0xbd76e78a	-0.060279407
243	0x3dc00a29	0.09376938
244	0x3d8b6f80	0.06808376
245	0x3d167f84	0.036742702
246	0x3cae9a15	0.021313706
247	0x3ccf468b	0.025302192
248	0x3d59674d	0.05307703
249	0x3de14cc8	0.11000973
250	0x3c27772f	0.010221287
251	0xbe319d2d	-0.17345114
252	0x3bb2026c	0.0054324176
253	0x3d1dd4e1	0.038533095
254	0x3da279d8	0.07933396
255	0x3d292a35	0.041300017

lstm.bias_ih_l1 f4 [256]
0	0xbd8fc551	-0.07020057
1	0xbd5ef88c	-0.05443625
2	0xbd88eb9a	-0.066855624
3	0x3cf6a8c2	0.030109767
4	0xbd62c396	-0.055362307
5	0xbd05ab5e	-0.03263413
6	0x3e23d2db	0.15998404
7	0x3d818980	0.06325054
8	0xbc6ac5fe	-0.014329432
9	0x3e0c2c5e	0.136888
10	0x3dcd8318	0.1003477
11	0x3d079a37	0.033106055
12	0xbd672bf0	-0.056438386
13	0xbd284da1	-0.041089658
14	0x3d674396	0.05646094
15	0xbd8f436e	-0.06995283
16	0x3d0603c9	0.032718454
17	0x3df0a6d6	0.117505714
18	0x3d011178	0.0315108
19	0x3da00d3c	0.07815024
20	0xbbbbff9b	-0.0057372577
21	0xbd3acce1	-0.045605544
22	0xbb197593	-0.0023416027
23	0xbd351c0a	-0.044216193
24	0x3dff6cbb	0.124719106
25	0x3d82413b	0.06360098
26	0x3da18112	0.07885946
27	0x3de7f456	0.113259
28	0x3dc1e950	0.09468329
29	0x3d62c421	0.055362824
30	0xba3f8ef3	-0.0007307373
31	0x3d848c2a	0.06472047
32	0x3d3dbcf2	0.04632277
33	0xbd41e491	-0.04733712
34	0x3cd527ab	0.026019892
35	0x3d2d7a22	0.042352803
36	0xbac845bc	-0.0015279572
37	0xbd060083	-0.03271533
38	0x3e0bd1d3	0.1365426
39	0x3d71921d	0.058977235
40	0x3d8836b7	0.06651061
41	0x3dd392d6	0.10330741
42	0x3d0d80f9	0.034546826
43	0xbd86c571	-0.06580628
44	0x3cec36f3	0.028834796
45	0x3dcf2f9c	0.10116503
46	0x3e0fcd2d	0.14043112
47	0x3db33dcd	0.08752022
48	0xbd9eec83	-0.07759955
49	0x3ce36465	0.027757833
50	0x3de3729c	0.111058444
51	0x3c8c7fc6	0.01715077
52	0x3e212c34	0.15739518
53	0x3da7f97b	0.082018815
54	0xbdc9273e	-0.09821938
55	0x3c96cf73	0.018409466
56	0x3ce6db16	0.02818064
57	0x3d919df8	0.07110208
58	0x3e11684e	0.14199945
59	0x3d5cf231	0.05394191
60	0xbd87a5d6	-0.066234276
61	0x3e1230fe	0.14276502
62	0x3dbd65db	0.09247943
63	0x3d52b111	0.051438395
64	0x3de7e3cd	0.113227464
65	0x3de8dfcd	0.113708116
66	0x3d5298f8	0.051415414
67	0x3cace897	0.021107001
68	0xbda0d544	-0.07853177
69	0xbda9ffbc	-0.083007306
70	0x3deb8b7b	0.11501213
71	0x3e1f45b0	0.15553927
72	0xbd77654e	-0.060399346
73	0x3c60d2d6	0.013722142
74	0xbd45b38f	-0.048266944
75	0xbbf38217	-0.0074312794
76	0x3d87731f	0.066137545
77	0x3dacb3df	0.08432745
78	0x3e0301e6	0.12793693
79	0x3d9b6140	0.07586908
80	0x3df3c2bf	0.11902379
81	0xbcad1970	-0.021130294
82	0x3d27da16	0.040979467
83	0xbd6758e0	-0.056481242
84	0xbccf7e11	-0.025328668
85	0x3d8393dc	0.06424686
86	0xbdb43632	-0.087993994
87	0xbd82f1b7	-0.0639376
88	0x3d09f960	0.03368509
89	0x3cc4b1e1	0.0240106
90	0x3e03f8f3	0.12887935
91	0xbd26e970	-0.040749967
92	0x3df34852	0.118790284
93	0x3dd3708c	0.10324201
94	0x3bf7da74	0.0075638834
95	0xbdcb3398	-0.0992195
96	0x3beece49	0.0072877747
97	0x3cba9304	0.02277518
98	0x3d90a6a3	0.070630334
99	0x3e09b034	0.13446122
100	0x3cad6019	0.021163987
101	0x3d819d97	0.06328886
102	0xbdaae8cb	-0.08345183
103	0x3d98e1be	0.07464932
104	0xbdc4fb36	-0.09618227
105	0x3d5a8395	0.053348143
106	0xbc9c6a09	-0.01909353
107	0x3db78f9a	0.08962937
108	0xbdc7d9fd	-0.09758375
109	0x3e1bcf5a	0.15215817
110	0x3d4082f5	0.04699989
111	0x3dabbf26	0.08386068
112	0x3df6147a	0.12015624
113	0x3ddb3195	0.107028164
114	0x3c0a15ea	0.008428076
115	0x3e4531de	0.19257304
116	0x3c90b052	0.017662201
117	0xbdd44f51	-0.10366691
118	0xbd9982d9	-0.0749566
119	0x3c487ec9	0.012237259
120	0x3dbf25b1	0.09333361
121	0x3c3811ec	0.011234742
122	0x3d585521	0.05281556
123	0xbd69d9e2	-0.057092555
124	0x3d780e12	0.060560293
125	0xbd305504	-0.043049827
126	0x3dc382ea	0.09546454
127	0xbc03f9db	-0.008055176
128	0x3d155c6d	0.036465097
129	0xbd66043d	-0.056156386
130	0x3c9e7227	0.019341541
131	0x3ded487d	0.11586092
132	0x3db9192c	0.09038004
133	0x3e102b2c	0.14078969
134	0x3de7e443	0.11322834
135	0x3c491310	0.012272611
136	0xba62ae17	-0.0008647157
137	0x3b29a3f2	0.0025885073
138	0xbcba3075	-0.022728184
139	0xbb414f3c	-0.002949669
140	0xbdc35571	-0.09537781
141	0xbdbd0be1	-0.09230781
142	0xbc0c939e	-0.008580117
143	0x3c7b06de	0.0153214615
144	0x3deac58a	0.11463459
145	0xbc3eaea4	-0.011638317
146	0x3dcb2653	0.09919419
147	0x3cd6dc11	0.026227983
148	0x3cce8010	0.02520755
149	0x3d895666	0.06705932
150	0x3d253471	0.040333215
151	0xba7439fa	-0.00093165005
152	0x3da27a8f	0.079335324
153	0x3cffee5c	0.031241588
154	0xbddadcdb	-0.10686656
155	0x3ddd1878	0.10795683
156	0xbc38fbb8	-0.011290483
157	0xbdbe8da3	-0.09304359
158	0x3d9a82d7	0.07544487
159	0x3dcf8a74	0.1013383
160	0xbdfa6e0a	-0.122280195
161	0x3ce76eff	0.02825117
162	0xbd99d917	-0.0751211
163	0x3d8bcc41	0.06826068
164	0x3d913a3c	0.070911855
165	0x3c8171e8	0.015801385
166	0xbd43b571	-0.047780458
167	0x3d71420a	0.05890087
168	0x3dbbc71b	0.09168836
169	0x3dabfcd2	0.08397831
170	0x3c6ee91c	0.014581945
171	0x3d7d2469	0.0618023
172	0x3dbd6eeb	0.092496715
173	0x3de5eac5	0.11226419
174	0x3ce9ffaf	0.028564302
175	0x3dfdf386	0.12399964
176	0xbdd7640d	-0.1051713
177	0xbc48866a	-0.012239078
178	0xbcaa0fa1	-0.020759406
179	0x3debfa50	0.11522353
180	0xbd3f8096	-0.04675349
181	0xba7e655b	-0.0009704434
182	0xbaf25fbb	-0.0018491665
183	0x3d8142e5	0.06311587
184	0xbd83314f	-0.06405889
185	0x3c287be4	0.010283444
186	0xbd3c3acb	-0.045954507
187	0x3da20a3f	0.079121105
188	0x3dd3e636	0.103466436
189	0xbe0dc403	-0.13844304
190	0xbdc8e176	-0.09808628
191	0xbd35da32	-0.04439754
192	0x3cf41e65	0.02979965
193	0x3d58f024	0.05296339
194	0x3c6cab83	0.014445188
195	0x3d30da21	0.043176774
196	0x3d19dc5e	0.037563674
197	0x3cc61966	0.024182033
198	0xbd28005c	-0.041015968
199	0xbcd02d88	-0.025412336
200	0xbccdec92	-0.02513722
201	0xbd2a664b	-0.04160146
202	0x3e25ad0c	0.16179293
203	0xbd5f96a2	-0.054587014
204	0x3cf728a2	0.030170742
205	0x3e1c38bb	0.15256016
206	0xbd9cf419	-0.076637454
207	0xba869735	-0.0010268452
208	0x3d96bca1	0.07360197
209	0x3ddbea8b	0.10738095
210	0xbba30df4	-0.0049760286
211	0x3dda61f9	0.10663218
212	0x3e0366f5	0.12832244
213	0x3da08600	0.078380585
214	0x3dcbdfb1	0.09954775
215	0x3d2854ae	0.04109638
216	0x3d00e6ff	0.031470295
217	0x3dc7153e	0.097208485
218	0x3d0f19b7	0.034936633
219	0xbcaff006	-0.021476757
220	0x3c07b55f	0.008282988
221	0xbd4d5df0	-0.050138414
222	0xbd811760	-0.063032866
223	0xbbcd9cf6	-0.0062748147
224	0x3d542e48	0.05180195
225	0x3e12b7fc	0.14327997
226	0xbc63fdad	-0.0139154615
227	0x3d89c623	0.06727245
228	0x3d016a6b	0.03159563
229	0x3e1eb08e	0.15497038
230	0x3e03ff4c	0.12890357
231	0x3e34590b	0.17612092
232	0x3d9768b7	0.0739302
233	0x3e178487	0.14796649
234	0x3dfbdab6	0.12297575
235	0x3e1d7212	0.15375546
236	0x3e131290	0.1436255
237	0x3dc2e45c	0.09516212
238	0x3deddefe	0.11614798
239	0x3df4a490	0.1194545
240	0x3d72bc03	0.059261333
241	0x3d3df6dd	0.046378005
242	0x3d973def	0.0738486
243	0x3d9f0fc4	0.07766679
244	0x3a841214	0.0010076188
245	0x3e02d99a	0.12778321
246	0x3d5dfc92	0.054195948
247	0x3c4bf6a1	0.012448938
248	0xbde85074	-0.1134347
249	0xbdb7e910	-0.0898
250	0xbd68a850	-0.05680114
251	0x3e0ff441	0.14058019
252	0x3c68eba2	0.0142163355
253	0x3c51cb5e	0.012804834
254	0xbd2ffa4c	-0.04296331
255	0x3e04a0f5	0.12952025
