model/my_1.ckpt (torch_old, 350937 bytes, 14 tensors)

lstm.weight_ih_l0 f4 [256, 12]
0.03465377 0.07996142 -0.02372249 0.052201197 -0.05087045 -0.14423609 0.056202605 -0.14878985
-0.051442113 0.04868674 -0.1658192 -0.11616378 0.00418805 0.13781399 -0.1270674 0.009481614
-0.012312693 -0.023650922 0.007349323 -0.17961247 -0.07467388 0.07387614 -0.00960803 0.08550453
-0.033976316 -0.037253845 -0.16695 -0.0026620477 -0.044826508 0.0603709 0.12377629 -0.19012819
-0.15590972 0.062129617 0.08542818 0.050457 -0.07045354 0.045388687 -0.009869441 0.07175866
0.057173766 0.071080424 -0.007329822 -0.11183689 -0.22414061 0.1350717 -0.030927084 0.12552379
-0.038801644 -0.008536546 -0.042910527 -0.04864353 0.09944339 0.10710631 -0.13590577 -0.20979553
-0.0028385841 0.05031947 0.18539663 0.00756638 -0.12744433 0.05417101 -0.009249674 -0.13149928
-0.06628268 0.034994986 -0.089202434 -0.03683979 -0.04929994 -0.054588918 0.037345506 -0.11873591
0.010297977 -0.013979901 -0.08467151 0.1395675 0.13394411 -0.074682705 0.07053691 0.08638928
0.06820827 -0.030220667 0.113808066 -0.1336686 -0.05235518 -0.024840511 -0.0006317859 -0.046118714
-0.044270236 -0.065456465 -0.11579856 -0.066984124 0.005215689 0.021777168 -0.1470797 -0.03316385
-0.018189803 -0.017434651 -0.13463259 0.079217 0.09759543 0.06409181 0.00045321722 -0.08124778
-0.049269393 0.073107414 0.11237804 0.016109107 -0.13966866 -0.060356844 0.1221798 -0.06077329
0.02067546 0.13300076 -0.031464238 0.11167755 -0.1237379 -0.013428852 -0.08374711 0.018254641
-0.10145972 0.0075276406 -0.053244177 0.0728264 -0.09158583 0.0014147804 0.05566178 0.13875696
0.029304538 0.019489681 -0.038411614 0.049286716 0.04396549 -0.020306356 -0.1406759 -0.07934544
0.015704906 -0.07919706 -0.00040601118 -0.08575756 0.05024197 0.11698868 0.04586042 -0.025259545
-0.09557709 0.029803686 0.0075840177 -0.004105065 -0.05657393 0.056993593 -0.04770342 -0.052551698
0.18146297 0.071061954 -0.09393793 0.064811796 -0.13131192 -0.089986965 -0.06941773 -0.043090116
-0.041966528 -0.059707765 -0.07346388 0.13540661 -0.09256867 -0.12124498 -0.08715401 -0.032447148
-0.07672144 -0.07403206 0.08960743 -0.07430758 0.0112875905 0.0589923 -0.116193675 -0.02971554
0.11881767 0.10643817 0.005821514 0.12147579 0.059900273 0.04458528 -0.07326803 0.09785222
-0.10809074 0.06578574 -0.067472756 -0.06505893 0.053047888 -0.09787551 0.050381687 -0.14202411
0.017123803 -0.06166689 -0.047039583 0.049336337 -0.04174586 0.0344345 -0.043119963 -0.044558283
-0.054733902 0.14672878 -0.119677536 -0.007660024 -0.09260377 -0.093288854 0.032640744 -0.018070577
-0.009015222 0.059490338 0.051505238 0.07757604 -0.056889266 -0.05755696 -0.053611692 0.07323878
-0.07446553 -0.0865018 -0.05621937 0.06077554 -0.04589852 -0.09345456 -0.06681793 0.038201764
-0.029442003 0.07479986 -0.01188796 0.015274708 -0.10153224 -0.04555818 0.03758 -0.11203082
-0.079212256 0.07420153 0.031346522 0.047543332 -0.020601667 0.028597848 0.0021912274 -0.098092556
0.036913965 0.04755943 -0.031431623 -0.07236637 -0.16661519 0.0098899035 0.06819807 -0.043358486
0.08350266 0.020494193 0.07970905 -0.0010734282 0.09588792 -0.07691641 -0.100798875 -0.09034203
00000000: 1df1 0d3d d0c2 a33d ab55 c2bc ecd0 553d
00000010: 885d 50bd a0b2 13be b434 663d 5e5c 18be
00000020: f7b4 52bd bf6b 473d 82cc 29be 47e7 edbd
00000030: e93b 893b 1c1f 0d3e f51d 02be c658 1b3c
00000040: 2dbb 49bc 94bf c1bc 97d2 f03b 55ec 37be
00000050: 9fee 98bd 604c 973d 006b 1dbc 001d af3d
00000060: c02a 0bbd 7d97 18bd f1f4 2abe c075 2ebb
00000070: 009c 37bd 7a47 773d 6c7e fd3d f7b0 42be
00000080: cca6 1fbe a07b 7e3d f8f4 ae3d 00ac 4e3d
00000090: f249 90bd 7de9 393d 70b3 21bc 34f6 923d
000000a0: 0a2f 6a3d 9d92 913d 012f f0bb bd0a e5bd
000000b0: 1e85 65be 3c50 0a3e cc5a fdbc 4f89 003e
000000c0: 79ee 1ebd dedc 0bbc f3c2 2fbd 703e 47bd
000000d0: faa8 cb3d 8e5a db3d e22a 0bbe a4d4 56be
000000e0: 8a07 3abb ca1b 4e3d 9dd8 3d3e 65ef f73b
000000f0: c480 02be 6ce2 5d3d f28b 17bc bfa7 06be
00000100: 37bf 87bd e756 0f3d c4af b6bd 52e5 16bd
00000110: bcee 49bd a198 5fbd 9af7 183d d02b f3bd
00000120: d9b8 283c f40b 65bc 4268 adbd c8ea 0e3e
00000130: a528 093e 3ff3 98bd a875 903d ddec b03d
00000140: c7b0 8b3d 5591 f7bc 3414 e93d 6ce0 08be
00000150: 6372 56bd 547e cbbc 6f9e 25ba fae6 3cbd
00000160: b554 35bd 0a0e 86bd cc27 edbd f92e 89bd
00000170: 5fe8 aa3b 0866 b23c 109c 16be d1d6 07bd
00000180: c802 95bc 1dd3 8ebc 20dd 09be 863c a23d
00000190: 1de0 c73d 9142 833d c99d ed39 3c65 a6bd
000001a0: b4ce 49bd 57b9 953d 7526 e63d 3ff7 833c
000001b0: 4d05 0fbe bd38 77bd 6739 fa3d 6aed 78bd
000001c0: 955f a93c 5a31 083e a5e0 00bd 33b7 e43d
000001d0: 4c6a fdbd b004 5cbc 9b83 abbd c28a 953c
000001e0: 1dca cfbd 6daa f63b 9116 5abd 0226 953d
000001f0: 5a91 bbbd 2770 b93a 9bfd 633d 4e16 0e3e
00000200: 1210 f03c d3a8 9f3c 7f55 1dbd dee0 493d
00000210: 2815 343d 8459 a6bc 580d 10be dd7f a2bd
00000220: 93a7 803c 1132 a2bd e6dd d4b9 a9a1 afbd
00000230: 86ca 4d3d c397 ef3d 23d8 3b3d 1bed cebc
00000240: ecbd c3bd dc26 f43c 5a83 f83b c883 86bb
00000250: 11ba 67bd 1d72 693d a964 43bd 7340 57bd
00000260: 6ed1 393e ee88 913d 8862 c0bd 0cbc 843d
00000270: a276 06be 164b b8bd e22a 8ebd 437f 30bd
00000280: 18e5 2bbd 2190 74bd 3b74 96bd 08a8 0a3e
00000290: a594 bdbd 4a4f f8bd cd7d b2bd 4de7 04bd
000002a0: 2120 9dbd 1f9e 97bd 1a84 b73d 932e 98bd
000002b0: 96ef 383c e9a1 713d f3f6 edbd 016e f3bc
000002c0: ae56 f33d 41fc d93d 66c2 be3b 4dc8 f83d
000002d0: fd59 753d 0e9f 363d 8d0d 96bd bf66 c83d
000002e0: ae5e ddbd adba 863d 282f 8abd 9e3d 85bd
000002f0: be48 593d f572 c8bd 075d 4e3d c56e 11be
00000300: 3847 8c3c 6c96 7cbd 94ac 40bd e614 4a3d
00000310: b5fd 2abd 310b 0d3d 8f9e 30bd bf82 36bd
00000320: a830 60bd 1240 163e 7f19 f5bd f000 fbbb
00000330: 0ca7 bdbd 3a0e bfbd 4db2 053d bf08 94bc
00000340: 95b4 13bc 24ac 733d 28f7 523d 30e0 9e3d
00000350: b804 69bd d9c0 6bbd ef97 5bbd 37fe 953d
00000360: 6281 98bd db27 b1bd 4846 66bd c6ef 783d
00000370: 1600 3cbd 1b65 bfbd d7d7 88bd 7479 1c3d
00000380: 5b30 f1bc ab30 993d b8c5 42bc c542 7a3c
00000390: 23f0 cfbd 379b 3abd 7ced 193d 6a70 e5bd
000003a0: 093a a2bd f9f6 973d 3665 003d ccbc 423d
000003b0: d4c4 a8bc 0946 ea3c b29a 0f3b c0e4 c8bd
000003c0: 1933 173d adcd 423d 72be 00bd d234 94bd
000003d0: 2c9d 2abe 4309 223c 6eab 8b3d ab98 31bd
000003e0: 7103 ab3d 70e3 a73c 803e a33d 46b2 8cba
000003f0: e360 c43d 5a86 9dbd a46f cebd 3e05 b9bd

lstm.weight_hh_l0 f4 [256, 64]
-0.044425506 -0.15398568 -0.07254281 -0.11344122 0.12476858 -0.038569722 -0.008383424 -0.1582453
0.04053158 -0.055569876 -0.03264595 -0.03325036 0.0748973 -0.08583237 -0.0768712 0.11218643
0.041293588 0.08347437 0.010597605 0.012519046 0.13850875 0.071309865 -0.0069737467 -0.050227854
-0.15673497 -0.098137155 0.1573638 0.09145527 -0.10634421 -0.15371263 -0.09669982 -0.114431135
-0.03446257 0.020229124 -0.15342647 -0.12137577 -0.0039194175 -0.060074735 -0.027201718 -0.023380563
-0.02670869 0.08990874 -0.047620285 -0.11590111 -0.12688756 -0.08451177 0.0068227407 -0.1339131
0.055500504 -0.03927395 0.09466119 -0.042743586 0.020406691 -0.10623969 -0.030162869 -0.08990406
0.037264515 0.0062671495 0.09682678 -0.058986086 0.121417105 -0.077949286 0.079842426 -0.071499296
-0.23357564 -0.013713043 0.05837956 -0.06132545 -0.14735489 0.10286923 -0.1272967 -0.08057163
0.14431575 -0.048317045 -0.017250637 0.20039944 -0.11572577 0.19485314 -0.17279196 0.086250104
0.08243061 0.02861668 -0.009778956 0.0388985 0.0051550944 0.023012012 -0.080849394 -0.020204406
0.05396438 0.082116425 -0.02394776 0.10173111 0.12125421 0.09591567 0.15500069 -0.117524214
-0.073444806 0.033923175 0.042268086 0.08916885 -0.07622298 0.053780843 0.051914625 -0.06504982
-0.08347997 -0.025289726 -0.016105525 -0.08034776 0.061845936 0.24448046 0.015592666 0.037663005
0.057489645 -0.0012211471 -0.14486395 -0.19897711 -0.05589602 -0.0677384 -0.055828396 -0.02764165
0.009502018 -0.014771201 -0.089305274 0.04867413 0.016235983 0.09501522 0.12128634 0.17400132
-0.16763307 0.10751903 -0.07397403 -0.13137175 -0.06217301 -0.009557948 -0.10859016 -0.04161837
0.07134666 0.029099299 0.12748274 0.09448666 -0.109249435 0.11235685 -0.054178387 -0.12952417
0.0459416 -0.0047036447 -0.0128382575 -0.051982846 -0.12642118 -0.13451047 0.08581722 -0.09560898
-0.13718201 0.15639794 0.0675746 0.03799549 0.059217457 0.006241752 -0.07463862 -0.098428234
0.006332871 -0.055930823 -0.07155032 0.025277177 -0.045569852 -0.14542623 -0.0912728 -0.06278952
0.040323485 0.12799896 0.014202448 0.046259977 0.008104307 -0.06767576 0.03225747 0.040560104
-0.008264302 -0.039549418 0.09251342 0.027775388 -0.120823815 0.039720066 0.021939592 0.09915535
-0.0016441612 -0.07808124 -0.07247329 -0.066867396 -0.015959822 0.040443495 -0.059617832 0.13212009
-0.005839644 0.02861924 -0.024608858 -0.119996645 -0.06825527 -0.00012513259 -0.11547027 0.017154673
0.019467564 -0.059572283 -0.029918093 -0.0584967 0.080204114 -0.079305634 -0.029870626 0.056362543
-0.048646986 0.1334446 -0.045907587 0.115863845 0.04205951 0.07003543 0.15093368 -0.11615856
0.11567817 -0.14951281 0.0026472847 -0.036831103 0.1428231 -0.11545486 0.15116636 0.15463486
-0.11799211 0.14043973 -0.0059840754 -0.088765755 -0.08335905 0.092903376 0.05373422 0.032597464
-0.036495797 -0.058954608 0.038040083 -0.08904624 0.07820938 0.052526176 0.040103037 0.09264764
-0.062268313 0.016821513 -0.010014699 0.08205657 -0.0107151335 -0.10084823 -0.044128437 -0.019227058
-0.06909074 -0.10542191 0.12399239 0.0604398 0.12045771 0.15640984 -0.0037173796 0.12305124
00000000: 85f7 35bd 6cae 1dbe 5391 94bd df53 e8bd
00000010: ab86 ff3d 49fb 1dbd a15a 09bc 0e0b 22be
00000020: 7104 263d 3d9d 63bd c2b7 05bd 8831 08bd
00000030: c163 993d e2c8 afbd a66e 9dbd 00c2 e53d
00000040: 7723 293d 9cf4 aa3d 94a1 2d3c af1c 4d3c
00000050: 3dd5 0d3e e80a 923d 0784 e4bb b9bb 4dbd
00000060: 227f 20be 22fc c8bd fa23 213e e74c bb3d
00000070: feca d9bd d866 1dbe 8e0a c6bd df5a eabd
00000080: a028 0dbd 8cb7 a53c d41b 1dbe dc93 f8bd
00000090: 756e 80bb ed10 76bd 23d6 debc 9888 bfbc
000000a0: 2fcc dabc 1322 b83d 7d0d 43bd 905d edbd
000000b0: d0ee 01be 8214 adbd 4c91 df3b 8420 09be
000000c0: 7f54 633d b9dd 20bd badd c13d e613 2fbd
000000d0: ef2b a73c 3294 d9bd 1f18 f7bc 9f1f b8bd
000000e0: ada2 183d a95c cd3b 1e4d c63d 659b 71bd
000000f0: 88a9 f83d e0a3 9fbd 6d84 a33d 396e 92bd
00000100: 742e 6fbe acac 60bc 681f 6f3d 6530 7bbd
00000110: 33e4 16be 1aad d23d 115a 02be bd02 a5bd
00000120: 82c7 133e 18e8 45bd 3551 8dbc 8335 4d3e
00000130: a201 edbd 9587 473e 60f0 30be e5a3 b03d
00000140: 61d1 a83d 876d ea3c ea37 20bc 0954 1f3d
00000150: 11ec a83b b083 bc3c 5e94 a5bd b683 a5bc
00000160: c109 5d3d a82c a83d 182e c4bc 6658 d03d
00000170: 2154 f83d 6f6f c43d 80b8 1e3e 89b0 f0bd
00000180: 3b6a 96bd 07f3 0a3d 4d21 2d3d 289e b63d
00000190: cb1a 9cbd 4d49 5c3d 6ea4 543d d738 85bd
000001a0: 8cf7 aabd 662c cfbc bcef 83bc 5e8d a4bd
000001b0: 2a52 7d3d 1659 7a3e 6278 7f3c 8644 1a3d
000001c0: 437a 6b3d e60e a0ba 3757 14be a8c0 4bbe
000001d0: 3af3 64bd 6eba 8abd 51ac 64bd be70 e2bc
000001e0: 5aae 1b3c e802 72bc afe5 b6bd 865e 473d
000001f0: 5301 853c 5797 c23d f964 f83d 672d 323e
00000200: 01a8 2bbe f032 dc3d b27f 97bd 5186 06be
00000210: 20a9 7ebd f198 1cbc 8564 debd 0678 2abd
00000220: 331e 923d a761 ee3c d68a 023e 3982 c13d
00000230: 2bbe dfbd 591b e63d 28ea 5dbd fca1 04be
00000240: 422d 3c3d 0821 9abb 8e57 52bc f7eb 54bd
00000250: 8e74 01be 1dbd 09be f0c0 af3d a4ce c3bd
00000260: 7179 0cbe c826 203e 8d64 8a3d 29a1 1b3d
00000270: 018e 723d 9c87 cc3b 22dc 98bd be94 c9bd
00000280: f983 cf3b b817 65bd f988 92bd 1512 cf3c
00000290: 74a7 3abd 9dea 14be 3ced babd cb97 80bd
000002a0: 3d2a 253d 2912 033e 62b1 683c 1a7b 3d3d
000002b0: edc7 043c 9799 8abd 6920 043d 5a22 263d
000002c0: ff66 07bc 92fe 21bd ad77 bd3d 3689 e33c
000002d0: 7a72 f7bd 82b1 223d a9ba b33c f611 cb3d
000002e0: e580 d7ba 0fe9 9fbd e06c 94bd c6f1 88bd
000002f0: 2cbe 82bc 14a8 253d d431 74bd 7d4a 073e
00000300: 7c5a bfbb e572 ea3c 8498 c9bc cdc0 f5bd
00000310: 6bc9 8bbd 0636 03b9 ad7b ecbd f587 8c3c
00000320: 717a 9f3c 1102 74bd ca16 f5bc 3c9a 6fbd
00000330: 0e42 a43d fe6a a2bd 3eb3 f4bc 69dc 663d
00000340: 1042 47bd b4a5 083e 9809 3cbd 064a ed3d
00000350: 9846 2c3d bc6e 8f3d 5c8e 1a3e 8ae4 edbd
00000360: ade8 ec3d e319 19be 117e 2d3b 36dc 16bd
00000370: 3840 123e 9973 ecbd 5bcb 1a3e 9a58 1e3e
00000380: d9a5 f1bd 6fcf 0f3e 1016 c4bb d2ca b5bd
00000390: 26b8 aabd 2044 be3d 6a18 5c3d eb84 053d
000003a0: 9e7c 15bd 637a 71bd ebcf 1b3d e05d b6bd
000003b0: 3d2c a03d b025 573d 1543 243d 0cbe bd3d
000003c0: 0f0d 7fbd 45cd 893c b114 24bc 460d a83d
000003d0: 878e 2fbc 8489 cebd 05c0 34bd 1082 9dbc
000003e0: 727f 8dbd 71e7 d7bd b9ef fd3d b98f 773d
000003f0: 88b2 f63d e729 203e 489f 73bb 4a02 fc3d

lstm.bias_ih_l0 f4 [256]
0.1327869 -0.026712595 -0.1533046 0.03747745 0.022128297 -0.09068777 0.14817245 0.042228077
-0.105430394 0.07429996 0.118024014 -0.00076866755 -0.019787783 0.031986043 0.090108775 0.045321375
0.058364026 0.062123206 -0.09053336 0.099902146 0.0153821185 0.037119377 0.0013562558 -0.03724916
-0.06817025 0.09434765 -0.012856025 -0.01836383 0.10133409 0.16351216 0.0660464 0.021647422
-0.022163512 -0.06255571 0.13126189 -0.065847985 -0.054776844 0.06138201 0.11453378 0.046218503
0.012511811 -0.086488836 -0.08381932 -0.085228145 0.083928175 0.054484684 0.037195686 0.00801069
0.12639889 -0.086349286 -0.009788466 -0.006361559 0.0096381 -0.058265604 0.057982516 -0.03853341
-0.08081916 -0.036506556 0.11158715 -0.05536663 0.12431531 -0.10899687 0.056229334 0.02896724
0.015347083 -0.05781327 -0.07402167 0.02271224 -0.004948301 -0.04140041 -0.053393517 0.07223425
0.08539772 -0.09094363 0.07406225 -0.07296027 -0.07635943 0.13833037 0.059291385 0.10028892
-0.06603762 -0.0001479722 0.027986249 0.13539049 0.02100967 0.16731231 0.14994906 0.018726928
-0.05693196 -0.07727575 0.08473201 -0.0093748085 0.08384937 0.18349911 0.043054327 -0.12560406
-0.08195049 0.10076776 0.031445663 -0.063976005 -0.15205681 0.13171065 -0.025500959 0.032587063
0.01499264 0.0019121909 -0.021115048 -0.007383711 0.12540138 -0.013108382 0.047213733 0.068560794
-0.08672783 -0.04797887 -0.033741567 0.09525859 -0.13277046 0.14825332 -0.020376548 -0.16637598
0.0012054284 -0.16803901 -0.0035061585 -0.09057307 -0.11623748 0.10746087 -0.012449661 -0.018121466
0.06573626 0.009460217 -0.028428249 0.13034602 -0.073640235 -0.10966402 0.05074796 -0.113717906
0.09835583 0.052057423 -0.07117535 0.017700138 0.09758659 -0.12658139 0.1352573 0.09651925
0.06308616 0.01836677 0.009337419 -0.051728476 0.11702918 0.025526889 -0.03772631 -0.10960666
-0.014553091 -0.04263653 0.11847685 0.05293851 -0.122296534 0.030995239 -0.12906805 0.11712023
-0.05625038 0.05687656 -0.04418124 -0.12969142 -0.12883367 0.09671687 0.027096681 0.11144622
0.095552795 -0.029075809 0.03499071 0.016414199 0.03428833 -0.022423817 -0.013012091 -0.054971386
0.08320434 -0.036564 -0.042209372 0.015165251 -0.0059286216 -0.094577625 0.019937754 -0.104882635
0.017974867 0.07437538 -0.08480544 -0.03055334 0.025991328 0.021036621 0.08412228 0.111711375
0.12758197 0.08031751 -0.13030255 -0.062345974 -0.113389954 -0.109120786 0.13573809 -0.06672705
0.13126422 0.06790216 -0.032686032 -0.07917822 -0.015026573 0.046048142 0.025686488 -0.03262248
-0.030753259 -0.026564753 0.049715705 0.007846064 -0.06964293 -0.028389456 0.03670443 0.09038448
0.04934541 -0.08432296 -0.024918871 -0.06578855 0.013186917 0.032190293 0.07586067 0.09151749
0.013658446 0.08152909 0.14668523 0.094121024 -0.100452706 0.07430728 -0.015370489 -0.0672946
0.14048845 -0.058632176 0.08490749 -0.011401287 -0.082640156 0.14054407 0.17147689 -0.014744412
0.048046634 -0.12296855 -0.00048255018 -0.032530073 0.005561499 -0.07504587 -0.03195649 -0.013258975
-0.02310044 -0.095372066 -0.0838025 0.13314095 0.039058216 -0.009156299 0.12894487 0.1180065
00000000: 4af9 073e 5fd4 dabc e2fb 1cbe f481 193d
00000010: 6746 b53c 82ba b9bd 85ba 173e 59f7 2c3d
00000020: e4eb d7bd 942a 983d 93b6 f13d 6880 49ba
00000030: fd19 a2bc cc03 033d f38a b83d e8a2 393d
00000040: 1e0f 6f3d e774 7e3d 8e69 b9bd 7f99 cc3d
00000050: 4805 7c3c 7d0a 183d 65c4 b13a 9392 18bd
00000060: d89c 8bbd 5739 c13d 14a2 52bc be6f 96bc
00000070: 3f88 cf3d bb6f 273e 5643 873d ef55 b13c
00000080: 4190 b5bc 351d 80bd 8469 063e 4fdb 86bd
00000090: af5d 60bd b46b 7b3d b090 ea3d 9d4f 3d3d
000000a0: 57fe 4c3c 0f21 b1bd 77a9 abbd 188c aebd
000000b0: 89e2 ab3d 552b 5f3d 815a 183d 453f 033c
000000c0: b66e 013e e5d7 b0bd cd5f 20bc a074 d0bb
000000d0: 1fe9 1d3c eaa7 6ebd 137f 6d3d 35d5 1dbd
000000e0: 8484 a5bd e687 15bd ce87 e43d 1fc8 62bd
000000f0: 0699 fe3d c039 dfbd bb50 663d b54c ed3c
00000100: 5572 7b3c 9bcd 6cbd ac98 97bd 050f ba3c
00000110: 5b25 a2bb 7a93 29bd 29b3 5abd 8def 933d
00000120: 00e5 ae3d a740 babd f3ad 973d 326c 95bd
00000130: 5562 9cbd 7aa6 0d3e 86db 723d 4764 cd3d
00000140: bb3e 87bd fc28 1bb9 6b43 e53c cea3 0a3e
00000150: 791c ac3c eb53 2b3e 3f8c 193e 3769 993c
00000160: 7d31 69bd c042 9ebd fa87 ad3d cc98 19bc
00000170: 38b9 ab3d 31e7 3b3e bc59 303d 5a9e 00be
00000180: a9d5 a7bd 545f ce3d 2bcd 003d da05 83bd
00000190: c8b4 1bbe 28df 063e 63e7 d0bc 037a 053d
000001a0: b1a3 753c 7ba2 fa3a 77f9 acbc 0ff3 f1bb
000001b0: 3869 003e 8ac4 56bc 3063 413d 9a69 8c3d
000001c0: 5c9e b1bd 7e85 44bd 9934 0abd f016 c33d
000001d0: fbf4 07be b8cf 173e b8ec a6bc 775e 2abe
000001e0: 77ff 9d3a 6b12 2cbe 94c7 65bb 607e b9bd
000001f0: ea0d eebd 7214 dc3d aaf9 4bbc 7873 94bc
00000200: bba0 863d 07ff 1a3c 5ce2 e8bc 6d79 053e
00000210: b1d0 96bd 8897 e0bd 18dd 4f3d efe4 e8bd
00000220: c86e c93d 2a3a 553d 62c4 91bd e1ff 903c
00000230: 7adb c73d 8d9e 01be e480 0a3e e2ab c53d
00000240: 5133 813d e975 963c f9fb 183c 3de1 53bd
00000250: ffac ef3d c41d d13c e786 1abd 7579 e0bd
00000260: 1670 6ebc a4a3 2ebd fea3 f23d 0dd6 583d
00000270: 9b76 fabd bae9 fd3c 6a2a 04be bbdc ef3d
00000280: cc66 66bd 65f7 683d 63f7 34bd d4cd 04be
00000290: f9ec 03be 7f13 c63d dcf9 dd3c ea3d e43d
000002a0: 2fb1 c33d 6430 eebc 6b52 0f3d 1277 863c
000002b0: eb71 0c3d 27b2 b7bc aa30 55bc ad29 61bd
000002c0: 0967 aa3d 22c4 15bd bce3 2cbd ac77 783c
000002d0: e244 c2bb eab1 c1bd 8054 a33c b5cc d6bd
000002e0: 0740 933c 1f52 983d 79ae adbd 004b fabc
000002f0: c4eb d43c fe54 ac3c 4d48 ac3d efc8 e43d
00000300: d9a4 023e 827d a43d 086e 05be 7e5e 7fbd
00000310: fe38 e8bd b87a dfbd edfe 0a3e 31a8 88bd
00000320: 216a 063e 4a10 8b3d cae1 05bd 3128 a2bd
00000330: 0432 76bc fa9c 3c3d 786c d23c 269f 05bd
00000340: 42ee fbbc 539e d9bc b2a2 4b3d c78c 003c
00000350: f4a0 8ebd 0191 e8bc 6257 163d 801b b93d
00000360: 6a1e 4a3d 84b1 acbd a922 ccbc 26bc 86bd
00000370: f00d 583c f8d9 033d d75c 9b3d 866d bb3d
00000380: adc7 5f3c b9f8 a63d a734 163e 86c2 c03d
00000390: 26ba cdbd 6a2e 983d 81d4 7bbc c0d1 89bd
000003a0: 34dc 0f3e 4b28 70bd fae3 ad3d 77cc 3abc
000003b0: 3e3f a9bd c9ea 0f3e a397 2f3e 8c92 71bc
000003c0: 8ccc 443d efd6 fbbd cafe fcb9 413e 05bd
000003d0: 3c3d b63b a6b1 99bd cfe4 02bd 2c3c 59bc
000003e0: 223d bdbc 6e52 c3bd a5a0 abbd 1a56 083e
000003f0: 82fb 1f3d 4d04 16bc 200a 043e 64ad f13d

lstm.bias_hh_l0 f4 [256]
0.09938231 0.043889146 0.018607888 -0.011986412 -0.061308682 -0.13432045 -0.011844938 0.045244705
0.00092845265 0.03673609 0.01651516 -0.04478052 -0.0029427973 -0.068036124 0.08304402 -0.04398239
0.03208678 -0.0757361 0.11715135 0.08830781 0.009344277 0.015674088 -0.0919806 -0.016822468
-0.08128294 -0.0649874 -0.10112895 -0.08814147 -0.0003728542 0.032427143 -0.0073493435 -0.119723156
-0.119328335 0.009534504 0.12925953 -0.07210721 -0.010150643 -0.12719275 -0.035217125 0.06112235
0.018584145 0.11137077 0.023920981 -0.03106788 -0.0023343256 -0.0047556134 -0.10535996 0.041099522
-0.027786499 0.07707453 0.09992855 0.034136184 0.06589112 -0.03740668 -0.08942768 -0.008004017
0.0070871487 0.0153911505 0.025273455 0.075492375 0.11500656 -0.11168039 0.11319975 0.06380053
0.012752421 -0.09693666 0.055322096 -0.018322825 -0.0312605 0.13260435 0.016919196 -0.07745023
0.101748265 -0.13916695 0.117088266 0.09807079 0.05477147 -0.0638175 0.16950214 0.111152306
-0.056148022 0.034798205 -0.054894235 -0.09015836 -0.15608615 0.03216904 0.110268526 -0.06818666
-0.10055834 0.09250467 0.001286654 -0.12195938 0.01039014 -0.02884259 0.14670435 -0.06675186
0.029174697 -0.0037951826 0.08248111 0.08389118 -0.13791572 -0.10486134 -0.029637702 -0.0076335184
-0.07596443 -0.024946488 0.06947437 0.049248803 0.12424983 -0.08841908 -0.014408046 -0.04130856
-0.037332993 0.018602459 0.12802769 0.12061449 0.08259853 0.124548644 -0.049057357 -0.0022609495
0.08555362 0.0074491785 0.025010765 0.13093188 0.06325817 0.11479543 0.0904248 0.09696694
-0.047582004 0.032002762 0.16609731 0.13309278 0.068128936 0.015267996 0.011478719 -0.058985174
-0.053507194 -0.06681457 0.012136893 0.09339471 -0.08059394 0.07435973 0.024306709 -0.07558558
0.03606745 0.15601255 -0.08379545 -0.087261595 -0.058077004 0.104906015 0.06318899 -0.10560861
-0.07726504 -0.09835828 -0.05785525 -0.08989467 -0.07802875 -0.035563212 -0.015082518 -0.02821564
-0.08560869 -0.062343534 -0.012026567 0.041966543 -0.122128695 0.094852 0.095295034 0.019028591
-0.0014350491 0.0018771745 -0.12985836 -0.05773979 -0.11980217 -0.11366738 -0.06378082 0.025700366
0.04235783 0.09311474 0.08731857 0.10086712 0.07796638 -0.04886878 -0.052263618 0.049965817
0.091833904 0.06620283 -0.06998926 -0.14876465 -0.10295704 0.12149617 -0.037254162 0.10436094
0.022621905 0.03654234 -0.06219102 0.02186997 -0.0057777334 -0.09122622 0.0251061 -0.043587964
-0.09273348 -0.12512545 0.12581702 -0.0631535 0.10987979 0.011939409 0.18901904 0.005708896
0.06591516 0.15743487 0.016304236 -0.10708583 0.03258295 0.15424587 -0.056014203 0.11325308
0.13313101 -0.02916716 0.106106505 -0.10863958 0.03620089 0.1395032 0.02445114 -0.069202684
0.019425724 0.15268156 -0.023052162 0.0911853 0.103049226 0.009082026 0.039004397 -0.003841003
-0.054230098 -0.046488576 0.073503844 0.04608654 0.058142237 0.10997768 0.06217857 0.006457857
0.00527402 -0.099216014 -0.010323499 0.13036413 0.11506887 0.12679753 -0.2093856 -0.09647325
-0.06828787 0.0033737742 -0.043220136 0.15096296 0.09886372 -0.12255156 0.029362263 -0.03816322
00000000: f488 cb3d 1bc5 333d 926f 983c a862 44bc
00000010: d01e 7bbd 4d8b 09be 4511 42bc 8352 393d
00000020: 6763 733a 9578 163d cd4a 873c c76b 37bd
00000030: f2db 40bb 8656 8bbd fc12 aa3d e126 34bd
00000040: 6d6d 033d 871b 9bbd 0ced ef3d bada b43d
00000050: bd18 193c f266 803c 5360 bcbd 46cf 89bc
00000060: ac77 a6bd 1d18 85bd b21c cfbd 8483 b4bd
00000070: a57b c3b9 53d2 043d c3d2 f0bb 6a31 f5bd
00000080: 6a62 f4bd 9c36 1c3c 9c5c 043e f2ac 93bd
00000090: e24e 26bc d13e 02be d53f 10bd 6e5b 7a3d
000000a0: c73d 983c 5c16 e43d eff5 c33c 1182 febc
000000b0: 7cfb 18bb fad4 9bbb f6c6 d7bd f957 283d
000000c0: 83a0 e3bc 40d9 9d3d 57a7 cc3d 62d2 0b3d
000000d0: ecf1 863d bf37 19bd dc25 b7bd 4823 03bc
000000e0: 503b e83b 2a2b 7c3c 470a cf3c bf9b 9a3d
000000f0: 8f88 eb3d b0b8 e4bd 45d5 e73d daa9 823d
00000100: 88ef 503c ba86 c6bd 6c99 623d c019 96bc
00000110: 030b 00bd 6fc9 073e 209a 8a3c 3a9e 9ebd
00000120: 6561 d03d c881 0ebe f9cb ef3d 57d9 c83d
00000130: 0d58 603d c0b2 82bd f891 2d3e d2a3 e33d
00000140: 78fb 65bd 9088 0e3d c7d8 60bd f2a4 b8bd
00000150: 0cd5 1fbe afc3 033d 77d4 e13d 73a5 8bbd
00000160: 88f1 cdbd 1773 bd3d f2a4 a83a d7c5 f9bd
00000170: 683b 2a3c 4c47 ecbc aa39 163e 33b5 88bd
00000180: c6ff ee3c 99b8 78bb dbeb a83d 24cf ab3d
00000190: c739 0dbe 8bc1 d6bd c4ca f2bc 9822 fabb
000001a0: 3d93 9bbd 945c ccbc 9448 8e3d 1db9 493d
000001b0: b276 fe3d 1015 b5bd ba0f 6cbc 2a33 29bd
000001c0: 7bea 18bd 2f64 983c b119 033e bb04 f73d
000001d0: 6b29 a93d 5c13 ff3d 5ef0 48bd 702c 14bb
000001e0: bc36 af3d 3d18 f43b 60e3 cc3c 0213 063e
000001f0: 808d 813d de19 eb3d a330 b93d 9a96 c63d
00000200: 59e5 42bd 5415 033d 6a15 2a3e 7949 083e
00000210: 2f87 8b3d 9e26 7a3c 3d11 3c3c 709a 71bd
00000220: 5c2a 5bbd 14d6 88bd d2d9 463c ba45 bf3d
00000230: 700e a5bd ea49 983d dd1e c73c 9dcc 9abd
00000240: 76bb 133d c1c1 1f3e f39c abbd 35b6 b2bd
00000250: 27e2 6dbd f7d8 d63d 3b69 813d 5449 d8bd
00000260: 223d 9ebd 1170 c9bd a0f9 6cbd b21a b8bd
00000270: 8acd 9fbd bbaa 11bd aa1c 77bc 7c24 e7bc
00000280: 9c53 afbd ef5b 7fbd 140b 45bc 1ce5 2b3d
00000290: 9c1e fabd c441 c23d 0b2a c33d d9e1 9b3c
000002a0: 4218 bcba 860b f63a 97f9 04be 8f80 6cbd
000002b0: d75a f5bd 71ca e8bd 859f 82bd 9389 d23c
000002c0: 677f 2d3d f1b2 be3d 14d4 b23d 6c93 ce3d
000002d0: d6ac 9f3d a12a 48bd 6012 56bd f5a8 4c3d
000002e0: 6a13 bc3d 5995 873d 8756 8fbd c355 18be
000002f0: 24db d2bd fcd2 f83d d297 18bd 30bb d53d
00000300: 9351 b93c 6cad 153d 03bc 7ebd a728 b33c
00000310: 2453 bdbb d0d4 babd 4fab cd3c 4b89 32bd
00000320: 0deb bdbd e320 00be 2dd6 003e 9f56 81bd
00000330: a808 e13d 839d 433c 358e 413e b111 bb3b
00000340: 87fe 863d 9b36 213e 7690 853c d14f dbbd
00000350: b375 053d a1f2 1d3e 266f 65bd 3bf1 e73d
00000360: 7f53 083e f8ef eebc 5e4e d93d 6e7e debd
00000370: 6247 143d edd9 0e3e c24d c83c 23ba 8dbd
00000380: b222 9f3c 8e58 1c3e e3d7 bcbc 5cbf ba3d
00000390: 790b d33d c7cc 143c 13c3 1f3d 56b9 7bbb
000003a0: 6120 5ebd ce6a 3ebd 2f89 963d 3dc5 3c3d
000003b0: 8e26 6e3d fa3b e13d f5ae 7e3d 6e9c d33b
000003c0: b0d1 ac3b c431 cbbd e523 29bc 2d7e 053e
000003d0: 3aa9 eb3d 36d7 013e 2e69 56be c493 c5bd
000003e0: 83da 8bbd 8a1a 5d3b 9907 31bd 0996 1a3e
000003f0: 1079 ca3d 50fc fabd 2189 f03c 0951 1cbd

lstm.weight_ih_l1 f4 [256, 64]
-0.002329163 -0.026114993 0.036999773 -0.02755406 0.14925611 0.05856203 0.01785845 0.017107805
-0.13846236 -0.04754262 0.03193945 -0.02839799 -0.055283215 -0.1499747 0.0138638 0.175171
0.16493925 -0.022408534 -0.021765668 0.0074115163 -0.12323231 0.100328036 -0.07730907 0.15776816
0.038869854 -0.06405925 -0.034611408 0.17052521 0.11253444 0.12451028 0.17519087 -0.06063543
-0.11306 -0.077627 0.083878025 0.10561888 -0.10815631 0.07106297 -0.12847683 0.076216735
0.047060028 0.15067954 -0.008815293 0.06474826 -0.010216032 -0.23718517 0.043456804 -0.000100977755
0.06425695 -0.08900547 0.040446322 -0.109955125 0.124264 0.08436639 -0.13888912 -0.039125867
-0.04759052 0.018839912 0.059885617 -0.00331847 0.22196512 -0.1474333 0.12735313 -0.017892623
0.16163324 -0.08153886 -0.03786485 0.06441041 -0.03264618 0.00085773045 -0.06644197 -0.06396945
-0.08435373 0.019845393 0.06388434 0.108646266 0.14242347 -0.050716735 0.0011753009 0.029225288
-0.17147347 -0.063424304 -0.026663594 0.08248293 -0.02299941 0.115067594 -0.008511564 0.065799944
0.066150494 -0.12703262 0.009827967 0.11187557 0.008841223 -0.046854977 0.0448896 0.026520329
0.02314931 -0.024587687 -0.06955607 0.015353229 -0.13660717 0.08102764 -0.07450268 -0.18196473
0.08794267 -0.049640074 0.116337396 0.09247633 -0.04474354 -0.032924972 -0.04593536 0.042802516
-0.11559333 -0.120672144 -0.0673323 -0.06072273 0.07158161 -0.06956276 -0.13353126 -0.05466398
-0.024244886 0.0032295191 0.005502388 -0.122003414 -0.039400034 -0.12884587 -0.034432583 -0.21614583
0.06285393 -0.08806112 0.012383154 0.07176036 0.00095424766 -0.08155875 0.22346534 0.09068386
0.13077858 0.03616508 -0.110837504 0.055629537 0.10496574 -0.088440575 -0.0487443 0.10240111
-0.0405717 0.10856486 -0.016801717 -0.044935584 0.14947265 -0.014583143 -0.04143861 0.11653523
-0.11373196 -0.15082787 -0.10498549 -0.08616364 0.02888382 -0.10115992 0.028209165 -0.034500133
-0.06620428 0.092694074 -0.096383266 -0.12892264 0.024178326 0.13370407 -0.053252194 -0.14744878
0.029689819 -0.10648073 0.03488665 -0.09615889 0.048686016 0.0074485024 -0.038557436 0.10885224
-0.15221858 -0.15846841 0.091860205 -0.10346272 0.020599633 -0.06589212 0.027838591 -0.097157605
-0.14987834 0.041229088 -0.024130508 0.14324002 0.06187543 0.012641048 -0.047480695 0.018276287
0.13134705 0.13874759 -0.030705603 -0.07983912 0.044920474 -0.14972584 0.06016549 0.03490459
-0.0058744582 -0.12528022 -0.04921612 -0.0684541 0.012747266 0.053330008 -0.03524416 0.047599602
0.15115543 0.14646253 -0.07531267 0.15561843 0.10436203 0.07311455 0.043129172 -0.04430833
0.106685586 0.052236814 0.05242031 -0.033689227 0.17454416 -0.1283999 -0.08857691 -0.1164623
-0.11258064 -0.034029532 -0.15392669 0.1136622 0.09658113 -0.03770829 -0.054871857 0.024402313
0.08803091 0.018334514 -0.18380359 0.00089742534 0.12153328 0.026325984 0.16452484 0.14993095
0.011833439 -0.021373827 0.028824374 -0.00812455 -0.119164966 0.01030003 -0.12697713 0.03307735
0.00736377 0.017227117 0.21396118 0.017291678 -0.02731522 0.0051307045 0.16061363 0.002005143
00000000: dfa4 18bb 1cef d5bc 138d 173d 0db9 e1bc
00000010: 98d6 183e bdde 6f3d e24b 923c ab25 8c3c
00000020: 14c9 0dbe 0dbc 42bd f1d2 023d e7a2 e8bc
00000030: a770 62bd f892 19be fe24 633c 0760 333e
00000040: d6e5 283e 1a92 b7bc ea4d b2bc 4edc f23b
00000050: 3961 fcbd c978 cd3d 3854 9ebd fa8d 213e
00000060: ff35 1f3d 7f31 83bd b1c4 0dbd 299e 2e3e
00000070: 7578 e63d 3fff fe3d 3c65 333e db5c 78bd
00000080: 008c e7bd e8fa 9ebd 3ec8 ab3d b64e d83d
00000090: 0e81 ddbd 7689 913d 6e8f 03be 8517 9c3d
000000a0: 04c2 403d bd4b 1a3e 056e 10bc bc9a 843d
000000b0: 2561 27bc abe0 72be c3ff 313d 05c4 d3b8
000000c0: 2699 833d 8048 b6bd 0bab 253d 2730 e1bd
000000d0: 207e fe3d 49c8 ac3d f338 0ebe 7242 20bd
000000e0: 47ee 42bd 2956 9a3c 9f4a 753d b07a 59bb
000000f0: d34a 633e c1f8 16be dc68 023e 8d93 92bc
00000100: 2f83 253e d9fd a6bd 2c18 1bbd 9be9 833d
00000110: 00b8 05bd 51d9 603a ba12 88bd 6a02 83bd
00000120: a6c1 acbd ce92 a23c cbd5 823d ef81 de3d
00000130: 75d7 113e 5abc 4fbd 8e0c 9a3a df69 ef3c
00000140: be96 2fbe 9ae4 81bd 9c6d dabc cfec a83d
00000150: 4269 bcbc 8fa8 eb3d 1674 0bbc 1fc2 863d
00000160: e979 873d d714 02be 7b05 213c 051f e53d
00000170: c7da 103c 01eb 3fbd 28de 373d 2941 d93c
00000180: 9fa3 bd3c 1e6c c9bc 6a73 8ebd 1c8c 7b3c
00000190: c0e2 0bbe d2f1 a53d dc94 98bd f654 3abe
000001a0: 491b b43d 6453 4bbd 4d42 ee3d 3b64 bd3d
000001b0: 0145 37bd 56dc 06bd b726 3cbd b151 2f3d
000001c0: 32bc ecbd f522 f7bd 84e5 89bd 66b8 78bd
000001d0: 6199 923d ec76 8ebd 6bbc 08be 56e7 5fbd
000001e0: 369d c6bc 57a6 533b 604d b43b eddc f9bd
000001f0: ee61 21bd 2cf0 03be 2e09 0dbd 5555 5dbe
00000200: 90b9 803d 6359 b4bd b6e2 4a3c 18f7 923d
00000210: 7a26 7a3a 4608 a7bd 19d4 643e 76b8 b93d
00000220: d2ea 053e d621 143d c6fe e2bd ccdb 633d
00000230: 47f8 d63d 5520 b5bd 1aa8 47bd acb7 d13d
00000240: 832e 26bd 4157 de3d c1a3 89bc 600e 38bd
00000250: 5c0f 193e 23ee 6ebc 88bb 29bd 06aa ee3d
00000260: 4dec e8bd 9f72 1abe a202 d7bd 9076 b0bd
00000270: c39d ec3c ef2c cfbd e816 e73c 0350 0dbd
00000280: 1c96 87bd 64d6 bd3d 9764 c5bd 4c04 04be
00000290: a011 c63c b8e9 083e f91e 5abd d0fc 16be
000002a0: 1038 f33c 9212 dabd 4ee5 0e3d f4ee c4bd
000002b0: fd6a 473d 9112 f43b 67ee 1dbd eced de3d
000002c0: 30df 1bbe 8b45 22be 3421 bc3d 43e4 d3bd
000002d0: 90c0 a83c 73f2 86bd c20d e43c 91fa c6bd
000002e0: b579 19be d5df 283d 58ad c5bc 83ad 123e
000002f0: 1771 7d3d 661c 4f3c 1e7b 42bd 27b8 953c
00000300: d77f 063e d913 0e3e 518a fbbc b182 a3bd
00000310: 88fe 373d bb51 19be 1770 763d 1ef8 0e3d
00000320: 877e c0bb 7549 00be d896 49bd aa31 8cbd
00000330: e9d9 503c 9170 5a3d 2e5c 10bd cdf7 423d
00000340: 7dc8 1a3e 46fa 153e 873d 9abd 705a 1f3e
00000350: c3bb d53d 15bd 953d 37a8 303d a77c 35bd
00000360: f97d da3d 45f6 553d aeb6 563d b7fd 09bd
00000370: b4bb 323e 437b 03be d067 b5bd c983 eebd
00000380: ae90 e6bd 8d62 0bbd f59e 1dbe bac7 e83d
00000390: 54cc c53d 0274 1abd 50c1 60bd 5ce7 c73c
000003a0: 8d49 b43d 4332 963c 0237 3cbe 3241 6b3a
000003b0: 71e6 f83d 97a9 d73c 3379 283e 8087 193e
000003c0: 0ae1 413c 2a18 afbc 1821 ec3c d51c 05bc
000003d0: c30c f4bd 75c1 283c 4b06 02be 1e7c 073d
000003e0: c84b f13b e21f 8d3c a418 5b3e 47a7 8d3c
000003f0: 2bc4 dfbc 781f a83b e677 243e b868 033b

lstm.weight_hh_l1 f4 [256, 64]
-0.03467218 -0.044524066 0.04967228 0.082498245 -0.061449464 -0.053809308 -0.038376946 0.17508195
0.16853717 0.031318482 -0.074915804 0.13519073 0.14321214 0.0012184096 0.033161756 -0.07841327
0.011793571 0.10675382 -0.110263094 -0.09697358 0.047808602 0.0533184 -0.014825276 -0.00023657149
-0.03537201 0.03265406 -0.08984179 -0.0092693735 -0.040752955 0.049811665 -0.03572025 -0.009003606
0.082626045 0.044960756 -0.12347748 -0.12648793 -0.14299335 0.09573274 0.07648937 0.046478387
0.14018375 0.01209545 0.10280159 0.08332447 0.009489133 -0.04886545 -0.072258525 0.049436636
-0.06634127 -0.018761665 0.03370699 0.07587549 -0.053503636 -0.12226146 0.056945723 0.011308026
-0.061916444 0.026088694 0.021689 -0.06612587 0.039812513 -0.0080278395 0.15077356 -0.084882505
0.060987998 -0.021763198 -0.17069091 0.0049339295 -0.0643587 -0.13381115 -0.022770926 0.12827046
0.07374062 -0.015817394 -0.03735079 -0.08642069 0.037939202 0.08801628 -0.09156574 0.07361972
-0.024899136 0.03613946 0.036575265 -0.005753805 -0.049569007 -0.08418642 0.12292073 -0.023467103
0.0067518423 -0.0924859 0.13668 0.20271556 -0.14490752 -0.091921814 -0.087495625 0.0016461273
-0.047500085 0.13939625 0.06335362 0.11750414 0.0057880376 -0.17363551 0.08242362 0.060171425
0.14437425 0.025795875 0.041239124 -0.05358687 -0.13293739 0.077663586 -0.031704776 0.057311665
-0.12856759 0.029073695 0.025756547 0.20283312 0.06687661 0.18083028 -0.028209904 -0.028060632
0.050953817 -0.007791527 0.013735342 0.020667 -0.16929007 -0.17696612 0.02722433 -0.14983171
0.013854624 0.019762341 0.040922515 0.16878097 0.14270957 0.011642636 -0.13810878 0.011983323
0.01065627 0.037101623 -0.088035285 -0.02743151 -0.113839924 0.087054946 -0.04551908 -0.019119067
0.013898555 0.056349434 0.03404087 0.14909813 0.023013508 -0.10882844 0.1061509 0.13432029
0.09488758 -0.1548319 -0.03436304 0.041572865 -0.017159408 0.08569802 0.034209717 0.09957143
0.12347089 -0.06604639 0.08535941 -0.0072380714 0.11388595 -0.08129956 -0.071991175 -0.20562333
0.049527045 -0.01591685 0.0720364 0.011121092 0.07470678 -0.048810232 0.060742594 0.06251209
-0.15508834 0.027928151 -0.032913677 0.089082316 -0.05087688 -0.18128766 -0.07246788 0.004018833
0.15439805 0.0617328 -0.14662409 0.014761475 -0.11622412 -0.16063607 0.106681176 -0.10299375
-0.090891056 -0.0675642 -0.025428506 0.08939828 0.08733116 -0.0823665 -0.09859682 -0.095800914
0.05250781 -0.06273329 -0.13127483 0.15149784 0.123810604 0.14455734 0.0068339226 0.009500787
0.010910237 0.111263774 0.07428584 -0.02692605 -0.1591225 -0.08615388 0.061863568 0.10071298
0.09019634 -0.043594416 0.07877995 -0.049466353 -0.101461895 0.10752727 -0.07580739 0.035760283
0.18596978 0.099330135 -0.073171206 0.020156303 0.06669894 0.036885023 -0.10057371 -0.16331701
0.119016826 -0.09320702 0.07288874 -0.113003634 0.07486952 -0.019351736 0.0023003516 -0.038462367
-0.09255579 -0.12784074 -0.060221374 0.09088538 0.07056921 0.038871743 0.02223641 0.032033455
0.053534817 0.109614514 0.009272712 -0.17817354 0.0069712494 0.039146915 0.091318056 0.049672604
00000000: 6a04 0ebd de5e 36bd 2975 4b3d d7f4 a83d
00000010: 6fb2 7bbd 2667 5cbd 2531 1dbd af48 333e
00000020: 0295 2c3e cf47 003d 756d 99bd 706f 0a3e
00000030: 34a6 123e 0bb3 9f3a 9fd4 073d 2397 a0bd
00000040: d239 413c bfa1 da3d 9ed1 e1bd 169a c6bd
00000050: f4d2 433d 6564 5a3d b7e5 72bc 2d10 78b9
00000060: 3ee2 10bd 43c0 053d f9fe b7bd 92de 17bc
00000070: 92ec 26bd 5107 4c3d 664f 12bd dc83 13bc
00000080: d837 a93d c528 383d c3e1 fcbd 0d86 01be
00000090: d96c 12be 870f c43d 75a6 9c3d 1f60 3e3d
000000a0: 548c 0f3e ff2b 463c a489 d23d 05a6 aa3d
000000b0: 4f78 1b3c 2327 48bd 47fc 93bd 127e 4a3d
000000c0: efdd 87bd 10b2 99bc 5710 0a3d 9c64 9b3d
000000d0: a126 5bbd 3764 fabd eb3f 693d 4c45 393c
000000e0: 199c 7dbd f5b7 d53c 21ad b13c 006d 87bd
000000f0: 7212 233d 3387 03bc 6264 1a3e e1d6 adbd
00000100: 8dce 793d bc48 b2bc 99c9 2ebe cdac a13b
00000110: 7ece 83bd ca05 09be 188a babc 5559 033e
00000120: 5205 973d 7b93 81bc 24fd 18bd 55fd b0bd
00000130: 2366 1b3d e141 b43d d286 bbbd f0c5 963d
00000140: 46f9 cbbc f806 143d f2cf 153d 6a8a bcbb
00000150: df08 4bbd ee69 acbd ddbd fb3d 153e c0bc
00000160: 8f3e dd3b 3f69 bdbd d8f5 0b3e ab94 4f3e
00000170: a362 14be 8141 bcbd e830 b3bd dec2 d73a
00000180: 738f 42bd e4bd 0e3e 8bbf 813d 03a6 f03d
00000190: 94a9 bd3b 82cd 31be b7cd a83d 5076 763d
000001a0: d8d6 133e df51 d33c 5bea 283d e87d 5bbd
000001b0: bd20 08be 160e 9f3d dedc 01bd a3bf 6a3d
000001c0: 39a7 03be f52b ee3c 65ff d23c 7cb3 4f3e
000001d0: 9bf6 883d 932b 393e 7518 e7bc 69df e5bc
000001e0: f3b4 503d 1150 ffbb 330a 613c d74d a93c
000001f0: 605a 2dbe 9b36 35be 8f05 df3c 7c6d 19be
00000200: 81fe 623c a2e4 a13c 5e9e 273d ebd4 2c3e
00000210: 7522 123e c1c0 3e3c 636c 0dbe b355 443c
00000220: a397 2e3c dff7 173d d84b b4bd 0cb8 e0bc
00000230: e824 e9bd dd49 b23d 3772 3abd 979f 9cbc
00000240: c4b6 633c aace 663d 706e 0b3d 2ead 183e
00000250: d386 bc3c 72e1 debd a565 d93d 428b 093e
00000260: 6b54 c23d 418c 1ebe 42c0 0cbd 4f48 2a3d
00000270: e391 8cbc 7282 af3d 7d1f 0c3d 1bec cb3d
00000280: 4ede fc3d 5443 87bd ead0 ae3d 582d edbb
00000290: 093d e93d 6280 a6bd 1c70 93bd ec8e 52be
000002a0: dfdc 4a3d 0e64 82bc d287 933d 3e35 363c
000002b0: deff 983d 3ded 47bd 3acd 783d 5706 803d
000002c0: 7acf 1ebe 94c9 e43c 7ed0 06bd ca70 b63d
000002d0: 4664 50bd 79a3 39be 0a6a 94bd 6ab0 833b
000002e0: 861a 1e3e 88db 7c3d a024 16be 1dda 713c
000002f0: e906 eebd c87d 24be a97b da3d 63ee d2bd
00000300: 1725 babd 195f 8abd 714f d0bc 7216 b73d
00000310: aeda b23d c4af a8bd 21ed c9bd 4533 c4bd
00000320: 6e12 573d 507a 80bd e96c 06be 4022 1b3e
00000330: 6a90 fd3d d706 143e 19ef df3b 30a9 1b3c
00000340: dac0 323c 43de e33d 2d23 983d 0594 dcbc
00000350: 02f1 22be 7271 b0bd a764 7d3d 9b42 ce3d
00000360: dcb8 b83d 0f90 32bd 6257 a13d 3b9d 4abd
00000370: 41cb cfbd 4237 dc3d e840 9bbd 6079 123d
00000380: dd6e 3e3e 996d cb3d c9da 95bd d51e a53c
00000390: 7499 883d c014 173d 97f9 cdbd 933c 27be
000003a0: 18bf f33d 52e3 bebd b146 953d 736e e7bd
000003b0: 3155 993d 8887 9ebc 7fc1 163b b78a 1dbd
000003c0: e48d bdbd afe8 02be b0aa 76bd 1d22 ba3d
000003d0: 9786 903d fa37 1f3d 2229 b63c 8335 033d
000003e0: 5347 5b3d 937d e03d 93ec 173c 2073 36be
000003f0: 146f e43b 8458 203d f604 bb3d 8075 4b3d

lstm.bias_ih_l1 f4 [256]
-0.060140613 -0.042617597 -0.07311834 0.026211014 -0.05799374 -0.030654652 0.1581938 0.06753773
-0.016123803 0.15725632 0.09609456 0.029938146 -0.053026944 -0.051802978 0.055522975 -0.07421821
0.02712903 0.12699285 0.034951024 0.077162705 -0.0039667245 -0.042337175 -0.018559102 -0.047019087
0.12671642 0.07793904 0.07750847 0.11031328 0.097205386 0.054655455 -0.000806034 0.060529802
0.04552033 -0.053957038 0.019494247 0.037412543 0.003995277 -0.022576569 0.13446797 0.059871666
0.05749729 0.10497094 0.030900553 -0.06659887 0.03538689 0.10354705 0.1333439 0.08831992
-0.08288365 0.03336884 0.12011992 0.01540942 0.16530627 0.07859129 -0.102566704 0.009277301
0.030735586 0.06941339 0.1448486 0.05916814 -0.063598625 0.13822474 0.09919839 0.057487197
0.11990471 0.12254271 0.043167006 0.019853333 -0.08410469 -0.07820353 0.11386382 0.15546684
-0.06362127 0.020037524 -0.053295333 -0.014002725 0.06507809 0.07635117 0.12663755 0.07166114
0.11405182 -0.02057817 0.036912262 -0.06045559 -0.022735205 0.06469703 -0.10431914 -0.071960896
0.027631966 0.03198942 0.12538274 -0.048795763 0.12273913 0.102290675 0.0035769865 -0.10461039
0.004445322 0.01691756 0.06510976 0.13112764 0.03289591 0.069490135 -0.093703195 0.07335872
-0.10372638 0.047574334 -0.0148091605 0.08574146 -0.09228707 0.14808142 0.043507535 0.08274002
0.12132771 0.1081895 0.017788267 0.19378088 0.022464253 -0.11640387 -0.085179016 -0.0019917004
0.08510461 0.005011713 0.058465187 -0.046658497 0.05544625 -0.042996738 0.10746286 -0.0036391448
0.041923683 -0.059075918 0.024407478 0.10921045 0.08981214 0.13658066 0.10897537 0.0009028746
-0.0015496794 0.0067165564 -0.019821966 -0.0043345448 -0.09396759 -0.09197911 -0.0038392674 0.008383828
0.11485593 -0.018097997 0.1033008 0.022085907 0.02608792 0.069978796 0.042598166 -0.0044926316
0.08141697 0.034244582 -0.1064786 0.10514723 -0.015420395 -0.08388117 0.07915064 0.0959479
-0.12869546 0.028008748 -0.06924499 0.06971004 0.07103609 0.015290395 -0.041202042 0.060431473
0.0892038 0.08716144 0.0068017268 0.0618478 0.08913993 0.10967081 0.02938689 0.11967698
-0.09396309 -0.020080756 -0.018157806 0.114056185 -0.050867 0.00047817355 -0.0046796333 0.06744323
-0.06486591 0.0062492173 -0.0555466 0.077007495 0.10029435 -0.14253324 -0.10500105 -0.04557761
0.0426847 0.062289435 0.0062361336 0.042553317 0.033977386 0.026768297 -0.043081906 -0.024182202
-0.028290195 -0.022509363 0.1594449 -0.05728921 0.029818006 0.15079907 -0.075624 -0.0029296498
0.07063754 0.11337147 -0.0052132388 0.11186667 0.12859844 0.07969486 0.086409464 0.037734058
0.033833217 0.10695707 0.045576982 -0.024309136 0.008956213 -0.045360956 -0.06310834 -0.008960866
0.05454917 0.14172293 -0.020393101 0.06864269 0.03338543 0.16451086 0.12875356 0.17894542
0.06844757 0.14719799 0.123932034 0.14917949 0.15215544 0.09150155 0.11616962 0.12329437
0.061147757 0.049834445 0.08626767 0.07476204 0.010640091 0.12400724 0.047846783 0.00959034
-0.11080888 -0.08834521 -0.057418793 0.1423621 0.015823847 0.009921066 -0.035143886 0.13398428
00000000: 0156 76bd ca8f 2ebd 11bf 95bd 7bb8 d63c
00000010: d88a 6dbd 771f fbbc 8efd 213e 3951 8a3d
00000020: 1116 84bc cd07 213e 3acd c43d d840 f53c
00000030: c832 59bd 5c2f 54bd 0f6c 633d b8ff 97bd
00000040: b33d de3c 6a0a 023e ce28 0f3d 7b07 9e3d
00000050: 4cfb 81bb bf69 2dbd 4209 98bc 1697 40bd
00000060: f3c1 013e 819e 9f3d c3bc 9e3d eeeb e13d
00000070: 9e13 c73d 66de 5f3d 074c 53ba 19ee 773d
00000080: 8773 3a3d 0e02 5dbd 66b2 9f3c e53d 193d
00000090: d0ea 823b 7ff2 b8bc f9b1 093e fe3b 753d
000000a0: 4782 6b3d 01fb d63d 2823 fd3c fd64 88bd
000000b0: d8f1 103d 7a10 d43d 4e8b 083e 13e1 b43d
000000c0: e7be a9bd c4ad 083d 6f01 f63d cb77 7c3c
000000d0: 0c46 293e 78f4 a03d 7e0e d2bd d2ff 173c
000000e0: 32c9 fb3c 9b28 8e3d 3153 143e 4b5a 723d
000000f0: ff3f 82bd c98a 0d3e 8728 cb3d b277 6b3d
00000100: 9a90 f53d acf7 fa3d e3cf 303d 75a3 a23c
00000110: 143f acbd 2c29 a0bd 6f31 e93d b332 1f3e
00000120: de4b 82bd bc25 a43c 354c 5abd af6b 65bc
00000130: a947 853d 015e 9c3d 46ad 013e 13c3 923d
00000140: 0094 e93d 8d93 a8bc 5031 173d 48a0 77bd
00000150: 2e3f babc e07f 843d 46a5 d5bd 3c60 93bd
00000160: 6f5c e23c 5707 033d 5564 003e 11de 47bd
00000170: a75e fb3d c67d d13d e06b 6a3b f93d d6bd
00000180: 10aa 913b b296 8a3c 4458 853d 5346 063e
00000190: ddbd 063d d850 8e3d 76e7 bfbd 193d 963d
000001a0: 7f6e d4bd 4edd 423d 1fa2 72bc 3899 af3d
000001b0: 0101 bdbd a8a2 173e f534 323d 9973 a93d
000001c0: aa7a f83d 7592 dd3d b3b8 913c 7f6e 463e
000001d0: f406 b83c 2765 eebd 5672 aebd 3087 02bb
000001e0: 534b ae3d 4c39 a43b 3179 6f3d fb1c 3fbd
000001f0: 9b1b 633d 591d 30bd 7d15 dc3d b87e 6ebb
00000200: 2bb8 2b3d 97f9 71bd 31f2 c73c baa9 df3d
00000210: 6def b73d cddb 0b3e 7b2e df3d e4ae 6c3a
00000220: 9d1e cbba 8f16 dc3b ad61 a2bc cc08 8ebb
00000230: 1472 c0bd 8b5f bcbd 389c 7bbb 535c 093c
00000240: 9639 eb3d 4042 94bc 5f8f d33d 81ed b43c
00000250: 55b6 d53c 0b51 8f3d 6a7b 2e3d ed36 93bb
00000260: f1bd a63d 0c44 0c3d 7411 dabd 6e57 d73d
00000270: d3a5 7cbc e4c9 abbd bb19 a23d 5580 c43d
00000280: bec8 03be 9a72 e53c 51d0 8dbd 23c4 8e3d
00000290: 5f7b 913d 9184 7a3c 79c3 28bd fe86 773d
000002a0: 7bb0 b63d b281 b23d 05e1 de3b 1e54 7d3d
000002b0: ff8e b63d 179b e03d c6bc f03c 3419 f53d
000002c0: b86f c0bd 6680 a4bc aebf 94bc 4a96 e93d
000002d0: ea59 50bd 5eb3 fa39 9c57 99bb ad1f 8a3d
000002e0: 6bd8 84bd 3cc6 cc3b d584 63bd 1bb6 9d3d
000002f0: 2067 cd3d 3cf4 11be ca0a d7bd 97af 3abd
00000300: 27d6 2e3d 3523 7f3d 7b58 cc3b 634c 2e3d
00000310: df2b 0b3d 3049 db3c a776 30bd c119 c6bc
00000320: d7c0 e7bc 8e65 b8bc 8645 233e 17a8 6abd
00000330: e444 f43c 126b 1a3e c1e0 9abd 5eff 3fbb
00000340: 6aaa 903d 4d2f e83d d1d3 aabb 5a1a e53d
00000350: 4faf 033e 0f37 a33d 72f7 b03d 078f 1a3d
00000360: b394 0a3d 4f0c db3d eeae 3a3d f423 c7bc
00000370: 14bd 123c 69cc 39bd f23e 81bd 99d0 12bc
00000380: f36e 5f3d d11f 113e 6f0f a7bc 8a94 8c3d
00000390: 29bf 083d 8975 283e f9d7 033e 783d 373e
000003a0: 3d2e 8c3d 12bb 163e 14d0 fd3d 82c2 183e
000003b0: a3ce 1b3e 2a65 bb3d 56ea ed3d c281 fc3d
000003c0: 1276 7a3d 341f 4c3d 1bad b03d d71c 993d
000003d0: c753 2e3c 82f7 fd3d fdfa 433d cd20 1d3c
000003e0: c4ef e2bd 55ee b4bd f82f 6bbd 5fc7 113e
000003f0: 03a1 813c f88b 223c 09f3 0fbd 2d33 093e

lstm.bias_hh_l1 f4 [256]
0.088663876 0.1304338 0.10088143 0.044818502 0.057601694 -0.03442682 0.12187465 0.17197974
0.15475091 0.084550336 0.07851837 0.023136266 0.1323376 -0.050754473 -0.010440868 0.07206787
-0.042895023 0.025821064 0.14249896 0.09010944 0.0067207515 -0.08663383 0.075698294 -0.07447655
0.17952083 0.08643256 -0.034097675 0.14207107 0.15106991 -0.018100148 0.14223894 -0.08308942
0.031578436 0.060145143 0.08433336 0.122729935 0.06980935 0.15545256 0.009689578 -0.04402046
0.1346363 -0.051920384 0.038743492 -0.028384613 0.07624969 -0.083885185 0.0919269 -0.07610164
-0.03046583 -0.038965806 -0.07182495 0.12399267 -0.0028965175 0.008836985 0.11536603 0.06190724
-0.077763066 -0.013679083 0.091013 -0.04870944 0.1299399 0.13752797 0.08125062 -0.031741846
0.046856925 0.13168225 0.15528665 -0.07967896 0.13401404 -0.06842144 -0.03412549 0.03065026
-0.055980388 -0.08254246 0.14958575 -0.10950713 0.107030086 -0.035608623 0.116191275 0.085469656
-0.07551573 0.004775174 0.10472681 -0.0020076255 -0.054428943 0.06323852 0.12554349 -0.052298736
0.026356934 0.14684029 -0.017537616 -0.035699613 0.0138259325 -0.11772198 0.067601375 -0.06638235
-0.084830165 0.08186283 -0.08583612 0.102376305 0.14246526 0.078818366 0.103559986 0.15254259
0.07787063 0.09451265 0.01668545 0.010719002 -0.025875933 0.074204035 0.014634303 0.01639355
0.024606645 0.16363643 0.12476652 0.04102413 0.05068738 0.089242935 0.039896075 0.011936361
0.07915787 0.07602001 -0.054887343 -0.009054832 0.10560988 0.115284316 -0.041870818 0.0042896834
0.021208595 0.027836861 -0.009625245 0.0051660794 0.055070534 -0.099714994 -0.10016072 -0.008344096
0.09553711 -0.03739462 -0.027326822 0.012532622 0.05869772 0.0018273831 0.1246322 0.11535655
-0.007379387 0.03500264 0.043310665 0.04563437 0.10638841 0.0849046 -0.032463424 -0.030278932
-0.059859812 0.10795031 0.09892688 0.07880085 0.050077952 0.047456134 0.009069951 -0.02170087
0.09122918 0.10234506 -0.012477451 0.03321875 0.034124933 0.019459326 -0.080296636 -0.056735028
0.11514461 -0.03365034 0.07085545 0.06869792 -0.04248767 -0.08759624 -0.0859475 -0.055488084
-0.007691291 -0.006081091 0.10947581 0.005000186 -0.111415274 0.06444503 -0.111673646 0.0017133866
0.07387455 -0.029592035 -0.098499626 0.06926065 -0.031081572 -0.14406347 0.09012291 -0.024948247
0.008723126 0.16755743 0.018671837 0.05378693 0.011927218 0.010257546 0.058755327 0.14213553
0.0939947 0.011204034 0.10236097 -0.009141542 0.07189449 -0.053195503 0.021925969 -0.081067026
0.10752004 -0.017066019 0.17050691 -0.015564773 0.12990302 0.08698243 -0.007468437 0.12626372
0.09067662 0.14036237 -0.053788144 -0.05492349 0.15042618 -0.06007387 0.036132578 -0.013030653
0.075055316 -0.046947867 0.017664999 0.105214946 0.15518287 0.09249048 0.040230013 -0.055786036
0.0015432326 0.11678659 0.06191185 0.16182508 0.09322305 0.1768643 -0.07091374 0.023995908
-0.06620759 0.18452121 -0.08185952 -0.006615704 0.011329943 0.07389201 0.083379954 0.16032383
-0.050011795 -0.019343348 -0.029110486 -0.07069717 0.07607275 0.10402498 -0.010684045 0.1416874
00000000: 6895 b53d 7090 053e ec9a ce3d 9b93 373d
00000010: c1ef 6b3d 2303 0dbd 6b99 f93d 751b 303e
00000020: 0677 1e3e ba28 ad3d 3dce a03d 4488 bd3c
00000030: 8283 073e ece3 4fbd 2d10 2bbc 5298 933d
00000040: b1b2 2fbd b286 d33c 3feb 113e 4c8b b83d
00000050: c039 dc3b 146d b1bd b507 9b3d 2987 98bd
00000060: 4fd4 373e 8e03 b13d 01aa 0bbd 147b 113e
00000070: 12b2 1a3e c346 94bc 16a7 113e c92a aabd
00000080: 6458 013d c15a 763d f8b6 ac3d d559 fb3d
00000090: 34f8 8e3d f52e 1f3e 09c1 1e3c cc4e 34bd
000000a0: 19de 093e 78aa 54bd 7fb1 1e3d d986 e8bc
000000b0: cc28 9c3d ffcb abbd 2c44 bc3d 2ddb 9bbd
000000c0: 7a93 f9bc 9c9a 1fbd f618 93bd deef fd3d
000000d0: 80d3 3dbb 00c9 103c 0645 ec3d 7292 7d3d
000000e0: 3e42 9fbd 3c1e 60bc 0665 ba3d 8d83 47bd
000000f0: f70e 053e 22d4 0c3e ba66 a63d bd03 02bd
00000100: 0ced 3f3d b6d7 063e 7703 1f3e b92e a3bd
00000110: fa3a 093e 8a20 8cbd 2bc7 0bbd 4116 fb3c
00000120: b14b 65bd 050c a9bd 022d 193e 4645 e0bd
00000130: 9732 db3d 59da 11bd b1f5 ed3d b70a af3d
00000140: fea7 9abd 1079 9c3b 027b d63d 5e92 03bb
00000150: e2f0 5ebd 3283 813d 798e 003e 3337 56bd
00000160: 7fea d73c 4d5d 163e 0cab 8fbc c239 12bd
00000170: 2a86 623c 3918 f1bd 9772 8a3d 78f3 87bd
00000180: 70bb adbd b3a7 a73d d9ca afbd abaa d13d
00000190: 6ae2 113e 866b a13d 4217 d43d 2034 1c3e
000001a0: a37a 9f3d d98f c13d edaf 883c c19e 2f3c
000001b0: c4f9 d3bc 49f8 973d b7c4 6f3c c44b 863c
000001c0: e093 c93c 4f90 273e 9785 ff3d eb08 283d
000001d0: 929d 4f3d 00c5 b63d 116a 233d ba90 433c
000001e0: 851d a23d 61b0 9b3d 8dd1 60bd b85a 14bc
000001f0: fe49 d83d 2f1a ec3d bc80 2bbd 7990 8c3b
00000200: a6bd ad3c 210a e43c 34b3 1dbc 3748 a93b
00000210: a491 613d 6037 ccbd 1021 cdbd adb5 08bc
00000220: f6a8 c33d 1a2b 19bd 80dc dfbc a055 4d3c
00000230: 056d 703d cd84 ef3a 2b3f ff3d 0e40 ec3d
00000240: c9ce f1bb ee5e 0f3d 8666 313d 1beb 3a3d
00000250: 2be2 d93d 77e2 ad3d 5ef8 04bd 860b f8bc
00000260: 902f 75bd 0d15 dd3d 2d9a ca3d 5762 a13d
00000270: 8a1e 4d3d 5d61 423d 229a 143c 06c6 b1bc
00000280: 5dd6 ba3d 499a d13d 396e 4cbc 6210 083d
00000290: 96c6 0b3d 2a69 9f3c 9072 a4bd fd62 68bd
000002a0: f0d0 eb3d f0d4 09bd aa1c 913d 7fb1 8c3d
000002b0: 8d07 2ebd a865 b3bd 3e05 b0bd 7947 63bd
000002c0: 3a07 fcbb e343 c7bb da34 e03d 9ad8 a33b
000002d0: b12d e4bd c2fb 833d 27b5 e4bd b793 e03a
000002e0: 8a4b 973d ff6a f2bc 2cba c9bd 87d8 8d3d
000002f0: c89e febc 6085 13be 5c92 b83d 4460 ccbc
00000300: 71eb 0e3c 2d94 2b3e aef5 983c af4f 5c3d
00000310: 616a 433c 440f 283c 6da9 703d fa8b 113e
00000320: 4b80 c03d 2091 373c a1a2 d13d 68c6 15bc
00000330: 6b3d 933d 87e3 59bd 179e b33c 7806 a6bd
00000340: 7733 dc3d 09ce 8bbc 5d99 2e3e 6403 7fbc
00000350: 4c05 053e d823 b23d cab9 f4bb 474b 013e
00000360: aab4 b93d 27bb 0f3e f550 5cbd 74f7 60bd
00000370: 5209 1a3e 0510 76bd c1ff 133d 857e 55bc
00000380: 9ab6 993d 684c 40bd 30b6 903c ef7a d73d
00000390: 42e8 1e3e a66b bd3d 3ac8 243d e67f 64bd
000003a0: 4b46 ca3a cf2d ef3d 4897 7d3d 79b5 253e
000003b0: baeb be3d ea1b 353e 393b 91bd 1193 c43c
000003c0: d897 87bd 21f3 3c3e f7a5 a7bd 8cc8 d8bb
000003d0: 3aa1 393c b254 973d 1cc3 aa3d ee2b 243e
000003e0: 2bd9 4cbd f175 9ebc 1d79 eebc aec9 90bd
000003f0: 08cc 9b3d 0c0b d53d 220c 2fbc 8016 113e
