model/old.ckpt (torch_old, 349117 bytes, 14 tensors)

lstm.weight_ih_l0 f4 [256, 12]
0	0x3d077d5d	0.03307854
1	0x3dacf79f	0.084456675
2	0xbcc97d66	-0.024595927
3	0x3d09af68	0.033614546
4	0xbd059efa	-0.032622315
5	0xbe052efd	-0.13006206
6	0x3d2b6d97	0.04185256
7	0xbe117d86	-0.1420804
8	0xbd5742fc	-0.052554116
9	0x3d185e16	0.037199102
10	0xbe150b0e	-0.14554998
11	0xbdcce4e2	-0.100045934
12	0x3c01eab1	0.00792949
13	0x3e0cd859	0.13754405
14	0xbe08a8e2	-0.13345674
15	0x3cd789a0	0.026310742
16	0xbb8ad797	-0.004237126
17	0xbd43685e	-0.047706954
18	0xbcc6c08c	-0.024261735
19	0xbe131440	-0.14363194
20	0xbcc2b2f7	-0.023766978
21	0x3d12b7ad	0.035819698
22	0x3cdbb24e	0.02681842
23	0x3dfdbd7e	0.123896584
24	0xbd1b2ba6	-0.037883423
25	0xbd56b323	-0.05241693
26	0xbdfbef50	-0.123015046
27	0x3c3918bf	0.011297404
28	0xbd34b11c	-0.044114217
29	0x3dbcfbf4	0.09227744
30	0x3dc268f3	0.09492674
31	0xbded7326	-0.115942284
32	0xbdcf66b8	-0.10127014
33	0x3dabee53	0.08395066
34	0x3dce2e2b	0.100673996
35	0x3da79645	0.081829585
36	0xbd85f01c	-0.06539938
37	0x3d454357	0.048159923
38	0xbcd18faf	-0.025581209
39	0x3d884565	0.06653861
40	0x3d806678	0.06269544
41	0x3d244668	0.040106207
42	0xbd69fbda	-0.05712495
43	0xbd311014	-0.043228224
44	0xbe1ca453	-0.1529706
45	0x3e324d1f	0.17412232
46	0xbcd1878c	-0.02557733
47	0x3e037ec0	0.1284132
48	0xbdc8e10c	-0.09808549
49	0xbbb4c345	-0.005516442
50	0xbcb68715	-0.022281209
51	0xbd8377aa	-0.064193085
52	0x3d6ea0f4	0.058258966
53	0x3df3d27e	0.119053826
54	0xbddbde0f	-0.10735714
55	0xbdf3ddb2	-0.119075194
56	0x3d190b2f	0.03736418
57	0x3d5ff784	0.05467941
58	0x3e101611	0.14070918
59	0xbc386d6e	-0.011256559
60	0xbde2edab	-0.11080488
61	0x3dc89fa6	0.097960755
62	0xbd8d12d7	-0.06888359
63	0xbdc0d8be	-0.0941634
64	0xbcb14c5e	-0.02164286
65	0x3c40783b	0.011747415
66	0xbd47f3fd	-0.04881667
67	0xbc88fb2d	-0.016721332
68	0xbc447b66	-0.011992311
69	0xbd39b739	-0.04534075
70	0x3d5d9929	0.054101143
71	0xbdc1e75d	-0.09467957
72	0x3d1a77e6	0.037712
73	0xbcc512c8	-0.024056807
74	0xbd1849c9	-0.037179742
75	0x3e07b136	0.13251194
76	0x3df35e4a	0.118832186
77	0xbda85d09	-0.0822087
78	0x3dbcb071	0.09213341
79	0x3d699fd2	0.057037182
80	0x3cce6a9b	0.025197318
81	0xbcdcd3cc	-0.026956461
82	0x3dafc2c2	0.08582069
83	0xbe1d9cfa	-0.15391913
84	0xbcb79546	-0.022410046
85	0xbce32ac2	-0.02773035
86	0xbb2433c5	-0.002505527
87	0xbcc89c89	-0.024488704
88	0xbd72dccb	-0.059292596
89	0xbdfc3fa8	-0.12316829
90	0xbd9add00	-0.07561684
91	0xbdbc8766	-0.09205513
92	0x3bd0bd1c	0.0063702
93	0x3cf7110f	0.030159501
94	0xbe1f8e5c	-0.1558165
95	0x3cfd8555	0.030947367
96	0xbce9f7d0	-0.028560549
97	0x3bf34e4d	0.0074251057
98	0xbe032c8b	-0.1280996
99	0x3d4f7f6f	0.05065864
100	0x3d88ff49	0.06689317
101	0x3d30ac81	0.043133263
102	0x3cbd859a	0.023134995
103	0xbd9586a0	-0.07301068
104	0xbd8e1d65	-0.069392
105	0x3dbd9d94	0.09258571
106	0x3d9ba2ac	0.075993866
107	0xbcadbea7	-0.021209074
108	0xbdc6b707	-0.097028784
109	0xbd9899c0	-0.074512005
110	0x3df0369b	0.11729165
111	0xbd66b808	-0.05632785
112	0x3d445d0e	0.047940306
113	0x3e05bd5d	0.13060518
114	0xbc7fcb90	-0.015612498
115	0x3e028037	0.12744223
116	0xbdf5a4f6	-0.119943544
117	0x3c87eb38	0.016591653
118	0xbd5e0516	-0.05420407
119	0x3d62355b	0.055226665
120	0xbda4f1b3	-0.08053913
121	0x3c31cbb6	0.010851791
122	0xbd3cf72d	-0.046134163
123	0x3d9f360f	0.07773983
124	0xbdd49663	-0.103802465
125	0x3dc5140e	0.09622966
126	0x3db7354e	0.08945714
127	0x3d99ea70	0.075154185
128	0x3d23ca77	0.039988007
129	0x3d9a9ad2	0.07549061
130	0xbd44b06f	-0.048019823
131	0x3c581e64	0.013190839
132	0x3d0eedd6	0.034894787
133	0xbc4f77ad	-0.01266281
134	0xbe186ff9	-0.14886464
135	0xbd3dddef	-0.04635423
136	0x3ccbe4d4	0.024889387
137	0xbd6457d4	-0.055747822
138	0xbc780023	-0.015136751
139	0xbdaba431	-0.083809264
140	0x3d725fbb	0.059173327
141	0x3dcb1007	0.09915166
142	0xbc0b7cc5	-0.008513634
143	0xbcf7e57d	-0.030260796
144	0xbdd550f5	-0.10415832
145	0xbc81673f	-0.015796302
146	0x3d3afb1c	0.045649633
147	0xbcce2351	-0.025163325
148	0xbd150506	-0.036381744
149	0x3dbefa45	0.09325079
150	0x3bbfe7ca	0.005856489
151	0xbda68b19	-0.081319995
152	0x3e14c90a	0.14529815
153	0x3cb8f741	0.022578837
154	0xbda66632	-0.08124961
155	0x3d8e0999	0.06935424
156	0xbdf18bab	-0.11794218
157	0xbda43198	-0.08017272
158	0xbdd1b848	-0.10240227
159	0xbd2f35a5	-0.04277577
160	0xbd21f90c	-0.03954415
161	0xbdb08a58	-0.08620137
162	0xbde5ccbf	-0.11220693
163	0x3de5e374	0.11225024
164	0xbdcc4abc	-0.09975192
165	0xbe10ad2c	-0.1412856
166	0xbd8e028d	-0.0693408
167	0xbca302b5	-0.019898752
168	0xbd074ff9	-0.033035252
169	0xbdf755eb	-0.120769344
170	0x3d32532a	0.043536343
171	0xbde62515	-0.112375416
172	0x3d08eacf	0.033427056
173	0x3c139019	0.0090065235
174	0xbd9aa294	-0.075505406
175	0xbd99c8a7	-0.075089745
176	0x3da05b87	0.078299575
177	0x3db01bba	0.085990384
178	0x3c581fb4	0.013191152
179	0x3df69e5e	0.12041925
180	0x3d558112	0.052125044
181	0x3d6838c0	0.056694746
182	0xbddef28d	-0.10886107
183	0x3dc66d43	0.09688809
184	0xbdaad090	-0.083405614
185	0x3d47f90c	0.048821494
186	0xbdc86303	-0.0978451
187	0xbbd14161	-0.0063859676
188	0x3dd8a31e	0.10577987
189	0xbd0e34f4	-0.03471847
190	0x3db15d34	0.08660355
191	0xbd480007	-0.04882815
192	0x3cbe9a2c	0.023266874
193	0xbd758262	-0.059938796
194	0xbd35d512	-0.044392653
195	0x3ae58a9a	0.001751262
196	0xbd7b3e0b	-0.061338466
197	0x3da7befe	0.08190726
198	0x3c883d95	0.016630927
199	0xbd90097f	-0.07033061
200	0xbdd7ec47	-0.10543113
201	0x3dd7ca3c	0.1053662
202	0xbd9f6ffb	-0.077850305
203	0xbc98be99	-0.018645572
204	0xbd05f504	-0.03270437
205	0xbe04db55	-0.12974294
206	0x3c122b24	0.008921418
207	0xbd15b455	-0.03654893
208	0xbd03ceee	-0.032179765
209	0x3d1592f0	0.036517084
210	0x3d6824f5	0.05667587
211	0x3d549d84	0.05190803
212	0xbdb14fe2	-0.086578146
213	0xbd94be44	-0.07262853
214	0xbd6b77ca	-0.057487287
215	0x3d8ba79f	0.068190806
216	0xbd8d5b15	-0.06902138
217	0xbdc3cf0a	-0.09560974
218	0xbcb98197	-0.022644801
219	0x3d8ea282	0.0696459
220	0xbcf6357a	-0.030054796
221	0xbdc6b97c	-0.09703347
222	0xbd4fae1b	-0.05070315
223	0x3d4041a9	0.04693762
224	0xbb494eed	-0.003071721
225	0x3d86a03f	0.06573533
226	0xbcd1807f	-0.025573967
227	0x3c2acb06	0.010424381
228	0xbdc4a5c8	-0.09601933
229	0xbd723269	-0.059130106
230	0x3d02e28b	0.03195433
231	0xbdd7ee50	-0.105435014
232	0xbd59595b	-0.05306373
233	0x3d56517c	0.052323803
234	0x3cac4f1e	0.02103382
235	0x3ce8fcbf	0.028440831
236	0xbcbbe776	-0.022937518
237	0x3bc152c7	0.0058997604
238	0x3cbdcdba	0.023169387
239	0xbdb96976	-0.09053318
240	0x3cf3cb0c	0.029759906
241	0x3d64e6e6	0.055884264
242	0xbc691047	-0.014225072
243	0xbd934e0f	-0.07192623
244	0xbe17d92f	-0.14828943
245	0x3bbf205d	0.0058327154
246	0x3cfc8a31	0.030827614
247	0xbda1dcde	-0.07903455
248	0x3d8ac889	0.0677653
249	0xbb769880	-0.0037627518
250	0x3d9cc882	0.07655431
251	0x3d1057b4	0.03523989
252	0x3d93449d	0.07190821
253	0xbdb27776	-0.087141916
254	0xbd9c6cd5	-0.076379456
255	0xbdaed18f	-0.08536064

lstm.weight_hh_l0 f4 [256, 64]
0	0xbd66dc98	-0.05636272
1	0xbe0aea9d	-0.1356606
2	0xbdcc2b25	-0.09969167
3	0xbdd17715	-0.10227791
4	0x3e08c8c4	0.13357836
5	0xbd1592dc	-0.03651701
6	0xbd0d9c68	-0.03457299
7	0xbdcd7570	-0.10032165
8	0x3d84e320	0.06488633
9	0xbc9f8740	-0.019473672
10	0xbd13c4d5	-0.036076386
11	0xbd0ab37c	-0.033862576
12	0x3da19b7b	0.07890984
13	0xbd21b4ef	-0.039479192
14	0xbd9c647d	-0.07636354
15	0x3ddfd7b9	0.10929818
16	0x3d82f16a	0.06393702
17	0x3dbf9bd8	0.09355897
18	0x3c64bc9c	0.013960984
19	0x3ba348f7	0.0049830633
20	0x3db788e2	0.08961655
21	0x3d979e1f	0.07403206
22	0xbbd78499	-0.006577086
23	0xbd0ff03b	-0.03514121
24	0xbe2de030	-0.16980052
25	0xbd99d018	-0.07510394
26	0x3e13bf14	0.1442836
27	0x3dc52b6d	0.096274234
28	0xbd9aaeab	-0.075528465
29	0xbe1974d7	-0.14985977
30	0xbd71bf99	-0.059020612
31	0xbe10a3c5	-0.14124973
32	0xbd3cfc78	-0.04613921
33	0x3c272d59	0.010203683
34	0xbddaee49	-0.106899805
35	0xbdde906e	-0.108673915
36	0xbce49b7e	-0.027906176
37	0xbcf11708	-0.029429927
38	0xbca31b39	-0.019910442
39	0xbd013b89	-0.031550918
40	0xbd13ee13	-0.036115717
41	0x3d8af1b6	0.06784384
42	0xbc9487a8	-0.018131092
43	0xbda8dafa	-0.082448915
44	0xbdef28e2	-0.1167772
45	0xbdaa3849	-0.08311517
46	0xbc6e5ab8	-0.014547996
47	0xbdda3d72	-0.10656251
48	0x3d587bb0	0.052852333
49	0xbc33ddf5	-0.010978212
50	0x3da95417	0.08267992
51	0xbc80aa74	-0.015706278
52	0x3b7146db	0.0036815915
53	0xbde1ca0c	-0.110248655
54	0xbce8eda7	-0.028433634
55	0xbd79ac8b	-0.060955565
56	0x3d55acb6	0.052166663
57	0x3cd1f32b	0.025628647
58	0x3dd7ab0b	0.10530671
59	0xbd34cf21	-0.044142846
60	0x3de1b9b8	0.11021751
61	0xbd8abec9	-0.06774671
62	0x3d764755	0.06012662
63	0xbd70e08a	-0.058807887
64	0xbe015dcf	-0.12633441
65	0xbcb9cd5b	-0.022680929
66	0x3d92fe7d	0.07177446
67	0xbd3706ca	-0.04468421
68	0xbdcbf465	-0.09958724
69	0x3da56ce0	0.08077407
70	0xbdb93e82	-0.090451255
71	0xbd781c71	-0.060574
72	0x3d1b9f34	0.037993625
73	0xbd8298b3	-0.06376781
74	0xbd27d911	-0.040978495
75	0x3e29e853	0.16592531
76	0xbdd0b2b7	-0.10190337
77	0x3e0f2755	0.13979848
78	0xbdfdb22e	-0.12387501
79	0x3de244e0	0.11048293
80	0x3d8711d3	0.065951966
81	0x3d11f060	0.03562963
82	0x3c3f9eb1	0.01169555
83	0x3d73103b	0.05934165
84	0x3ce6d8ed	0.02817961
85	0xbc051fa5	-0.00812522
86	0xbd835b56	-0.06413905
87	0xbd63fd0c	-0.055661246
88	0x3cea94a8	0.028635338
89	0x3d9baf6e	0.0760182
90	0x3d2a2b81	0.041545395
91	0x3df392e2	0.1189325
92	0x3d8c0247	0.06836372
93	0x3d923814	0.07139602
94	0x3dcb9e9a	0.0994236
95	0xbd4ac1ca	-0.049501218
96	0xbd98f4a2	-0.07468535
97	0x3d806594	0.062693745
98	0x3dab9bcb	0.083793245
99	0x3d8f66d0	0.07002032
100	0xbda7e42e	-0.08197819
101	0x3d5b3298	0.053515047
102	0x3d9571eb	0.07297119
103	0xbdb8d3e3	-0.09024789
104	0xbde58ece	-0.112088785
105	0x3b2cd68d	0.0026373
106	0xbd6c4b65	-0.05768909
107	0xbc426b71	-0.011866436
108	0x3d64105e	0.05567967
109	0x3db9749c	0.090554446
110	0xbbebc00c	-0.0071945246
111	0x3da148be	0.078752026
112	0x3d291e38	0.041288584
113	0x3b10f523	0.002211877
114	0xbe1dc226	-0.15406093
115	0xbde1cadd	-0.11025021
116	0xbd0dd252	-0.034624405
117	0xbdacaff9	-0.084320016
118	0xbd95ca23	-0.07313945
119	0xbccacb9f	-0.024755297
120	0x3d9c618a	0.076357916
121	0xbcb1df55	-0.021712938
122	0xbd8a3bdc	-0.067496985
123	0x3d63bfee	0.05560296
124	0x3c53258a	0.012887368
125	0x3d46d688	0.048544437
126	0x3dcc9185	0.09988693
127	0x3e1b1a5c	0.15146774
128	0xbe0a52b8	-0.13508117
129	0x3dd018a3	0.10160949
130	0xbd929e9a	-0.07159157
131	0xbdf2f80f	-0.1186372
132	0xbd423f93	-0.04742391
133	0xbd33633e	-0.043795817
134	0xbd9aec1e	-0.07564567
135	0xbd3a7bdc	-0.045528278
136	0x3d2450ca	0.04011611
137	0x3c1bdae7	0.00951264
138	0x3deea1e8	0.11651975
139	0x3d80e62d	0.062939025
140	0xbdc37cdf	-0.09545302
141	0x3ddd475a	0.10804625
142	0xbc9a015a	-0.018799473
143	0xbe0559b6	-0.13022503
144	0x3d16a255	0.036775906
145	0x3d711a2f	0.05886286
146	0xbbbc68a1	-0.0057497774
147	0xbcd81e12	-0.026381526
148	0xbdc284c7	-0.094979815
149	0xbe1cd4db	-0.15315573
150	0x3dff0c38	0.124535024
151	0xbe02d77c	-0.12777513
152	0xbd94381d	-0.07237265
153	0x3e18c79c	0.14919895
154	0x3da30616	0.07960145
155	0x3d2173d1	0.03941709
156	0x3d67eecd	0.056624223
157	0xbb780340	-0.0037843734
158	0xbdc9e8f9	-0.09858889
159	0xbdb9d2c8	-0.090734065
160	0x3c4f05ef	0.012635692
161	0xbd2b72a0	-0.04185736
162	0xbdcd8121	-0.10034395
163	0x3d1b2723	0.03787912
164	0xbc857f40	-0.01629603
165	0xbdef6d8f	-0.116908185
166	0xbd7e49a5	-0.06208195
167	0xbd9a5d0b	-0.07537278
168	0x3c9e90fb	0.019356241
169	0x3da61b3b	0.081106625
170	0xbda0e320	-0.07855821
171	0x3d348a1f	0.044077035
172	0xbc367eb5	-0.011138608
173	0xbdc791f0	-0.09744632
174	0x3dcca159	0.09991712
175	0x3d9b73d8	0.07590455
176	0xbcd43aa4	-0.025906868
177	0xbb98eee5	-0.0046671503
178	0x3dd4ff8b	0.104003035
179	0x3d6ac98d	0.05732112
180	0xbd94902f	-0.07254063
181	0x3cb02172	0.021500323
182	0x3ca175f1	0.01970956
183	0x3d10b953	0.03533299
184	0x3d188a22	0.03724111
185	0xbdadf8d0	-0.08494723
186	0xbd0b59ad	-0.03402107
187	0xbd50b663	-0.050955188
188	0x3c964a30	0.018345922
189	0x3d7a3417	0.061084833
190	0xbcf3de85	-0.029769192
191	0x3d9cf6b3	0.07664242
192	0x3d2120f4	0.039338067
193	0x3c644950	0.013933495
194	0xbdc3753d	-0.09543846
195	0xbdb0eddc	-0.08639118
196	0xbd750e16	-0.059827887
197	0x3c840a08	0.016118065
198	0xbddf203b	-0.10894819
199	0x3c2d87cf	0.010591461
200	0x3d0c6714	0.03427799
201	0xbcfaf180	-0.030632734
202	0xbc707c91	-0.014678136
203	0xbd96ed8f	-0.073695295
204	0x3d48bfb0	0.049010932
205	0xbdbea4f6	-0.093088076
206	0xbd65f493	-0.056141447
207	0x3d0f7e62	0.035032637
208	0xbd3788fa	-0.044808365
209	0x3dd37802	0.10325624
210	0xbd3454ac	-0.044026062
211	0x3e0bcb18	0.13651693
212	0x3cf5f2d3	0.030023014
213	0x3d87904d	0.0661932
214	0x3e03e324	0.12879616
215	0xbdf3017a	-0.11865516
216	0x3db83dd2	0.08996166
217	0xbe269f48	-0.16271698
218	0xbc501d5b	-0.012702311
219	0xbd0cd17f	-0.03437948
220	0x3e14f03a	0.14544764
221	0xbdb87f97	-0.09008711
222	0x3e260ea5	0.16216524
223	0x3e248dbe	0.16069695
224	0xbdc7f193	-0.097628735
225	0x3e1d4847	0.15359603
226	0x3d0ee83e	0.034889452
227	0xbd96745d	-0.07346413
228	0xbdd5474e	-0.10413991
229	0x3daa91d2	0.08328594
230	0x3d471161	0.04860056
231	0x3d0bba79	0.03411338
232	0xbcf90238	-0.030396566
233	0xbd4306ef	-0.047614034
234	0x3d6e6aaa	0.05820719
235	0xbda7dfc5	-0.081969775
236	0x3d4adf36	0.049529277
237	0x3d4073fc	0.04698561
238	0x3dee58d5	0.11638037
239	0x3da1d113	0.07901206
240	0xbda46989	-0.08027942
241	0xbb17fc91	-0.0023191313
242	0x3d2041eb	0.039125364
243	0x3d91e043	0.07122853
244	0xbcd4924d	-0.025948668
245	0xbdff02a9	-0.12451679
246	0xbd79bcba	-0.060971
247	0xbd1a72e2	-0.037707217
248	0xbd929a8e	-0.07158385
249	0xbe00b656	-0.12569556
250	0x3de69261	0.11258388
251	0x3d006426	0.03134551
252	0x3ddb47ce	0.10707055
253	0x3e1706ae	0.14748642
254	0xb7359760	-1.0823685e-05
255	0x3dc3a423	0.09552791

lstm.bias_ih_l0 f4 [256]
0	0x3e065141	0.13116933
1	0xbbfa2275	-0.007633502
2	0xbe101137	-0.14069067
3	0x3d2b0dbf	0.041761156
4	0x3d04b0d9	0.032395218
5	0xbd4ae102	-0.04953099
6	0x3df66beb	0.120323025
7	0x3d00137c	0.03126858
8	0xbda3ac0c	-0.079918
9	0x3da8f195	0.08249203
10	0x3e01af9d	0.12664647
11	0x3cdd7855	0.027034918
12	0xbd8acd0f	-0.06777393
13	0x3cdc5125	0.026894161
14	0x3d6ceccd	0.05784302
15	0x3d7c2d7f	0.061566826
16	0x3d6005b9	0.054692958
17	0x3d94d3e6	0.07266979
18	0xbdbb6c23	-0.09151485
19	0x3da337f8	0.079696596
20	0x3c58dd71	0.0132363895
21	0x3d05bc92	0.032650538
22	0x3c532637	0.012887529
23	0x3a0ba4e2	0.00053269987
24	0xbd9ccda7	-0.076564126
25	0x3d734da7	0.059400227
26	0x39e991bb	0.000445498
27	0xbcbcadaa	-0.023032028
28	0x3d84bea5	0.06481675
29	0x3e0d420f	0.1379473
30	0x3d4a8b2e	0.04944914
31	0x3d01c3f1	0.031681005
32	0xbb9a43ae	-0.004707775
33	0xbd4c09cb	-0.049814027
34	0x3df80c07	0.12111669
35	0xbd5bfe8f	-0.053709563
36	0xbd5b1f23	-0.05349649
37	0x3dcbbee2	0.099485174
38	0x3dce66b9	0.100781865
39	0x3d6d6fee	0.057968073
40	0xbb8fa31a	-0.004383457
41	0xbdeff815	-0.1171724
42	0xbd802b5c	-0.0625827
43	0xbd9fe27d	-0.07806871
44	0x3d747f8f	0.05969196
45	0x3d69c00c	0.057067916
46	0x3d15c75f	0.03656709
47	0x3c85e0cd	0.016342545
48	0x3dd2a0e0	0.10284591
49	0xbdc94162	-0.09826924
50	0xbd136577	-0.035985436
51	0x3c2a3baf	0.010390206
52	0x3cfecd34	0.031103708
53	0xbd8960d0	-0.06707919
54	0x3d82ffda	0.06396456
55	0xbd489fea	-0.04898063
56	0xbd957af5	-0.07298843
57	0xbd30aaaf	-0.043131527
58	0x3dfce802	0.123489395
59	0xbd6aee62	-0.057356246
60	0x3e01707f	0.1264057
61	0xbddef38e	-0.10886298
62	0x3d6df363	0.05809344
63	0x3ced5ed0	0.028975874
64	0x3b655ee2	0.0034999182
65	0xbd44f981	-0.048089508
66	0xbda31010	-0.07962048
67	0x3d33717a	0.04380939
68	0x3cb3e7cf	0.02196112
69	0xbd69dcce	-0.05709534
70	0xbd6717c7	-0.05641916
71	0x3d6d5119	0.05793867
72	0x3dd093aa	0.10184415
73	0xbdb13eee	-0.08654581
74	0x3d758253	0.05993874
75	0xbd7a9084	-0.061172977
76	0xbd9a655f	-0.07538866
77	0x3ddb33c2	0.107032314
78	0xbc0fdcb4	-0.008780647
79	0x3d918829	0.071060486
80	0xbde4c147	-0.11169677
81	0x3cbbc2bb	0.022920003
82	0x3d84ca35	0.064838804
83	0x3e07654d	0.13222237
84	0x3cba45e0	0.022738397
85	0x3e164c32	0.14677504
86	0x3de124b8	0.10993332
87	0xbcb9f672	-0.022700522
88	0xbced3183	-0.028954273
89	0xbde58a89	-0.11208064
90	0x3d9b911a	0.07596035
91	0x3c74ed78	0.014949195
92	0x3dd97604	0.10618213
93	0x3e114bbe	0.1418905
94	0x3d053626	0.032522343
95	0xbde4d162	-0.11172749
96	0xbd978df9	-0.07400126
97	0x3d9d5159	0.076815315
98	0xbac572e7	-0.0015064151
99	0xbcf86679	-0.0303223
100	0xbd99d863	-0.075119756
101	0x3dd52561	0.1040752
102	0xbd6236a8	-0.055227906
103	0x3c82ba7a	0.01595806
104	0x3ca4ba67	0.020108415
105	0x3ba8d93a	0.0051528485
106	0xbcd7731c	-0.026300006
107	0xbc27a5b9	-0.010232382
108	0x3dd28da7	0.10280924
109	0xbb3e5733	-0.0029043674
110	0x3d13cada	0.036082126
111	0x3da6243a	0.081123784
112	0xbda0e2a7	-0.078557305
113	0xbd420557	-0.047368374
114	0xbdb3d039	-0.0877995
115	0x3da6511e	0.081209406
116	0xbe0dc15c	-0.13843292
117	0x3e06e43c	0.13173002
118	0xb921968a	-0.00015410237
119	0xbe057692	-0.13033512
120	0x3cd1ea23	0.02562434
121	0xbe3ad2e4	-0.18244511
122	0xbcdf074b	-0.027225157
123	0xbdd37c5e	-0.103264555
124	0xbdb3ca29	-0.08778793
125	0x3de412c4	0.11136392
126	0x3c41454a	0.011796305
127	0xbbe958e4	-0.0071211923
128	0x3dd73c9b	0.105096065
129	0xbcb9d641	-0.022685172
130	0xbd25bac2	-0.04046131
131	0x3e029b03	0.12754445
132	0xbd845eb6	-0.06463377
133	0xbde81e1c	-0.11333868
134	0x3d83b1fd	0.06430433
135	0xbddac257	-0.10681599
136	0x3dc27585	0.09495071
137	0x3d8f17ea	0.06986983
138	0xbd6a3621	-0.057180528
139	0x3bc94187	0.0061418447
140	0x3dd1d14c	0.10244998
141	0xbdca88c7	-0.098893695
142	0x3db65e82	0.08904745
143	0x3dc31b53	0.09526696
144	0x3dc6257b	0.096751176
145	0xbc4c68c6	-0.012476152
146	0x3c53c4ed	0.012925369
147	0xbd06fe97	-0.03295764
148	0x3da1a732	0.07893218
149	0x3c18b8cf	0.009321406
150	0xbd4d5b10	-0.050135672
151	0xbdd2a338	-0.10285038
152	0xbd300113	-0.042969774
153	0xbd0da6c7	-0.03458288
154	0x3daaee0a	0.083461836
155	0x3d36d64e	0.04463797
156	0xbe0779a4	-0.13229996
157	0x3d774e4e	0.06037741
158	0xbde5d4a2	-0.11222197
159	0x3e024609	0.12722029
160	0xbd801f2d	-0.06255946
161	0x3d9c76dc	0.07639858
162	0xbd566234	-0.052339748
163	0xbe032316	-0.12806353
164	0xbded508f	-0.11587631
165	0x3d9bd888	0.076096594
166	0x3bf98787	0.007615033
167	0x3db90544	0.090342075
168	0x3df08134	0.117433935
169	0xbb9a1de4	-0.0047032703
170	0x3d42c3d1	0.047550026
171	0xbb036334	-0.0020048143
172	0x3d3d1083	0.046158325
173	0x3c212e6c	0.009837728
174	0x3c0c778e	0.008573426
175	0xbdb7eb2b	-0.089804016
176	0x3dc67f49	0.096922465
177	0xbd4c5e4c	-0.049894616
178	0xbcb947c4	-0.022617228
179	0x3be354a5	0.0069375806
180	0xbc8ace43	-0.016944056
181	0xbdd099dd	-0.10185597
182	0x3ca2a248	0.019852772
183	0xbdf9c42e	-0.121956214
184	0xbb496f76	-0.0030736602
185	0x3daf9226	0.085727975
186	0xbdba1c50	-0.090874314
187	0xbbbd8aaf	-0.0057843546
188	0x3cf6a719	0.030108975
189	0xbc0001dd	-0.007812944
190	0x3d8f4dc9	0.06997258
191	0x3dd34612	0.10316099
192	0x3de6ee1a	0.11275883
193	0x3d62f8aa	0.055412926
194	0xbe21f9e2	-0.15817979
195	0xbd644386	-0.055728458
196	0xbdc39c28	-0.09551269
197	0xbdefce4b	-0.11709269
198	0x3e315ad9	0.17319812
199	0xbd451999	-0.048120115
200	0x3e074264	0.1320892
201	0x3d6d5eb0	0.05795163
202	0xbd4b54cd	-0.04964142
203	0xbdbec04b	-0.09314021
204	0xbcf9db77	-0.030500157
205	0x3d2899dc	0.041162357
206	0xbc22c38b	-0.009934316
207	0xbcebfd6b	-0.028807363
208	0xbcec6cd0	-0.02886048
209	0xbd9556de	-0.07291959
210	0x3d8aa9e0	0.06770682
211	0x3ce215a4	0.02759821
212	0xbdb9a83c	-0.09065291
213	0xbd67e979	-0.05661914
214	0x3cad7334	0.021173097
215	0x3d5e5253	0.05427773
216	0x3c836190	0.016037732
217	0xbd5d9f0d	-0.05410676
218	0xbce8b26a	-0.028405387
219	0xbcefcb12	-0.029271636
220	0x3c8dee1b	0.017325452
221	0x3968f55d	0.00022216649
222	0x3d61bc8a	0.055111445
223	0x3de06ca3	0.10958221
224	0x3c502d6f	0.012706145
225	0x3d9d7777	0.07688802
226	0x3e135b8b	0.1439039
227	0x3dee7125	0.11642674
228	0xbd5096e1	-0.05092514
229	0x3d8bdb44	0.06828931
230	0xbbcbb6de	-0.006216868
231	0xbdc7cc79	-0.09755797
232	0x3ddedec6	0.108823344
233	0xbd60ab7f	-0.05485105
234	0x3da81140	0.08206415
235	0x3c517cfa	0.012786144
236	0xbdebfd75	-0.115229525
237	0x3e0a6af9	0.1351737
238	0x3e07a101	0.13245012
239	0xbc9444af	-0.018099157
240	0x3d31fda0	0.043454766
241	0xbded410d	-0.11584673
242	0x3c011e2d	0.00788073
243	0xbd98c181	-0.07458783
244	0x3b87ff88	0.0041503347
245	0xbdb60f96	-0.088896915
246	0x3b371890	0.0027938224
247	0x3a521080	0.0008013323
248	0xbca79e95	-0.02046136
249	0xbe043987	-0.1291257
250	0xbda78432	-0.08179511
251	0x3e0c04f9	0.13673772
252	0x3d786575	0.060643632
253	0xbc37b2d9	-0.011212074
254	0x3dffd184	0.12491134
255	0x3e00c8e1	0.12576629

lstm.bias_hh_l0 f4 [256]
0	0x3dc838cf	0.097764604
1	0x3d80f57b	0.06296822
2	0x3cffc4dd	0.031221801
3	0xbbfc66a3	-0.007702665
4	0xbd51111f	-0.05104172
5	0xbdbecc98	-0.09316367
6	0xbd229684	-0.039694324
7	0x3d0c6eab	0.03428523
8	0x3cd89ab3	0.026440954
9	0x3d38069c	0.04492818
10	0x3ccdedc8	0.025137797
11	0xbc8b133d	-0.016976947
12	0xbd509ad5	-0.05092891
13	0xbd95c426	-0.07312803
14	0x3d4ffce2	0.050778277
15	0xbce33881	-0.027736904
16	0x3ce8c82a	0.028415758
17	0xbd858210	-0.06518948
18	0x3dedea72	0.116169825
19	0x3d8b7933	0.06810226
20	0x3bebe1ce	0.007198549
21	0x3c379605	0.011205201
22	0xbda4c2a2	-0.08044936
23	0x3cabb300	0.020959377
24	0xbdb7a87b	-0.08967682
25	0xbdccaa99	-0.099934764
26	0xbdb3deda	-0.0878274
27	0xbdbe12fc	-0.09280965
28	0xbd171a27	-0.036890175
29	0x3be0db3b	0.006862072
30	0xbcc42b99	-0.02394657
31	0xbde0a4f1	-0.1096896
32	0xbdd0a295	-0.1018726
33	0x3cb67c79	0.02227615
34	0x3df3f235	0.11911432
35	0xbd75a1ce	-0.059968762
36	0xbc1154d6	-0.008870324
37	0xbdb674a4	-0.08908966
38	0xbd4893b5	-0.04896899
39	0x3d953de0	0.07287192
40	0x3add5da5	0.001688887
41	0x3da53f56	0.08068721
42	0x3d38f74a	0.04515771
43	0xbcc3dbcf	-0.023908524
44	0xbcd9aa5a	-0.026570488
45	0xbb0e5ee2	-0.0021724035
46	0xbdd91085	-0.10598854
47	0x3d4a7885	0.049431343
48	0xbd524937	-0.051339354
49	0x3d856fc4	0.06515458
50	0x3d97008a	0.0737315
51	0x3d506fe5	0.05088796
52	0x3db2e812	0.0873567
53	0xbd3d5171	-0.046220247
54	0xbdaae585	-0.083445586
55	0xbc9726fc	-0.018451206
56	0x3c746a20	0.01491788
57	0x3c0fa007	0.008766181
58	0x3d184581	0.03717566
59	0x3d968896	0.073502705
60	0x3defd096	0.117097065
61	0xbde47280	-0.11154652
62	0x3deba695	0.115063824
63	0x3d82ae5e	0.06380914
64	0x3a6d4e5e	0.000905251
65	0xbdb29cb2	-0.087212935
66	0x3d4baaa2	0.049723275
67	0x3b35d12f	0.0027743091
68	0xbb8e9386	-0.0043510823
69	0x3def6e46	0.11690955
70	0x3c63a1cb	0.013893555
71	0xbdbbe53a	-0.09174581
72	0x3df2100f	0.11819469
73	0xbe0a00f1	-0.13476922
74	0x3dd2df31	0.10296477
75	0x3de0fd4a	0.10985811
76	0x3d6451f0	0.055742204
77	0xbdc2cbea	-0.0951155
78	0x3dcfba9a	0.10143013
79	0x3da7c7b3	0.081923865
80	0xbdd08043	-0.10180714
81	0x3d6d0519	0.05786619
82	0xbc93cc24	-0.018041678
83	0xbdbf21ea	-0.093326405
84	0xbe1e0fe4	-0.1543575
85	0x3c3e92e3	0.0116317
86	0x3d8fe0b1	0.07025278
87	0xbde07d66	-0.10961418
88	0xbd94a526	-0.07258062
89	0x3d6c56a2	0.057699807
90	0xbbf54401	-0.0074849133
91	0xbdc7f514	-0.09763542
92	0x3d060886	0.032722972
93	0xbd9048d3	-0.0704514
94	0x3e0b70c6	0.13617238
95	0xbd5893b9	-0.052875254
96	0x3d180f50	0.03712398
97	0xbce34ee0	-0.027747571
98	0x3d4adee0	0.049528956
99	0x3df0bb63	0.11754491
100	0xbd79c4e5	-0.06097879
101	0xbe07ad39	-0.13249673
102	0xbd73285c	-0.05936466
103	0xbcc6c230	-0.024262518
104	0xbd911921	-0.07084871
105	0xbcb1d06b	-0.021705827
106	0x3d83aa2b	0.06428941
107	0x3d3e0e0d	0.04640012
108	0x3dd031e7	0.10165768
109	0xbda02f35	-0.07821504
110	0xbcd13898	-0.025539681
111	0xbceb7c02	-0.028745655
112	0xbceee614	-0.029162444
113	0x3c9d6486	0.019212972
114	0x3d977d84	0.07396987
115	0x3dda3eea	0.10656531
116	0x3d9d9098	0.07693595
117	0x3ddd3c53	0.108025216
118	0xbcec3724	-0.028834887
119	0x3d0a5cd9	0.033779953
120	0x3de1394a	0.10997255
121	0xbbe3f73e	-0.006956964
122	0x3aa950eb	0.0012917792
123	0x3df22806	0.1182404
124	0x3dbbd140	0.09170771
125	0x3df3182b	0.11869844
126	0x3dead87e	0.11467074
127	0x3ddd1df0	0.10796726
128	0xbc06b697	-0.008222244
129	0xb9158e6c	-0.00014262804
130	0x3e1dc301	0.1540642
131	0x3e056b0d	0.13029118
132	0x3d9df92b	0.07713541
133	0x3c3df1b1	0.011593268
134	0x3ccd167f	0.025035141
135	0xbd555534	-0.05208321
136	0xbd691cd8	-0.056912273
137	0xbd48b67a	-0.04900215
138	0x3cd61211	0.026131662
139	0x3da799e3	0.081836484
140	0xbd9b189d	-0.07573054
141	0x3dd0fe3b	0.102047406
142	0xbcb36e26	-0.021903109
143	0xbd9d5d2d	-0.076837875
144	0x3d8ecfd8	0.06973237
145	0x3e002c74	0.12516958
146	0xbda443dd	-0.080207564
147	0xbd8c44df	-0.068490736
148	0xbdc4f6de	-0.09617399
149	0x3db5a8ac	0.08870062
150	0x3d4ffe4e	0.050779633
151	0xbdca7318	-0.09885234
152	0xbdd86fae	-0.10568176
153	0xbdb8f19c	-0.09030458
154	0xbdbe32c4	-0.092870265
155	0xbdc91a9d	-0.09819529
156	0xbdb44a3b	-0.08803221
157	0xbbca8a62	-0.0061810473
158	0x3ae729ac	0.001763632
159	0xbc946771	-0.018115731
160	0xbdbc3f64	-0.09191778
161	0xbd2f65b1	-0.04282159
162	0xbca55b1d	-0.020185048
163	0x3d329031	0.043594543
164	0xbddf9524	-0.10917118
165	0x3d9806cd	0.07423172
166	0x3d9b4409	0.07581336
167	0xbb0806c9	-0.0020755997
168	0x3ca77e9d	0.020446116
169	0x3cd7099a	0.026249696
170	0xbdf03a79	-0.11729903
171	0xbd9bf930	-0.07615888
172	0xbddd0b93	-0.10793223
173	0xbda6b819	-0.081405826
174	0xbd2cd504	-0.042195335
175	0xbc159f4b	-0.009132217
176	0x3d65affe	0.056076042
177	0x3da365dd	0.07978413
178	0x3ddaf3fe	0.10691069
179	0x3dbdb9bf	0.09263944
180	0x3d891d8c	0.06695089
181	0xbd65fa7d	-0.056147087
182	0xbd566b70	-0.052348554
183	0x3d06ba09	0.03289226
184	0x3d90f7e6	0.07078533
185	0x3d9ed55a	0.07755537
186	0xbd9bc45e	-0.076058134
187	0xbdfdf17c	-0.12399575
188	0xbdca6c4d	-0.09883938
189	0x3dbdbd78	0.09264654
190	0xbd528cba	-0.05140374
191	0x3dc43854	0.09581056
192	0x3bff8c22	0.0077986876
193	0x3c3eac73	0.011637795
194	0xbdb875c7	-0.09006839
195	0x3ce95e8b	0.028487464
196	0x3c463cff	0.012099504
197	0xbdcb285d	-0.09919808
198	0x3d8022ba	0.062566236
199	0xbccca4ed	-0.024980986
200	0xbdbc3a92	-0.09190859
201	0xbe0a515b	-0.13507597
202	0x3ddef2c0	0.10886145
203	0xbd9deeab	-0.07711538
204	0x3dc15810	0.09440625
205	0x3be721e6	0.0070536016
206	0x3e1d146b	0.1533982
207	0x3c1c0aa4	0.009524021
208	0x3d8adee1	0.06780792
209	0x3de37de4	0.11107996
210	0x3d0c7950	0.03429538
211	0xbdb2dbf8	-0.08733362
212	0x3c3d9cc9	0.011573025
213	0x3e010a67	0.12601624
214	0xbd928671	-0.07154549
215	0x3d9dfee4	0.07714632
216	0x3dcc7027	0.09982329
217	0x3a897e67	0.0010489941
218	0x3dd22a6f	0.10262
219	0xbd93b505	-0.07212261
220	0x3d253af3	0.04033942
221	0x3ddc3b4d	0.10753498
222	0x3b729b37	0.0037018785
223	0xbd517609	-0.051137958
224	0x3c97558d	0.018473411
225	0x3e1797f8	0.14804065
226	0xbcd3a0e3	-0.025833553
227	0x3de86dfc	0.11349103
228	0x3e1c3d15	0.15257676
229	0x3b48ce8b	0.0030640687
230	0x3d454169	0.048158083
231	0xbd0bb0f5	-0.034104306
232	0xbdafe9ce	-0.085895166
233	0xbd2eee01	-0.042707447
234	0x3d90b677	0.070660524
235	0x3d8febcf	0.07027399
236	0x3cd15443	0.025552874
237	0x3dd63c67	0.104607396
238	0x3cbda8de	0.023151811
239	0x3b4b5d56	0.0031030974
240	0x3a32d12c	0.000682133
241	0xbdbc9be3	-0.092094205
242	0xbb0076d3	-0.0019602075
243	0x3db4d9fd	0.088306405
244	0x3de8c55c	0.11365768
245	0x3de75079	0.11294646
246	0xbe32d399	-0.1746353
247	0xbda8c820	-0.08241296
248	0xbd8672de	-0.06564878
249	0xbcf8df1d	-0.030379826
250	0xbd28cecf	-0.041212853
251	0x3e1e44ed	0.1545598
252	0x3df6ae05	0.1204491
253	0xbdff3219	-0.12460727
254	0x3ccf7e14	0.025328673
255	0xbcf9105b	-0.030403307

lstm.weight_ih_l1 f4 [256, 64]
0	0xbd1f5395	-0.03889807
1	0xbd640831	-0.055671874
2	0x3d8adedc	0.06780788
3	0xba6128cd	-0.00085891486
4	0x3e0eb460	0.13935995
5	0x3da15f13	0.07879462
6	0x3d75f9ea	0.06005279
7	0xbcdb89b2	-0.026799057
8	0xbd84f37f	-0.06491756
9	0xbd4aefa7	-0.049544957
10	0x3d7fdf6d	0.062468935
11	0xbc13a9c0	-0.0090126395
12	0xbdaf7f41	-0.08569194
13	0xbd95a4df	-0.07306837
14	0x3db341c8	0.08752781
15	0x3dad2e4c	0.08456096
16	0x3df9b789	0.1219321
17	0x3daf3850	0.08555663
18	0xbd99227e	-0.07477282
19	0xbc2309ab	-0.0099510355
20	0xbe0100f9	-0.12598027
21	0x3e072f85	0.13201721
22	0xbdb61638	-0.08890957
23	0x3e04fb01	0.12986375
24	0x3d1d2603	0.03836633
25	0xbdae1331	-0.08499754
26	0xbd69d990	-0.05709225
27	0x3de11ab6	0.10991423
28	0x3e12dcd0	0.14342046
29	0x3d8de99e	0.069293246
30	0x3e1f9e66	0.15587768
31	0xbd840d06	-0.064477965
32	0xbdcddf17	-0.10052317
33	0xbda9f28c	-0.08298215
34	0x3d03172e	0.032004528
35	0x3d6716a0	0.05641806
36	0xbdd0e8be	-0.10200642
37	0x3db904c2	0.090341106
38	0xbdc6aeeb	-0.09701332
39	0x3db18dd2	0.08669628
40	0x3d66c643	0.05634142
41	0x3df3cb38	0.11903995
42	0xbc0dc5c8	-0.008653112
43	0x3d812606	0.063060805
44	0x3d01df19	0.031706903
45	0xbe0e6082	-0.13904002
46	0x3df37a3e	0.1188855
47	0x3b8988d2	0.0041972185
48	0x3de3bb69	0.1111973
49	0xbdc51bd7	-0.09624451
50	0x3da8e104	0.08246043
51	0xbdfcd00c	-0.12344369
52	0x3d9e7420	0.07736993
53	0x3df59dc0	0.11992979
54	0xbd99edee	-0.075160846
55	0xbd5a2715	-0.053259928
56	0xbdb98d8c	-0.09060201
57	0x3d08d90f	0.03341013
58	0x3debec14	0.11519638
59	0x3cc64b11	0.024205716
60	0x3e1ee15b	0.15515654
61	0xbd99afec	-0.075042576
62	0x3de28de7	0.11062222
63	0xbce7b7da	-0.02828591
64	0x3e1103ed	0.14161654
65	0xbd7503c9	-0.059818063
66	0xbd88a103	-0.066713355
67	0x3c7683fa	0.015046114
68	0xbd6b5f6f	-0.05746406
69	0x3d159c63	0.036526095
70	0xbd9e7998	-0.07738036
71	0xbdbfa734	-0.09358063
72	0xbdf46ebd	-0.11935184
73	0x3c838323	0.016053742
74	0x3d60a0c9	0.054840837
75	0x3e0d83ce	0.13819811
76	0x3df5e4c1	0.12006522
77	0xbcc0a8f8	-0.02351807
78	0x3b9876df	0.0046528424
79	0xbbbd0e68	-0.0057695396
80	0xbdcb001e	-0.09912132
81	0xbdd2dfef	-0.10296618
82	0xbd9a93f2	-0.075477496
83	0x3d9e88b9	0.077409215
84	0xbd86901f	-0.06570458
85	0x3e0674a9	0.1313044
86	0x3d39ac84	0.04533054
87	0x3c87cc30	0.016576856
88	0x3d918847	0.07106071
89	0xbd073db7	-0.03301784
90	0x3d3e61e6	0.046480082
91	0x3db57dc1	0.08861876
92	0x3d6366e5	0.05551805
93	0x3bceb4e6	0.006308186
94	0x3d676870	0.056496084
95	0xbd4e0d6d	-0.050305773
96	0xbb283c7d	-0.002567082
97	0xbd9f8eea	-0.077909306
98	0xbd6e1389	-0.0581241
99	0x3e04452b	0.1291701
100	0xbdf3e4dc	-0.11908886
101	0x3d9e2377	0.07721608
102	0xbd899135	-0.06717149
103	0xbddb5d0a	-0.10711105
104	0x3dd28e2b	0.10281023
105	0xbda2933c	-0.07938239
106	0x3e17cabd	0.14823432
107	0x3d864224	0.06555584
108	0x3ccb4fea	0.02481838
109	0xbd56af43	-0.052413236
110	0xbd675564	-0.05647792
111	0x3d8957d9	0.06706209
112	0xbdbaea5c	-0.09126732
113	0xbcd83e45	-0.02639688
114	0xbc5c89f1	-0.013460622
115	0x39cf8253	0.00039579216
116	0x3cb002d5	0.021485725
117	0xbd462c66	-0.048382185
118	0xbddd8c1b	-0.108177386
119	0x3c1504da	0.009095395
120	0x3d971a74	0.073780924
121	0x3cb2d1d1	0.021828564
122	0x3c580b6c	0.013186317
123	0xbdaa7c96	-0.08324544
124	0xbc856411	-0.016283067
125	0xbdfdd1cc	-0.12393531
126	0x3cb12451	0.021623762
127	0xbe0cab57	-0.13737236
128	0x3d8f0343	0.06983044
129	0xbd9d06f9	-0.076673456
130	0x3d3aec95	0.04563578
131	0x3d8e21d9	0.0694005
132	0x3d2f3611	0.04277617
133	0xbdc5b9ce	-0.0965458
134	0x3e2ed25f	0.17072438
135	0x3d9bd4fe	0.076089844
136	0x3db90db2	0.09035815
137	0xbaabe8ec	-0.0013115681
138	0xbe025bf7	-0.12730394
139	0x3d9c71d2	0.07638897
140	0x3ddf48e6	0.10902576
141	0xbd9a4375	-0.07532398
142	0xbcbe8957	-0.023258848
143	0x3dc32667	0.09528809
144	0xbcc5d351	-0.024148615
145	0x3dcc20c4	0.09967187
146	0xbc96ceea	-0.018409211
147	0xbcc03f2c	-0.023467623
148	0x3e06e732	0.13174132
149	0x3bf753c2	0.0075478265
150	0xbced5e8e	-0.028975751
151	0x3ddb63f6	0.107124254
152	0xbdcd2f22	-0.100187555
153	0xbe0864fd	-0.13319774
154	0xbd674299	-0.056459997
155	0xbd972ee3	-0.0738199
156	0x3d0b891f	0.034066316
157	0xbdf4443e	-0.11927079
158	0x3d18c431	0.037296478
159	0xbd832147	-0.064028315
160	0xbd979c04	-0.074028045
161	0x3db17086	0.0866404
162	0xbe0582a4	-0.13038117
163	0xbdf06cfc	-0.11739537
164	0x3d379543	0.04482008
165	0x3e12f4fd	0.14351268
166	0xbd8ce01e	-0.068786845
167	0xbe154bcc	-0.14579695
168	0x3c8c3cd9	0.017118858
169	0xbdbf82d5	-0.09351126
170	0x3d4bbf10	0.04974276
171	0xbd903ffc	-0.07043454
172	0x3d75dd30	0.060025394
173	0xbcfebd5f	-0.031096159
174	0xbdab18c2	-0.083543316
175	0x3db79f87	0.08965974
176	0xbe2c7f32	-0.16845396
177	0xbe007203	-0.12543492
178	0x3db0c11f	0.08630585
179	0xbd959b01	-0.07304955
180	0x3b415f66	0.0029506325
181	0xbda225dd	-0.07917378
182	0x3d1925d5	0.037389595
183	0xbdb31b7e	-0.08745478
184	0xbdf6d1bc	-0.120517224
185	0x3c2de5a1	0.01061383
186	0xbd5eb5c1	-0.054372553
187	0x3e051d99	0.12999572
188	0x3da3e376	0.08002369
189	0x3d0d0818	0.034431547
190	0xbb255249	-0.0025226048
191	0x3bd2e437	0.0064358967
192	0x3e076387	0.1322156
193	0x3e167a93	0.14695196
194	0xbd6ee7a5	-0.058326382
195	0xbe068d10	-0.13139749
196	0x3d65a03d	0.05606102
197	0xbdc13cd1	-0.09435428
198	0x3d0ff023	0.03514112
199	0x3d3aad0a	0.04557518
200	0x3c810a09	0.015751855
201	0xbddb51ad	-0.10708938
202	0xbc7c05d8	-0.015382253
203	0xbd849056	-0.064728424
204	0xbc9c8b3b	-0.019109359
205	0x3d9ac6de	0.07557462
206	0xbd94b4fd	-0.07261083
207	0x3d4b5814	0.049644545
208	0x3e011036	0.1260384
209	0x3db6e00b	0.089294516
210	0xbd962c25	-0.07332639
211	0x3e07f23b	0.13275997
212	0x3d8fd109	0.07022292
213	0x3e15ad7c	0.1461696
214	0xbc3f930c	-0.011692774
215	0xbc394614	-0.011308212
216	0x3e030e2d	0.12798376
217	0xbbe1eea1	-0.006894902
218	0x3c70234b	0.014656852
219	0xbc890ff6	-0.016731244
220	0x3e2d6f1b	0.16936915
221	0xbd9b7e63	-0.07592466
222	0xbd2824d2	-0.04105074
223	0xbdf58978	-0.11989111
224	0xbdc8b102	-0.097993866
225	0xbcaae0c2	-0.020859126
226	0xbe136037	-0.14392172
227	0x3d8cb52e	0.06870495
228	0x3d1ea6b5	0.038733203
229	0xbd8ac33d	-0.0677552
230	0xbd86fcee	-0.06591211
231	0x3ce9fe18	0.028563544
232	0x3dcd5ffa	0.10028072
233	0x3d84597f	0.064623825
234	0xbe0797ed	-0.13241549
235	0x3cbe5281	0.0232327
236	0x3de69126	0.112581536
237	0x3d83ac36	0.06429331
238	0x3e14d520	0.14534426
239	0x3e2be6f5	0.16787322
240	0x3c804e70	0.015662402
241	0x3c66cca2	0.014086874
242	0xbca02749	-0.019549983
243	0xbd25e0cd	-0.04049759
244	0xbdd06207	-0.10174947
245	0x3c5b0d2c	0.01336984
246	0xbdeeb01d	-0.11654685
247	0x3da04545	0.07825712
248	0xbd4d59bd	-0.05013441
249	0x3bd94c4b	0.0066314093
250	0x3e230da4	0.15923172
251	0x3cbfdb30	0.023419946
252	0x3cb6ad77	0.022299511
253	0xbd1f9b8c	-0.0389667
254	0x3e06da3a	0.13169184
255	0xbd154b3e	-0.03644871

lstm.weight_hh_l1 f4 [256, 64]
0	0xbc8aef5a	-0.016959835
1	0xbcc56c5a	-0.024099518
2	0x3d879a03	0.06621172
3	0x3d81d18a	0.063387945
4	0xbdb6738e	-0.08908759
5	0xbca5a3ce	-0.02021971
6	0x39c9854c	0.0003843702
7	0x3e1222dc	0.1427111
8	0x3dc8d028	0.09805328
9	0x3d925b23	0.07146289
10	0xbda0cf4f	-0.07852041
11	0x3dccc847	0.09999137
12	0x3e12f225	0.14350183
13	0xbca258bf	-0.019817708
14	0x3d29c57a	0.041448094
15	0xbdeb8242	-0.11499454
16	0x3c8190ce	0.015816119
17	0x3d90c375	0.070685305
18	0xbdaafe7e	-0.08349322
19	0xbdfc85ce	-0.12330209
20	0x3d1d3577	0.038381066
21	0x3da6b4ed	0.081399776
22	0xbcccbd38	-0.02499257
23	0xbcb23a4a	-0.02175631
24	0xbd32b1b3	-0.0436265
25	0x3cbe028b	0.023194572
26	0xbdf302af	-0.11865746
27	0xba4ff73d	-0.0007933265
28	0xbd25f4f5	-0.040516812
29	0x3db08d6f	0.08620726
30	0xbc07236e	-0.008248193
31	0xbd504f00	-0.05085659
32	0x3d9dfc0a	0.07714088
33	0x3d568c10	0.052379668
34	0xbdd9c118	-0.10632533
35	0xbe1d370e	-0.15353033
36	0xbe013859	-0.12619151
37	0x3db80741	0.089857586
38	0x3df59e93	0.11993136
39	0x3d1878d5	0.03722461
40	0x3e1b5ea9	0.15172829
41	0xbc9905f9	-0.018679606
42	0x3dc38441	0.0954671
43	0x3d7ee7f2	0.06223292
44	0x3d8a525f	0.06753992
45	0xbd8ee1a1	-0.06976629
46	0xbdfe817d	-0.12427042
47	0x3cf057ed	0.029338801
48	0xbd2c255c	-0.042027816
49	0xbcd59f18	-0.026076838
50	0x3c1bddea	0.009513358
51	0x3dd4cfd6	0.10391204
52	0xbd18d97d	-0.037316788
53	0xbdb59a16	-0.0886728
54	0x3ddbe7f2	0.107375994
55	0x3cd022ec	0.025407277
56	0xbd87ff2f	-0.06640469
57	0xbb62e88e	-0.0034623477
58	0x3cf70cb3	0.030157423
59	0xbd31696f	-0.04331344
60	0x3d2cabe2	0.042156108
61	0x3cbf0982	0.023319963
62	0x3de7163f	0.1128354
63	0xbd3e6f05	-0.046492595
64	0x3d150b21	0.036387566
65	0x3caf3927	0.021389557
66	0xbe489e94	-0.19591743
67	0xbcaf6ea9	-0.021415072
68	0xbda4ebee	-0.080528125
69	0xbda82009	-0.08209235
70	0x3c850f9f	0.0162428
71	0x3d9efad9	0.07762689
72	0x3da20f6d	0.079130985
73	0xbd69e6b3	-0.057104778
74	0x3aef7c00	0.0018271208
75	0xbd2921d0	-0.04129201
76	0x3d863fe6	0.065551564
77	0x3bf7fa9c	0.0075677168
78	0xbde4c829	-0.1117099
79	0x3d471457	0.048603382
80	0xbc1b23a5	-0.009468948
81	0x3d8fc258	0.0701949
82	0x3d24fe3f	0.04028153
83	0xbd2298ad	-0.039696384
84	0xbd85a131	-0.065248854
85	0xbd5edb2b	-0.054408234
86	0x3e1852f4	0.14875394
87	0xbcd796a6	-0.026316952
88	0x3c9838ef	0.018581836
89	0xbd86dba0	-0.06584859
90	0x3e0b6662	0.13613275
91	0x3e33a4f1	0.17543389
92	0xbe22109f	-0.15826653
93	0xbdf12dd0	-0.11776316
94	0xbdc7f454	-0.09763399
95	0xba96dcef	-0.0011509935
96	0xbdb7c3aa	-0.08972867
97	0x3ddda106	0.108217284
98	0x3d53b4fe	0.05168628
99	0x3de979ea	0.114002064
100	0x3ce148ef	0.027500598
101	0xbe362827	-0.17788754
102	0x3d3bbb16	0.045832716
103	0x3decd857	0.11564701
104	0x3dd0f9f2	0.10203923
105	0x3d74f844	0.059807077
106	0x3cde3db0	0.027129024
107	0x3a9b848f	0.0011865067
108	0xbe1c80e1	-0.15283538
109	0x3df3bc67	0.11901169
110	0xbd0010f7	-0.03126618
111	0x3d439fb9	0.047759745
112	0xbdc00a1e	-0.0937693
113	0x3d2b750b	0.041859668
114	0x3cb65b4c	0.02226033
115	0x3e304b68	0.17216265
116	0x3da94fab	0.082671486
117	0x3e1489d5	0.14505704
118	0xbd830a5e	-0.06398462
119	0xbcb7f40e	-0.022455242
120	0x3c5ce8f6	0.013483277
121	0xbcea8626	-0.02862842
122	0x3ce86f50	0.02837339
123	0xbc7760c5	-0.015098755
124	0xbe082d5f	-0.13298558
125	0xbe107b8b	-0.14109628
126	0xbb5d4895	-0.0033765186
127	0xbdc7efb0	-0.09762514
128	0x3c2c9010	0.010532394
129	0x3cc5b81c	0.024135642
130	0x3cca4045	0.02468885
131	0x3e132310	0.14368844
132	0x3e19df19	0.15026511
133	0x3cfd904e	0.030952599
134	0xbdf6e8bc	-0.12056109
135	0xbaaaacf3	-0.0013021514
136	0xbcc7c7e5	-0.02438731
137	0x3d3d3feb	0.046203535
138	0xbda3c163	-0.0799587
139	0x39ac0e70	0.00032817153
140	0xbd9a239c	-0.07526323
141	0x3d8bb2a1	0.0682118
142	0xbd6d7108	-0.057969123
143	0x3aac71f1	0.0013156516
144	0x3b6a2657	0.0035728419
145	0x3d9dd5c1	0.07706786
146	0x3d18d961	0.037316684
147	0x3e0b3e5b	0.13598005
148	0x3c87aee5	0.016562888
149	0xbdb79bb6	-0.089652464
150	0x3defe650	0.117138505
151	0x3e070b43	0.1318789
152	0x3e0135bc	0.12618154
153	0xbe02585b	-0.12729017
154	0xbcf52cdf	-0.029928623
155	0x3b9bfd99	0.004760456
156	0xbd216d38	-0.0394108
157	0x3d8bab79	0.06819815
158	0x3d9f8811	0.077896245
159	0x3df5e3ff	0.120063774
160	0x3dc516d7	0.09623497
161	0xbd945bd1	-0.07244075
162	0x3d8945b6	0.067027494
163	0xbba693a6	-0.005083519
164	0x3dcda313	0.100408696
165	0xbd9980aa	-0.07495244
166	0xbda6d51d	-0.08146117
167	0xbe412a78	-0.18863857
168	0x3d572a51	0.05253059
169	0xbd28acc2	-0.04118038
170	0x3d6dfeb9	0.05810425
171	0x3c48373a	0.012220198
172	0x3d940c3d	0.07228897
173	0xbd5190ca	-0.051163472
174	0x3d64370e	0.055716567
175	0x3daf32bf	0.08554601
176	0xbe0f73e9	-0.1400906
177	0x3c2674a2	0.010159643
178	0xbc0d426e	-0.008621795
179	0x3dacf6b5	0.08445493
180	0xbd89e5d3	-0.067332886
181	0xbe2a4a59	-0.16629924
182	0xbd58fcfe	-0.052975647
183	0xbc389c98	-0.011267804
184	0x3e09a9c7	0.13443671
185	0x3d8927ea	0.06697066
186	0xbe28d814	-0.16488677
187	0xbac8a9f7	-0.0015309443
188	0xbdabb6cf	-0.08384477
189	0xbe24acb9	-0.16081513
190	0x3de6b7d4	0.11265531
191	0xbdcfd98a	-0.10148914
192	0xbde15ea2	-0.11004378
193	0xbced8b56	-0.028997105
194	0xbc9e3df2	-0.019316647
195	0x3dea9083	0.11453345
196	0x3db169fe	0.086627945
197	0xbdad69a2	-0.084674135
198	0xbdc48120	-0.09594941
199	0xbdda734d	-0.10666523
200	0x3bf45e57	0.0074575352
201	0xbd7c904d	-0.061661053
202	0xbde301cf	-0.11084329
203	0x3e1cfa60	0.15329885
204	0x3df55426	0.11978941
205	0x3dc6e0b1	0.09710825
206	0x3cfb8cf6	0.030706864
207	0x3d0f6a4e	0.03501349
208	0x3d112a6c	0.035440847
209	0x3de04abd	0.10951755
210	0x3dbe8e50	0.09304488
211	0xbd4c419c	-0.049867257
212	0xbdf4932f	-0.119421355
213	0xbdd98772	-0.10621537
214	0x3da8f0da	0.08249064
215	0x3e09f10e	0.13470861
216	0x3d8016ee	0.062543735
217	0xbce3d8f1	-0.027813407
218	0x3d654816	0.05597695
219	0xbd6d2ae6	-0.05790224
220	0xbd95eab5	-0.073201574
221	0x3dad3363	0.08457067
222	0xbd2ef599	-0.04271469
223	0x3ce59afb	0.028028002
224	0x3e21f60c	0.15816516
225	0x3d751945	0.059838552
226	0xbdb4e007	-0.08831792
227	0x3c3b27b7	0.011423043
228	0x3d8ecb4d	0.0697237
229	0x3da94755	0.08265559
230	0xbddb1137	-0.10696643
231	0xbe0c7010	-0.13714623
232	0x3df86fa0	0.12130666
233	0xbde34270	-0.11096656
234	0x3d647c1e	0.05578243
235	0xbdb83d24	-0.08996037
236	0x3da6915f	0.08133196
237	0xbca8bfbc	-0.020599239
238	0xb9f5987b	-0.00046843648
239	0xbd178cd8	-0.036999553
240	0xbda55015	-0.08071915
241	0xbe0c1127	-0.13678418
242	0xbd670968	-0.056405455
243	0x3d7c6d12	0.061627455
244	0x3d721645	0.05910327
245	0x3d165cfc	0.03670977
246	0xbc35c78c	-0.011094939
247	0x3d9f66c0	0.0778327
248	0x3d848c7c	0.06472108
249	0x3deba71f	0.11506485
250	0x3c24cd49	0.010058709
251	0xbe14522c	-0.14484471
252	0x3d040f62	0.032241233
253	0x3d31135c	0.043231353
254	0x3d60203f	0.054718252
255	0x3d92e3bd	0.07172344

lstm.bias_ih_l1 f4 [256]
0	0xbde543b5	-0.11194555
1	0xbdc6acce	-0.09700929
2	0xbd8f5811	-0.06999219
3	0x3d0d1d84	0.034451976
4	0xbd8fd8be	-0.07023762
5	0xbd1eaa94	-0.038736895
6	0x3e27d7d6	0.16390929
7	0x3d8ffdf9	0.07030863
8	0xbd75a803	-0.05997468
9	0x3dac0279	0.08398909
10	0x3d9d60a8	0.07684451
11	0x3c150527	0.009095467
12	0xbd92ebd8	-0.0717389
13	0xbd48a459	-0.04898486
14	0x3d3803da	0.044925548
15	0xbd70c051	-0.058777157
16	0x3c5c2ffc	0.013439175
17	0x3de8e5d2	0.1137196
18	0x3c91e5c7	0.017809762
19	0x3da9a1a6	0.08282785
20	0xbb535123	-0.0032244406
21	0xbd5bc349	-0.053653035
22	0xbc059fea	-0.008155802
23	0xbd2f0b21	-0.042735223
24	0x3d8efa2a	0.06981309
25	0x3d09bd3e	0.03362774
26	0x3d6fd199	0.058549497
27	0x3e04a45a	0.1295332
28	0x3d90a882	0.0706339
29	0x3d2b28a6	0.041786812
30	0xbcd2f0b0	-0.025749534
31	0x3d669e57	0.05630335
32	0x3cfa2ae4	0.03053803
33	0xbd6bfcaf	-0.057614025
34	0x3c4d6ec3	0.012538615
35	0x3cf42061	0.029800596
36	0xbcbbe02d	-0.022934044
37	0xbd6def77	-0.0580897
38	0x3df48411	0.11939252
39	0x3d5aaa44	0.053385034
40	0x3d966e41	0.07345248
41	0x3dbc91cc	0.09207496
42	0x3d1b8ee2	0.03797806
43	0xbdbafe4c	-0.091305345
44	0x3bf43013	0.00745202
45	0x3db9b219	0.090671726
46	0x3dfcce24	0.12344006
47	0x3d9caafb	0.076497994
48	0xbdb97cca	-0.09057005
49	0x3c9bc221	0.019013466
50	0x3de5bc00	0.11217499
51	0xbc70c69f	-0.014695792
52	0x3e144dca	0.14482799
53	0x3df39556	0.11893718
54	0xbdc60258	-0.09668416
55	0x3c1dab8c	0.0096234195
56	0x3d289d33	0.04116554
57	0x3d445176	0.04792925
58	0x3df998eb	0.1218737
59	0x3cb01c59	0.021497892
60	0xbd8fb55d	-0.07017014
61	0x3dfb498d	0.12269888
62	0x3d96010e	0.0732442
63	0x3d075f62	0.03304995
64	0x3db62ddb	0.08895465
65	0x3dac8fe2	0.08425881
66	0x3d36ec7c	0.044659123
67	0x3cab008e	0.020874288
68	0xbda6e763	-0.08149602
69	0xbda8b63b	-0.08237883
70	0x3e0278de	0.1274142
71	0x3e299d34	0.16563874
72	0xbd93816b	-0.07202419
73	0x3ab876a0	0.0014073439
74	0xbd801603	-0.062541984
75	0x3ba51746	0.005038175
76	0x3d77f4d3	0.060536217
77	0x3d703505	0.058644313
78	0x3e01fdc0	0.12694454
79	0x3db1b270	0.086766124
80	0x3ddaf72b	0.10691675
81	0xbd152523	-0.03641237
82	0x3d1c4677	0.038153138
83	0xbd79a257	-0.060945835
84	0xbcac8cd3	-0.021063244
85	0x3d8b07e6	0.06788616
86	0xbdb064db	-0.08612987
87	0xbd6954a9	-0.056965504
88	0x3aef787f	0.0018270164
89	0x3c9a60e3	0.018845027
90	0x3dfc655d	0.12324021
91	0xbd0a4620	-0.033758283
92	0x3e02e6c8	0.12783349
93	0x3de6fe98	0.11279029
94	0x3ccb1c1b	0.024793675
95	0xbdcc6729	-0.09980614
96	0xbb2c4788	-0.0026287753
97	0x3cb36512	0.02189878
98	0x3d9c7a81	0.07640553
99	0x3e1539cb	0.14572828
100	0x3d364baa	0.044505753
101	0x3d6f4dd0	0.058423817
102	0xbd9ac58b	-0.075572096
103	0x3db510d7	0.088411026
104	0xbd884cad	-0.0665525
105	0x3d5184e3	0.05115212
106	0xbc69c56e	-0.014268262
107	0x3dc0ed22	0.094202295
108	0xbde7f0ea	-0.113252476
109	0x3e136c22	0.14396718
110	0x3d0ccfb9	0.034377787
111	0x3da2b6e5	0.079450406
112	0x3dd67909	0.104723044
113	0x3dbedb85	0.09319214
114	0x3c247af4	0.01003908
115	0x3e36f525	0.17866953
116	0x3c34c09f	0.011032253
117	0xbd9f63aa	-0.07782681
118	0xbd8cf188	-0.06882006
119	0xbbc07fa0	-0.005874589
120	0x3ddbe5bd	0.107371785
121	0xbc218045	-0.009857242
122	0x3d430565	0.047612567
123	0xbd77835c	-0.06042801
124	0x3d814600	0.063121796
125	0xbd8d2672	-0.068920985
126	0x3de0ef72	0.109831706
127	0xbd0a5a04	-0.03377725
128	0x3d30a5a9	0.043126736
129	0xbd6f20c3	-0.058380853
130	0x3c57d1fe	0.013172625
131	0x3dffd069	0.12490923
132	0x3d93c4cf	0.07215273
133	0x3e03ad7c	0.12859148
134	0x3df3914f	0.1189295
135	0x3c4a4474	0.012345422
136	0xbc968e3a	-0.018378366
137	0x3bf95d5f	0.0076100077
138	0xbcb58822	-0.02215964
139	0xbc28db7c	-0.010306235
140	0xbdc61e27	-0.0967372
141	0xbdbf539e	-0.093421206
142	0xbc5dc0c8	-0.013534732
143	0x3b944901	0.0045253043
144	0x3de91b59	0.11382169
145	0xbcc3a2d4	-0.023881353
146	0x3dd40e3c	0.103542775
147	0x3d391ef4	0.045195535
148	0x3cf640c6	0.030060183
149	0x3d8f813f	0.070070736
150	0x3d25ccff	0.040478703
151	0xbbef0367	-0.0072941068
152	0x3db2366b	0.08701786
153	0x3cb86fe4	0.022514291
154	0xbdd90ed0	-0.105985284
155	0x3de81b7a	0.11333366
156	0xbd120999	-0.035653684
157	0xbda8a6ae	-0.082349166
158	0x3d95b271	0.073094256
159	0x3db22930	0.08699262
160	0xbdf167c3	-0.11787369
161	0x3cd9d5fe	0.026591297
162	0xbda9f81e	-0.08299278
163	0x3d48ffca	0.049072064
164	0x3d8aaaa3	0.067708276
165	0x3c620d26	0.01379708
166	0xbd09dd57	-0.03365835
167	0x3d737801	0.059440617
168	0x3d9e7163	0.077364706
169	0x3da8d9ef	0.082446925
170	0x3cc38ffe	0.023872372
171	0x3d50656a	0.050877966
172	0x3dc06672	0.0939454
173	0x3dd7da8d	0.10539732
174	0x3c95b7ae	0.018276062
175	0x3e0122b7	0.12610899
176	0xbdc0bf2f	-0.094114654
177	0xbca8b66a	-0.020594794
178	0xbce21434	-0.027597524
179	0x3df1a378	0.11798757
180	0xbc8b1c5b	-0.016981294
181	0xbad27cfe	-0.0016058979
182	0xbbb80612	-0.005615958
183	0x3d906c78	0.07051939
184	0xbd805ca9	-0.062676735
185	0xbbf1da7e	-0.0073807826
186	0xbd1548b2	-0.03644628
187	0x3da28701	0.07935906
188	0x3dce01c9	0.10058934
189	0xbdfa0114	-0.12207237
190	0xbdbaf6b9	-0.0912909
191	0xbd31d6f1	-0.043417875
192	0xbc150591	-0.009095565
193	0x3cbec547	0.023287429
194	0x3cac2a04	0.021016128
195	0x3c6b798b	0.01437224
196	0x3cb8e20d	0.022568727
197	0x3c6869eb	0.014185409
198	0xbce94bbe	-0.0284785
199	0xbcc0eea9	-0.023551302
200	0xbd78bf87	-0.06072953
201	0xbddc080f	-0.107437246
202	0x3e0637ed	0.13107271
203	0xbdb51003	-0.088409446
204	0x3c624580	0.013810515
205	0x3e061d6b	0.1309716
206	0xbda0df55	-0.07855097
207	0x3b9bf817	0.004759799
208	0x3d713a48	0.058893472
209	0x3db4ba23	0.08824565
210	0xbd0ec503	-0.034855854
211	0x3dd0b75c	0.10191223
212	0x3e00585f	0.12533711
213	0x3d955007	0.07290655
214	0x3ddaf34a	0.10690935
215	0x3d0c64d8	0.03427586
216	0xbd460baf	-0.048350986
217	0x3d92eb39	0.071737714
218	0xbb25429b	-0.0025216702
219	0xbd253563	-0.040334117
220	0xbc9545ae	-0.018221702
221	0xbda50e8b	-0.080594145
222	0xbda9880b	-0.08277901
223	0xbc9b42b0	-0.018952698
224	0x3c9a1006	0.018806469
225	0x3df0da77	0.11760419
226	0xbcad81c9	-0.02118005
227	0x3d3d5136	0.046220027
228	0xba92d037	-0.0011200969
229	0x3e052b09	0.13004698
230	0x3dd956c3	0.106122516
231	0x3e20c527	0.15700208
232	0x3d8d0b63	0.068869375
233	0x3dfa8cc8	0.12233883
234	0x3dcc4df1	0.09975804
235	0x3e01ed25	0.1268812
236	0x3dee29ce	0.11629067
237	0x3d64ca46	0.055856965
238	0x3dc3d697	0.09562414
239	0x3dcc5452	0.0997702
240	0x3d4f8206	0.05066111
241	0x3cec5907	0.028851045
242	0x3d99f6f7	0.07517808
243	0x3d7a8376	0.061160527
244	0xbc093cf7	-0.008376352
245	0x3e10709f	0.14105462
246	0x3d4ea5ed	0.050451208
247	0x3a79b93a	0.0009526197
248	0xbde1059b	-0.10987397
249	0xbde01d09	-0.10943038
250	0xbdae6c16	-0.085167095
251	0x3dd8622e	0.10565601
252	0xbbc65328	-0.0060523935
253	0xbc6e731e	-0.014553813
254	0xbdac30a6	-0.084077165
255	0x3dda72ba	0.106664136
